Coop Navi/MADDPG-master/model/simple_tag/agent_1/1_critic_params.pkl (torch, 52175 bytes, 7 tensors)

fc1.weight f4 [64, 63]
000000 ca b7 eb be c0 fc 54 3e 25 a1 d9 bf f3 7b 10 be
       -0.46038657 0.20799541 -1.7002302 -0.14109783
000010 49 66 4c bf d2 0d b8 3e 11 aa 89 bd 4b f2 09 40
       -0.79843575 0.35948044 -0.06721891 2.1554134
000020 a8 a0 08 40 ee d4 19 3e a9 69 b4 3d 51 f6 c2 3f
       2.1348057 0.15022632 0.088092156 1.523142
000030 88 38 54 40 51 d8 8a 3f 17 66 1f 3d 41 e0 2e bf
       3.3159504 1.0847265 0.03891572 -0.68310934
000040 3e bb 40 be ac bb c0 3e 53 c7 ae bf c2 ae 21 40
       -0.18821427 0.37643182 -1.3654579 2.5262914
000050 91 2c b3 be 67 26 e3 bf 32 e5 93 bf 95 5b ae bf
       -0.3499494 -1.7746094 -1.155432 -1.3621699
000060 02 e2 03 c0 6d 3b e2 bd c2 38 91 bf 3a 9e 01 3e
       -2.0606694 -0.11046491 -1.1345446 0.12658015
000070 e9 63 83 3f d0 1e a0 bf 36 9f c6 3d a5 66 1b bf
       1.0264865 -1.2509403 0.09698336 -0.607035
000080 4a b5 49 bf 06 97 07 3e f3 71 96 bf 83 98 09 3f
       -0.7879225 0.13241205 -1.1753525 0.5374834
000090 70 b9 5a bf fd 2b db 3d 5a 12 76 bf 4a 44 ae 3f
       -0.85439205 0.107017495 -0.9612175 1.361459
0000a0 69 40 ac bd 5f 26 ae bf c6 f0 9a 3f 5c a8 7e 3d
       -0.08410723 -1.360546 1.2104728 0.06217228
0000b0 09 82 60 40 a4 c5 4d c0 77 25 14 3d 5f c3 27 bf
       3.5079367 -3.215188 0.03616854 -0.6553249
0000c0 63 8d d6 3d 5e a8 13 bf a4 70 9c be 1b f8 95 3e
       0.10476186 -0.5767878 -0.30554688 0.29290852
0000d0 8d 7f 9a be 42 31 8f bd 88 8a 05 bf af 18 7d 3c
       -0.3017544 -0.06991817 -0.52164507 0.01544778
0000e0 59 35 32 3e 34 c9 b7 3c fa 3a 55 be 57 47 0b bf
       0.17403163 0.022434808 -0.20823279 -0.5440573
0000f0 8b 09 fa 3e 64 5f 4e 3d 25 74 e0 bd 32 4f 71 3f
       0.48835406 0.05038394 -0.10959653 0.9426147
000100 da 17 7c 3f 0b 5b 9b 3e 47 6a 7a 3e 7b ce f5 be
       0.98473895 0.30342898 0.24454604 -0.48009095
000110 85 8a fa be 2b 26 2d be c9 78 eb bd 91 08 19 bf
       -0.48933807 -0.16909091 -0.11497647 -0.59778696
000120 11 ef 6e 40 50 0f 00 be 21 7e 43 3f 9c 19 9d 40
       3.7333415 -0.12505841 0.7636433 4.909376
000130 b7 9a c5 bf c2 1a 01 40 e4 8e fb 3f 96 ea a8 3f
       -1.543784 2.0172582 1.9652982 1.319659
000140 9d 02 f2 3e 1e 41 5a bd 1e b0 d4 3e 2a da 9c bd
       0.4726762 -0.053284757 0.41540617 -0.07658799
000150 d0 7e b7 be c0 d5 9e be 1c 74 9e be 50 5c 0f 3f
       -0.35838938 -0.31022453 -0.3094796 0.5600023
000160 9f 7d 6b c0 34 4b da 3e 07 15 f4 be 7e e3 99 40
       -3.6795423 0.426355 -0.47672293 4.80902
000170 b4 3a 2d bf 6b b6 03 40 6a 0a e5 3f 88 16 2c 3f
       -0.676677 2.058009 1.7893803 0.6722188
000180 2f 4b 05 3f 18 db 95 be 7e 44 b4 be 4f bb c2 3d
       0.52067846 -0.29268718 -0.35208505 0.095083825
000190 4f 63 c1 3e 04 4f e2 3e 3d 1c c7 3e 5d 17 7a 3e
       0.3777108 0.4420091 0.38888732 0.24422975
0001a0 85 56 71 bf 52 49 d4 be 7a 81 b0 3e 59 c3 0b 40
       -0.94272643 -0.4146219 0.34473783 2.183798
0001b0 db ec 44 40 70 c5 f9 3f 8e 69 f2 3f 12 77 ec 3b
       3.0769565 1.9513378 1.8938463 0.0072163427
0001c0 6b 9d 18 be 2f ca 75 be 94 ac 22 3f 86 19 26 be
       -0.149038 -0.24002908 0.63544583 -0.16220674
0001d0 f0 39 22 3e 78 20 04 3f 04 48 3e 3e 00 75 54 3e
       0.15842414 0.51612043 0.1858216 0.20747757
0001e0 37 c2 b9 be cf b6 8d 3d 9d 97 ff 3e 50 62 56 be
       -0.36280987 0.069196336 0.4992036 -0.2093594
0001f0 9a 0e e0 bd 8c 94 81 bd 50 67 15 3e 67 22 50 3f
       -0.10940285 -0.06327161 0.14590192 0.81302494
000200 40 8b 93 3e 37 f9 86 3f 70 0b 83 3d 2a b4 01 3e
       0.28817177 1.0544804 0.06398666 0.12666383
000210 31 d6 1a be 49 08 b7 be 66 bb ab 3e db 1c 40 c0
       -0.1512077 -0.3574851 0.3354141 -3.0017612
000220 fd f4 2e bf 5e 36 09 3f d7 36 dd bf 91 48 80 40
       -0.6834257 0.5359858 -1.7282361 4.008858
000230 82 70 fa 3e 3c f1 54 3f 5f 33 c4 be 09 ca b9 be
       0.48913962 0.83180594 -0.38320443 -0.36286953
000240 b2 2e 44 bf bb 80 91 3f 2d df 94 3d 87 ef e6 3d
       -0.7663375 1.136741 0.0726913 0.11276155
000250 ec a9 2d 3f bf f0 a8 be 5c d0 a6 be d1 23 3a 40
       0.67837405 -0.32996175 -0.3258084 2.908436
000260 53 7a 85 bd 0d 66 23 40 00 0a 0b c0 b8 6a 81 40
       -0.06517472 2.5531037 -2.1724854 4.044277
000270 5b 26 09 3f 2c d7 49 3f a5 8a 2d be 23 57 a0 3e
       0.5357415 0.7884395 -0.1694742 0.3131648
000280 84 02 30 3e a8 82 d1 3f a2 b6 a9 bc 84 46 cc be
       0.1718846 1.6367998 -0.020716969 -0.3989755
000290 5e cb 9e be 5d 48 6c bf 3d 35 19 3f 54 41 bc be
       -0.31014532 -0.9229792 0.5984686 -0.3676859
0002a0 2d a5 23 bd 07 8d 24 c0 ad 3f 23 c0 4b c6 13 be
       -0.039952446 -2.5711076 -2.5507615 -0.14431112
0002b0 c9 34 01 3f a8 70 6a 3f d6 e7 4a be 86 05 2c be
       0.5047117 0.9157815 -0.19815001 -0.16798982
0002c0 a3 eb cf 3c 6e 3a f1 3e f3 13 88 bf c8 b0 0f 3e
       0.025380915 0.4711489 -1.0631088 0.1403228
0002d0 f9 2b f5 bc b9 66 0f bd b4 f3 c9 bd 72 e5 f9 3e
       -0.029928194 -0.035010073 -0.09860936 0.48807865
0002e0 55 01 31 bf d1 f5 3d bf ce 43 c6 3e 3e 50 75 3d
       -0.6914266 -0.7420321 0.38723606 0.059890978
0002f0 6a 4f e2 bd e7 1c e5 be a9 a0 47 bf 41 b2 a0 be
       -0.11050303 -0.44748613 -0.7797952 -0.31385997
000300 d1 8e 78 c0 b2 64 b6 3f e0 94 6c be 86 b7 04 c0
       -3.8837168 1.424948 -0.23103666 -2.0737014
000310 96 0e b9 bd be 4b a3 3f 6e 0f 24 3f 33 ac 57 3f
       -0.09035985 1.275749 0.64086044 0.8424713
000320 cd d1 97 bf 1a 27 2d c0 21 50 f6 be d7 cf f0 3f
       -1.1860901 -2.7055116 -0.48108009 1.8813428
000330 4e ce a6 3e 11 11 d3 3e 64 14 25 3f 1b 62 40 be
       0.32579273 0.41223958 0.6448424 -0.18787424
000340 01 24 10 bf 37 1f 96 3f a6 f4 35 c0 96 5c ef be
       -0.5630494 1.1728276 -2.8430572 -0.46750325
000350 79 f2 07 c0 34 08 8e bf 4e 88 30 bf 70 c1 76 be
       -2.1241744 -1.1096253 -0.68957984 -0.24097228
000360 86 7b a4 3f 29 f0 d7 bf 1a b7 51 40 5f d4 ea 3f
       1.2850196 -1.6870166 3.2768006 1.834606
000370 82 43 cc 3e c3 22 c5 3e ee 7a 3c 3f 10 09 9c be
       0.39895254 0.38503084 0.73625076 -0.30475664
000380 ff fb 12 c0 62 89 42 3d 29 2d 80 bf ff 4a ae bf
       -2.2966306 0.0474943 -1.0013782 -1.3616637
000390 eb a2 b5 be 23 c6 49 bf 5f 04 87 3f d1 bb ad 3e
       -0.3547586 -0.7881796 1.0548209 0.33932355
0003a0 88 df 98 bf f3 b2 18 3f e0 18 d9 3e 6b 97 f2 3f
       -1.1943216 0.59648055 0.4240179 1.8952459
0003b0 24 56 d2 3e 89 62 18 3f 81 e9 3f bf 21 dd 84 be
       0.41081345 0.5952535 -0.74965674 -0.25949958
0003c0 e9 98 c4 be 99 11 af 3e 12 95 63 3e fa 13 33 3f
       -0.3839791 0.34193113 0.22224835 0.69952357
0003d0 03 4b 69 3f c8 26 67 be 44 20 ad 3e df 1b 43 bf
       0.91130084 -0.22573388 0.3381368 -0.762144
0003e0 0c 36 17 bf c9 a7 dd bd 65 1d 71 be 2a dd 26 40
       -0.59066844 -0.10823018 -0.2354637 2.6072488
0003f0 7e 04 60 bf 69 99 91 3d 23 29 da bd 8b 41 b0 be
       -0.87506855 0.07109339 -0.106523775 -0.34425005

fc1.bias f4 [64]
000000 c7 58 90 c1 2e c1 e9 c0 46 45 48 c1 41 07 76 c1
       -18.043348 -7.3048315 -12.516912 -15.376771
000010 6a 52 e5 c0 cd e0 2f c1 47 cd 1d be 55 b8 86 bf
       -7.1663103 -10.992383 -0.15410338 -1.0525004
000020 ab 92 d7 c0 2e a0 ce c0 98 f3 46 bf 57 66 fd be
       -6.736654 -6.457053 -0.77715445 -0.49492142
000030 05 c6 2d c1 5d 69 69 c1 be d4 51 c1 ca 06 f7 be
       -10.860845 -14.588223 -13.114439 -0.48247367
000040 cb e2 f4 be ea 9b ac 3e 73 b2 52 3f 7d 32 c8 bf
       -0.4782928 0.33712703 0.8230354 -1.5640408
000050 5b 60 bb c0 7f a9 c3 c0 64 17 17 c0 12 28 e1 c0
       -5.855512 -6.1144404 -2.3608027 -7.0361414
000060 ad b8 90 40 d5 c3 2e c1 65 81 12 bf c4 3d bc bf
       4.5225434 -10.922811 -0.5722869 -1.4706349
000070 79 7d 18 be d4 37 54 c1 50 b2 03 c1 9c 98 5c c0
       -0.14891614 -13.26363 -8.231033 -3.4468145
000080 6f 0a 8a c0 70 8e 86 c1 01 a4 9b 3e aa fb 1b c1
       -4.3137736 -16.81955 0.30398563 -9.748941
000090 57 26 44 c1 5e 8d 54 bf 70 c3 17 c1 c9 dd 6b 41
       -12.25936 -0.8302821 -9.485214 14.741647
0000a0 03 4b a7 c0 e2 34 00 bf b5 a8 04 40 4f f5 1e c1
       -5.2279067 -0.5008069 2.072797 -9.93489
0000b0 f2 50 57 3e 8d b6 c1 3e 23 3a 6f c1 79 08 67 bf
       0.21026972 0.37834588 -14.951694 -0.90247303
0000c0 dc b2 26 c1 c6 d5 ff c0 3f 14 15 3f 32 36 9c be
       -10.418667 -7.9948454 0.5823402 -0.30510098
0000d0 3d 17 95 c0 b3 5e 1e bf 80 82 03 c1 95 57 e5 3e
       -4.6590867 -0.6186325 -8.21936 0.44793382
0000e0 e1 04 bf bf 85 85 3c c1 8d 8b b0 3e e9 08 82 bf
       -1.4923364 -11.782598 0.3448147 -1.0158969
0000f0 5e 79 6f 3e bf b2 5f 3e 7b 15 91 be 03 57 8a bd
       0.23386142 0.2184553 -0.283367 -0.067548774

fc2.weight f4 [64, 64]
000000 4f cd 78 3e a7 34 85 bd 1c 52 20 bf 4e 9e e8 3e
       0.24297069 -0.06504183 -0.6262529 0.45433277
000010 aa 84 8b 3d 68 ae 49 3f 3c a7 de bd 39 38 0b c0
       0.06812413 0.7878175 -0.10871741 -2.1753066
000020 f7 c1 9d 3e de 6c bc bf 35 b5 45 bf 8b 36 b8 3d
       0.30812046 -1.4720724 -0.77229625 0.08994778
000030 e1 e8 0b 3e 94 a4 ec 3e b5 1b bd 3d d2 1a 85 bd
       0.13663055 0.46219313 0.092338 -0.06499256
000040 4a 1a 58 bf 3b f0 73 bd b1 66 aa bf 2a ab b5 bd
       -0.84415114 -0.059555274 -1.3312589 -0.088705376
000050 c2 bc 61 bf fb 2d 5f bf 56 dd 9f 3c ad b7 d2 be
       -0.88178647 -0.87179536 0.01951472 -0.41155759
000060 a7 24 2e bf ad 8b 2b 3e 11 31 3f 3e fa d4 4c bf
       -0.6802468 0.16752501 0.18671061 -0.80012476
000070 6c a7 b0 3e 07 b8 dd bf 97 a9 88 bd 7b 02 fb be
       0.34502733 -1.7321786 -0.06672972 -0.4902533
000080 17 71 f4 be 4e 6a 16 3e b3 1f 5f bf 67 80 6c 3c
       -0.4774253 0.1468899 -0.87157744 0.01443491
000090 a1 9b 9e 3c 8a e0 6e be ad fd 42 3e bf 04 9b bf
       0.019361319 -0.23327842 0.19042082 -1.2110823
0000a0 a4 85 09 3d da ec be bf e9 9b 51 bf 67 7b 43 bf
       0.033574715 -1.4916031 -0.81878525 -0.7636017
0000b0 3f 1e a1 3c 40 92 07 3f ea 25 ac be 85 3f 17 be
       0.019667743 0.52957535 -0.33622676 -0.14770325
0000c0 74 89 3c be f9 37 52 bf 26 69 48 be 33 75 e6 bf
       -0.18411809 -0.8211666 -0.19571361 -1.8004516
0000d0 07 6f 1f 3f c6 83 e3 3d 2c 9c b0 3d 21 9b 83 bf
       0.6227879 0.11109118 0.086235374 -1.0281717
0000e0 78 43 57 3d 18 47 03 bf ea 49 13 bf 04 66 f9 bd
       0.052554578 -0.51280355 -0.5753466 -0.12177661
0000f0 f8 8f 11 be 4f de 76 bd 6b 8d ab be 83 63 85 bf
       -0.14215076 -0.060270604 -0.3350633 -1.0420994
000100 88 8e c6 be a1 25 ab bf 72 72 2d bf 19 68 9b 3e
       -0.38780618 -1.3370858 -0.67752755 0.30352858
000110 bf 21 8a 3e d3 e3 33 bf 43 f5 44 bf ee 37 ea bd
       0.2697887 -0.7026951 -0.7693674 -0.11436449
000120 8f 78 cf 3d 2a b7 0e bf 7b f1 cb bd 1d 68 9a be
       0.101304166 -0.55748236 -0.09958168 -0.30157557
000130 d8 61 b1 be 7d d1 97 be 24 98 6e be 71 ed d8 3c
       -0.3464496 -0.29652014 -0.23300225 0.026480408
000140 e6 55 b4 bf a5 b5 a1 3d c5 9f 04 c0 d5 ba f5 be
       -1.4088714 0.07895974 -2.0722516 -0.47994104
000150 29 7d 24 3f 5e f5 c7 3e 1f 8b 47 be bf a5 bd bd
       0.6425348 0.39054388 -0.19486664 -0.09260129
000160 58 e5 ad be 05 a8 9a 3e 63 ec 9f bd 88 64 9d bf
       -0.33964038 0.30206314 -0.07808759 -1.2296305
000170 c8 38 c3 be 58 13 4e 3d 0b ec ae be 19 72 11 bf
       -0.38129258 0.050311416 -0.34164461 -0.56814724
000180 a1 e4 ad bf cd 90 df 3e 17 5c 14 be 65 14 2c bf
       -1.3585397 0.43665162 -0.14488254 -0.6721862
000190 21 ed 82 3e 27 2e 89 bd f5 72 56 bf 03 04 90 bf
       0.2557154 -0.06698256 -0.8376916 -1.1251224
0001a0 fa 61 be 3e d1 73 4b be 8a 95 99 be f9 c6 75 be
       0.37184125 -0.19868399 -0.29996902 -0.24001683
0001b0 91 ae fa 3e 98 dd 9e bf 01 4a 75 bf 7c 83 a1 3c
       0.4896131 -1.2411375 -0.95816046 0.019716017
0001c0 4d 90 43 3e 49 b7 d2 3e 99 ca 84 bf 9b af e6 3d
       0.19098015 0.4115546 -1.0374328 0.11263963
0001d0 6d 36 02 be 30 d1 dd be f0 1a 17 bf ca fa e6 bd
       -0.12716074 -0.4332366 -0.5902548 -0.11278303
0001e0 81 28 39 bf 01 74 55 3f 9b f0 a9 bf 78 cb cf bd
       -0.7232743 0.8338013 -1.3276552 -0.101462305
0001f0 66 1b b2 be 7a ec 93 3c 4a 8a cd be 3a b1 97 bf
       -0.34786528 0.018057097 -0.4014457 -1.185096
000200 b8 43 3a c0 e1 41 34 c0 4a 13 74 bf fd 9c 3e bf
       -2.9103832 -2.816521 -0.9534193 -0.74458295
000210 59 9c 20 3e a8 c5 4a c0 7c 68 a0 3f c1 df cc 3f
       0.15684642 -3.168314 1.2531886 1.6005784
000220 48 e2 a0 bf b2 e7 7f c0 4f 37 75 bf 38 25 d5 3d
       -1.2569056 -3.9985166 -0.9578752 0.104074895
000230 f7 c1 a9 3e 35 b4 3f bd dd 5d 0d 3c cc 1e 60 bf
       0.33155796 -0.04680272 0.008628336 -0.8754699
000240 65 3f 9a bf 6a 6f b8 bf 92 0c 53 c0 9f 9a 77 bf
       -1.2050596 -1.4409001 -3.2976422 -0.9672031
000250 4f 6a 11 c0 fc c3 9a bf 36 92 b6 bf 1b 1e 90 c0
       -2.2721136 -1.209106 -1.426337 -4.503675
000260 6d 33 2e c0 14 74 c3 bf 4d 69 50 3f cf 7c 60 bf
       -2.7218888 -1.5269799 0.81410676 -0.8769044
000270 3e 62 ba be 27 a1 85 3e 08 73 60 bf 25 cc dd bf
       -0.36403078 0.26099512 -0.87675524 -1.7327925
000280 d7 f9 0e 3f e9 ef 74 bf 12 47 31 3f 6a a5 11 3d
       0.55849975 -0.95678574 0.6924907 0.03555814
000290 ac 30 55 3f 99 a4 0b bf a7 42 60 bc e1 44 29 c0
       0.8327739 -0.5454803 -0.013687766 -2.644829
0002a0 8b 22 b7 bf 3d f1 ca 3e 98 bd b0 3d 38 c6 7d c0
       -1.4307417 0.39637175 0.08629912 -3.9652233
0002b0 b0 ce 1c 3f 89 b0 9b bd 26 73 e3 be cb 05 37 c0
       0.6125288 -0.07602031 -0.4442379 -2.8597286
0002c0 88 df 47 3e eb 26 37 3f a0 8f 2f c0 5e 34 a2 3e
       0.19518864 0.7154376 -2.7431412 0.31680578
0002d0 03 19 b1 bf cb 28 60 bf af c7 19 bf ac 0e 0e bf
       -1.3835758 -0.87562245 -0.6007032 -0.5549114
0002e0 63 ed 5f bf 31 91 7d c0 24 78 7e c0 59 57 c7 3f
       -0.874716 -3.9619868 -3.9760828 1.5573531
0002f0 4b 9b dd bf 0d 98 5b bf 48 31 45 3f 0a ba 04 bf
       -1.7313017 -0.85778886 0.7702832 -0.51846373
000300 72 84 31 3d 46 1c 16 be 16 1f 13 bd 0e a1 6d be
       0.0433392 -0.14659223 -0.035918318 -0.23205969
000310 0a b8 82 be f5 d9 1a bf 65 eb 1c 3e f9 14 71 bf
       -0.25531036 -0.60488826 0.15324171 -0.94172627
000320 26 9c d3 be 39 12 2d bf 8c b6 11 be 5e cc e2 3d
       -0.4133007 -0.6760593 -0.14229792 0.11074136
000330 70 fe ef be 39 5a 3b be 9b b4 43 be ff 16 98 be
       -0.46873808 -0.18296136 -0.19111864 -0.29705045
000340 f7 54 c1 bd 21 36 60 bc 3a 03 9a 3c ff 02 3e be
       -0.09440034 -0.01368478 0.018800367 -0.1855583
000350 90 0d 0c be 88 3c b3 be 93 0f a9 3d 95 b6 a8 3e
       -0.13677049 -0.3500712 0.08254924 0.329518
000360 c4 2c 56 bf ee 84 19 bf f5 9b 01 be b5 4b 5e bf
       -0.83662057 -0.5996846 -0.12657149 -0.8683427
000370 16 b6 35 3e 8f 71 e0 bd 6f 7d 34 be bd 1c 94 be
       0.17745242 -0.109591596 -0.17625974 -0.28928176
000380 0d 1e 53 bf ff 68 6a be 23 94 14 3e 13 a5 bd be
       -0.8246773 -0.22891615 0.14509635 -0.37040004
000390 7e 72 09 3b ab 7a 1c bf 8c f0 41 be 29 54 80 bf
       0.0020972784 -0.61124676 -0.18939418 -1.0025684
0003a0 44 11 bc 3d 02 cf 4e bf 3d fe b3 3c 76 25 a1 3e
       0.09182981 -0.8078462 0.021971816 0.31473893
0003b0 5e a6 8a bf 05 0e 0a bf 1d c0 d4 be 2e 51 f9 be
       -1.0832021 -0.5392764 -0.4155282 -0.48694748
0003c0 52 2c a8 bd 00 55 20 bf f1 da 82 bf 24 2b 2d 3e
       -0.082115784 -0.626297 -1.0223066 0.16910988
0003d0 f9 79 11 bf ff b6 57 bf 07 d9 5e bf 46 29 83 be
       -0.5682674 -0.84263605 -0.8704991 -0.25617427
0003e0 0f 3c 19 3d 34 3d a7 be f9 e2 35 bf 0d b4 11 bf
       0.037410792 -0.32663882 -0.7104946 -0.5691536
0003f0 94 5f 43 bf a0 63 43 3e e3 e6 c2 3d c4 88 38 bf
       -0.76317716 0.19080973 0.095166944 -0.7208369

fc2.bias f4 [64]
000000 38 9d 73 40 c4 b4 4d bf 2c 11 0e bf b8 f5 66 3f
       3.8064709 -0.8035395 -0.5549495 0.9021869
000010 e6 cf 90 bd 24 3b 3f 3d d6 88 3c 3f 2d a6 4d c0
       -0.070709035 0.04668726 0.73646295 -3.2132676
000020 5a ff 77 3f ad 8d 49 3d 5b 1c 92 bd c8 27 31 40
       0.9687401 0.04920738 -0.071343146 2.768053
000030 92 b2 b0 bf a1 71 28 bc f2 1c 21 bc 98 26 ae bf
       -1.3804495 -0.0102809975 -0.009833561 -1.3605528
000040 30 e0 47 bf 4c dc cf 3f 8f e7 fc bf f8 44 5e bf
       -0.7807646 1.6239104 -1.9758166 -0.8682399
000050 c5 58 9c bf b1 96 d1 bf 47 c1 26 bf f7 99 78 3e
       -1.221459 -1.6374112 -0.6513867 0.24277483
000060 64 ca 57 3f 3d 6c 0e bf c0 5e 15 c0 14 59 17 bf
       0.842932 -0.5563391 -2.333908 -0.591203
000070 27 76 29 bf 92 e0 9e 40 eb 7a e6 be c7 cf 6c 3e
       -0.6619591 4.9649134 -0.45015654 0.23126136
000080 25 56 8e 3f b7 1e c1 bf 18 35 53 3e 4d cb 48 40
       1.1120039 -1.5087498 0.20625722 3.1374085
000090 f1 af 2f 40 4a 9e 12 40 ca 17 10 3f ff 16 36 41
       2.7451136 2.2909112 0.562863 11.380614
0000a0 cb 5a 55 bf 91 50 9b bf 71 ca db be 10 a5 8b bf
       -0.83341664 -1.2133962 -0.42927888 -1.0909748
0000b0 be ea 69 3e 1a ee 81 c0 b7 b2 1a be 34 f6 77 c0
       0.22843453 -4.060315 -0.15107237 -3.874402
0000c0 9c 54 51 c0 5c 2b 56 c0 13 72 9b 3f 05 83 a6 3f
       -3.2707891 -3.3463964 1.2144188 1.3008734
0000d0 2c ad e9 3e 21 c9 d5 bf 0e 97 4b 40 e9 29 a0 3f
       0.45639932 -1.6702005 3.1810946 1.251279
0000e0 dc 25 c2 3c 0e fd 8b bf 32 8d 00 40 1e 89 75 40
       0.023699693 -1.0936601 2.0086179 3.836494
0000f0 97 bb 34 bf 2c e5 a3 3f e9 bc 9d bf 84 2c 06 3e
       -0.7059874 1.2804313 -1.2323276 0.13102919

fc3.weight f4 [64, 64]
000000 72 57 92 bf d9 e0 7e be 0a de a3 3f 9c bd 82 3f
       -1.1432936 -0.2489046 1.2802136 1.0214114
000010 56 a3 ea 3e ff 13 f9 3f 87 3e da 3e 3b e3 42 bf
       0.4582774 1.9459227 0.4262583 -0.76127976
000020 ba 44 75 be fa 26 de be 81 95 86 bf af 0e 04 40
       -0.23951998 -0.43389112 -1.0514375 2.0633962
000030 c6 92 8d 3f 0e 1d c1 be b2 a7 ed be f1 6e 67 bf
       1.1060417 -0.3771748 -0.46417004 -0.9040366
000040 53 43 dc bf c1 04 f5 3e 2e d2 0b bf ec a4 59 3e
       -1.7208046 0.4785519 -0.54617584 0.21254319
000050 e0 b1 38 bf ba 2a 18 bf f0 7d 95 be d7 16 e5 3f
       -0.72146416 -0.59440196 -0.29197645 1.7897595
000060 0c 89 98 3e cd fa 04 40 5d e5 d5 bf de 58 d7 bf
       0.29792058 2.0778077 -1.6710621 -1.6823995
000070 78 bc 13 3f 04 c2 06 3f 90 1d c6 3d 05 5d 7a 3f
       0.57709455 0.52639794 0.09673607 0.97798187
000080 07 42 a2 3f 29 e6 be 3b f3 23 3c 3e 01 a3 83 bf
       1.26764 0.005825777 0.18373089 -1.028412
000090 81 79 a8 bf 36 ef b9 bf 50 0a 26 bf 6c 4b 87 bf
       -1.316208 -1.4526126 -0.64859486 -1.0569892
0000a0 e3 42 34 3d a9 f6 71 3d 28 11 f7 be 2d 10 d0 bf
       0.0440091 0.059073124 -0.48255277 -1.6254936
0000b0 c0 21 c6 bf 06 60 0b 3e b7 2c fa be 44 f0 2c bb
       -1.547905 0.13610849 -0.4886224 -0.0026388327
0000c0 d4 2d 1d 3f 07 d1 0f c0 5f dc 8a be 6f 62 81 3f
       0.61398053 -2.247133 -0.27121255 1.0108165
0000d0 75 dd 70 bf 30 72 a2 3e 8f 0a a9 3e 36 73 c7 3f
       -0.94087917 0.31727743 0.33015868 1.5582035
0000e0 8f 67 0f 40 b4 f3 d5 be 3c e6 59 bf 18 36 83 3d
       2.2406957 -0.41787493 -0.85116935 0.06406802
0000f0 e3 b5 a2 3f 32 bb 0d bf d2 44 a5 3f bd fe 0e c0
       1.2711757 -0.5536376 1.2911627 -2.234298
000100 c9 8f bb 3d 67 b5 92 bd 89 75 31 bf 35 fa d0 3f
       0.09158284 -0.07163506 -0.6931997 1.6326357
000110 d9 5d a5 3f 32 4f 50 40 6b 96 a0 3f 10 8b 07 3f
       1.2919265 3.2548337 1.2545904 0.5294657
000120 cd 3c 7b bf b5 1e 1d 3f 57 1d fe bf 47 ba 6e be
       -0.9813965 0.6137498 -1.9852704 -0.23313247
000130 84 5a 7c bf 34 07 a7 3f 69 41 61 c0 3e 50 b1 bf
       -0.98575616 1.3049073 -3.5196173 -1.3852613
000140 3e 2f c4 3e ba 67 c8 bf 81 54 10 c0 8a 8c d0 be
       0.38317293 -1.5656655 -2.2551577 -0.40732223
000150 e5 1d 96 bf 4b f1 18 bf 6d 59 26 c0 52 2c 6d 3f
       -1.1727873 -0.59743184 -2.599208 0.9264575
000160 69 b2 35 c0 c3 93 cc 3e 39 fd 3c bf fa e7 f0 bf
       -2.8390143 0.39956483 -0.7382389 -1.8820794
000170 85 64 36 40 f7 05 a6 bf 14 37 5e 3f 55 25 41 c0
       2.8498852 -1.297057 0.8680279 -3.0179036
000180 3b 9f 17 40 3e a6 b5 bd 6b 9b fc 3f 38 d8 ef bf
       2.3690937 -0.08869599 1.973493 -1.873786
000190 b8 20 79 c0 e0 c2 4c 3f 97 da d8 bf e2 e8 05 c0
       -3.892622 0.79984856 -1.6941708 -2.092339
0001a0 87 f9 dc 3f f4 90 a5 bf e2 a5 cf bf 25 3f 3f 3d
       1.726365 -1.2934861 -1.6222498 0.04669108
0001b0 ee 7a f9 3f 19 bd b4 3e 37 41 a8 be c9 6e a2 3e
       1.949064 0.3530052 -0.32862255 0.31725147
0001c0 e6 cc ac bf c4 25 7b bf 03 dd 0c 3e 5a 77 cd 3e
       -1.350003 -0.981045 0.13756184 0.4013012
0001d0 70 6e 68 bf 02 72 3f 3f 18 1b d2 bf 11 71 d5 3d
       -0.90793514 0.7478334 -1.6414518 0.10421956
0001e0 61 4e 08 be 53 ee 89 bf 05 09 b0 be 05 ae 52 3e
       -0.13311149 -1.0775856 -0.3438188 0.20574196
0001f0 9a d1 e1 3f b2 60 e1 3f 57 86 25 bf f3 3a a1 bf
       1.764209 1.7607634 -0.6465811 -1.2596115
000200 8c d5 a1 c0 65 25 ff 3e 9d 58 89 3f 7c 8f 4e 40
       -5.0573177 0.49833217 1.0730168 3.2275076
000210 22 03 09 40 bb fe a0 bf b9 66 f1 bf e4 0b e8 3f
       2.1408162 -1.2577738 -1.8859473 1.8128629
000220 f4 29 a9 bf 19 e5 35 bf 99 55 28 be 82 c2 94 3f
       -1.3215928 -0.710527 -0.16438903 1.1621859
000230 3c cc 07 3f f1 b6 92 3f 73 25 5a 3f ac 28 b6 3c
       0.5304601 1.1462079 0.8521339 0.02223619
000240 1b 73 21 3f 92 81 17 3e d9 01 26 3f 67 2a 5f 3f
       0.6306626 0.14795521 0.6484657 0.87174076
000250 00 ce b7 be d3 75 3d 3d 53 ad a1 3f f9 8f 3e 3f
       -0.35899353 0.046254944 1.2631019 0.74438435
000260 f3 c1 b4 3d a1 af 29 bf 42 50 1c 3e 6d 8a 84 3f
       0.088260554 -0.66283613 0.15264991 1.0354744
000270 56 10 88 3f ed 20 25 3f 4f e8 a7 3e c8 67 81 bf
       1.0629985 0.64503366 0.32794425 -1.0109797
000280 4e 3c 36 40 23 af 03 c0 c8 d0 8d 3f 06 dd d8 3f
       2.8474307 -2.0575645 1.107934 1.6942451
000290 62 a7 d1 bf 58 8c c0 bd f6 7c b0 bd 0a 0f 1e bf
       -1.6379206 -0.094017684 -0.086175844 -0.617417
0002a0 3e 60 b7 3f bc 86 7c 3f 1f cc 74 3f 23 f1 c3 3e
       1.4326246 0.9864309 0.95623964 0.3826991
0002b0 4d 16 bd 3f 93 8f 81 be 1b ae 58 bf 3b 14 82 3d
       1.4772431 -0.2530485 -0.84640664 0.06351515
0002c0 17 58 6f 3d b2 5d b3 3d 72 f2 98 3d 4f f3 14 c0
       0.05843362 0.08758105 0.07468118 -2.3273504
0002d0 43 5f 9a be 70 e4 87 3f 41 8b aa 3f fa 79 dd 3f
       -0.30150804 1.0616589 1.3323747 1.7302849
0002e0 d3 32 60 be 4a 0d c3 3e 4f 64 2b 3e ed ba bc bf
       -0.21894388 0.38096076 0.16737483 -1.4744545
0002f0 51 d2 96 bf 0d 8c 12 3f 31 d1 af 3e 0d 3d 08 40
       -1.1782933 0.5724495 0.34339288 2.1287262
000300 76 72 ad bf 4f 8f 93 be 78 22 a7 be 3a 39 23 3f
       -1.3550556 -0.28820273 -0.32643485 0.63759196
000310 c9 36 05 40 b7 1f 72 be 78 40 c9 bf 6e 82 fc 3f
       2.0814688 -0.23644911 -1.5722799 1.9727304
000320 af 85 bf be 9b bc 06 be c6 d5 a2 3f 59 48 93 3f
       -0.3740668 -0.13157885 1.2721488 1.1506454
000330 34 77 10 40 91 f9 e1 3e 81 44 2d 3f d4 da ac c0
       2.2572756 0.44135717 0.67682654 -5.4017124
000340 ab 02 cf bf 19 19 db be 07 2a b2 bd d8 a7 96 bf
       -1.6172689 -0.42792585 -0.08699422 -1.1769972
000350 1b fd 37 3e 78 55 5d 3f 6c ca dd 3f 4a 38 36 3f
       0.17967646 0.8645854 1.7327399 0.7117964
000360 f2 5a 0d c0 3f 25 80 3e 27 8f 84 3f ee 6a 2b 40
       -2.2086759 0.25028417 1.0356187 2.6784015
000370 d8 45 00 c0 e0 12 bc bf fa 8b 39 3f 70 18 1f 40
       -2.004263 -1.469326 0.7247921 2.4858665
000380 01 c4 79 3f dd 2c 0d c0 1f 70 99 be f9 41 be bf
       0.97564703 -2.2058632 -0.29968354 -1.4863883
000390 51 98 6d 3f fb dc 64 be 6e db 40 bf c0 42 89 bf
       0.9281054 -0.22349922 -0.75334823 -1.0723495
0003a0 1c 0b 86 be 5a 3f 49 40 b8 a1 29 3c ed 05 df be
       -0.2618035 3.1444917 0.010353498 -0.4355921
0003b0 db fd c9 bf 40 ce 5f 3f de 8f 2d bf d6 f7 dc be
       -1.5780596 0.8742409 -0.6779765 -0.43157834
0003c0 86 2c c6 3f 12 9c 6e be 74 c1 8f 3f 62 cc 3e c0
       1.5482337 -0.23301724 1.1230912 -2.9812245
0003d0 ef 6c 23 3d 88 e2 44 c0 60 ad fb 3f 24 b3 e7 be
       0.03989881 -3.0763264 1.9662285 -0.4525386
0003e0 7e a5 82 c0 72 d7 89 be 38 da bf bf ca d7 47 c0
       -4.0827017 -0.26922184 -1.498847 -3.1225457
0003f0 40 ec d3 be ad 0a 95 bf 08 7a 62 bf b9 e6 18 be
       -0.41391182 -1.1643883 -0.88467455 -0.14931764

fc3.bias f4 [64]
000000 64 7b ff c0 eb 86 e9 40 ac e8 23 c1 de df df 3f
       -7.9838123 7.2977195 -10.244305 1.7490194
000010 3a 4d e5 bf 0f 8b e3 bc a2 0f 5d 41 7a dc ee 40
       -1.7914193 -0.02777627 13.816317 7.4644136
000020 46 1c 1b c1 a3 e9 f2 40 09 67 95 c0 c2 65 cf c0
       -9.694403 7.59102 -4.6688275 -6.4811716
000030 bd 0a fc c0 13 74 3f 40 e8 36 9a 3f c6 1a 26 c1
       -7.876311 2.9914596 1.2048006 -10.3815365
000040 39 4d 14 c1 b0 29 0f 41 2d 71 f3 3f 13 d7 65 41
       -9.268853 8.947678 1.9018914 14.365008
000050 ef d6 f4 c0 f8 95 e5 c0 1d a9 8d bf 2b a6 22 c1
       -7.651237 -7.1745567 -1.1067234 -10.165568
000060 b3 a9 b4 40 60 ab 8f c0 85 b3 a5 3f f7 de 51 c0
       5.645715 -4.48967 1.294541 -3.2792337
000070 af 15 9c bf 68 04 8c c0 3a 70 15 c1 57 30 a2 c0
       -1.2194117 -4.375538 -9.339899 -5.068401
000080 79 01 d0 40 f6 e4 94 3f c4 31 ef be ca 5e 8f c0
       6.50018 1.1632373 -0.46717656 -4.480321
000090 33 25 2c c1 3a be 1c c1 34 3e 5d 41 a3 03 29 40
       -10.759082 -9.796442 13.827686 2.640847
0000a0 81 e4 08 41 60 fc 19 c1 d6 48 7f c0 44 c3 91 c0
       8.555787 -9.624115 -3.9888206 -4.555086
0000b0 5f 48 36 bf 76 dd 3c 41 2f 55 27 c1 ba 62 a0 3f
       -0.7120418 11.804068 -10.458297 1.2530129
0000c0 41 0d 60 3f a1 0c 07 c1 b2 5f c9 c0 5c d3 3a c0
       0.87520224 -8.440583 -6.2929316 -2.9191504
0000d0 a0 7e 20 c0 95 b6 04 c0 39 72 56 40 8b 2c 13 c1
       -2.5077286 -2.073644 3.3507216 -9.198375
0000e0 00 26 31 40 10 5e 8a c0 58 7d f6 3f 2d ac ad bf
       2.7679443 -4.3239822 1.9257002 -1.3568169
0000f0 a2 a3 22 40 c6 02 1b 3f b4 d7 3a c0 20 7e 92 be
       2.5412374 0.60551107 -2.9194155 -0.2861185

q_out.weight f4 [1, 64]
000000 7d b0 8b be 41 11 79 3f d9 37 48 be 9e 79 74 3e
       -0.27283087 0.9729195 -0.19552554 0.23874518
000010 c9 6b 7b 3e 9d 20 ca be ac 28 04 40 e7 8e 3b 40
       0.24552836 -0.39478007 2.0649824 2.930597
000020 84 7c 12 be 44 e3 8d 3e c1 37 9e be 23 14 87 3e
       -0.14305311 0.27712452 -0.30901912 0.2638255
000030 45 b2 8b be da 46 1c 3f 35 12 21 3f 12 7a 85 be
       -0.27284446 0.6104561 0.62918407 -0.26069695
000040 77 2b 11 bf c4 2d d4 3f 62 19 c6 3e c9 df f6 3e
       -0.5670695 1.6576467 0.3869124 0.4821761
000050 4f c2 aa be 67 b2 b4 be 3a 03 ab be 25 71 78 be
       -0.3335137 -0.3529236 -0.334009 -0.24261911
000060 22 4f 07 3f cc 8c 5c 3e 98 49 ae 3c c5 c7 36 3f
       0.5285512 0.21538085 0.021275327 0.71398574
000070 20 05 8a 3f 41 4a 8a 3f 98 2d 80 be 1c ab f8 bd
       1.0782814 1.080391 -0.25034785 -0.121420115
000080 b8 60 a5 3e f6 fe 24 3e 39 d4 81 3e 2c 53 c4 be
       0.32300353 0.16112885 0.25357226 -0.38344705
000090 94 fb 4d be 99 64 66 bf c5 36 08 40 6a 46 39 3e
       -0.201155 -0.8999725 2.1283429 0.18093267
0000a0 0c ea 11 40 90 f9 80 bf 5b 94 e5 3e 97 64 5d bf
       2.27991 -1.007616 0.4483975 -0.8648161
0000b0 02 da 15 3d a7 8a 52 3e f0 01 81 be dc c6 39 3e
       0.03658486 0.20560704 -0.2519679 0.18142265
0000c0 80 f6 3f 40 2f 3d 23 bf 28 0f 33 bf 7b c4 83 bd
       2.9994202 -0.63765234 -0.69945 -0.0643396
0000d0 a3 ca dc 3e 23 2f 85 be da 6b e9 bf f7 82 3d bf
       0.4312335 -0.26012525 -1.8236039 -0.7402796
0000e0 ed 89 3b bf 79 5f 6c 3e 53 35 8c 3f d1 5f b2 be
       -0.73257333 0.23083295 1.0953773 -0.34838727
0000f0 f1 be 56 3f 47 0f ed 3e 31 a2 84 be ef d6 98 3c
       0.83885103 0.46300718 -0.25904992 0.018657176
