Coop Navi/MADDPG-master/model/simple_tag/agent_2/1_critic_params.pkl (torch, 52175 bytes, 7 tensors)

fc1.weight f4 [64, 63]
00000000: d129 f1bd 420a af3d 4424 fe3d 7c00 35be
00000010: f5bf 9dbe cd95 d4bc c737 73bd 612a 4d3d
00000020: acf8 dc3f 1b61 4dc0 985d 8bbd e6e0 873f
00000030: 094d cbbf cb24 2941 c8ea 1ebe 37da 1b3f
00000040: 766d a13e 5f42 d0be 5ef3 593b a736 d8be
00000050: a1ab 3d3e fb84 ae3e 7b5c 743e 420d 6c3e
00000060: 36e1 e1bf d940 4e40 438c f1bf 2efa 9040
00000070: e7ca 95c0 5963 9a41 2e23 6a3d 00dc f03e
00000080: 75d1 d1bd 2c44 ccbe 09ad 9abd 7b30 923e
00000090: e5b0 3dbe 4b1a 8ebe 92b7 4ebe 5a17 5abe
000000a0: 9afb 4f3e f435 89bf 73a0 e03f 9412 90c0
000000b0: 7985 69c0 e4fe 4841 5036 3fbd f834 fb3e
000000c0: 4af3 af3d a290 0d3d befe 7f3c 2264 913e
000000d0: 070f e3bd 0441 dfbc 0953 ec3d 1724 33bd
000000e0: d702 35be 968d b13d abdb de3c 6730 6ebd
000000f0: 7ac0 fabd 9b2f a9bd 7c6a e5bd 8e38 103f
00000100: 22b9 13be a004 1b3e 33fb b43d 1d18 7bbe
00000110: f896 563e c844 16be 9e3b 0dbd 5e08 0ac0
00000120: 0165 2d3f 3035 27c0 3260 ce3e 7105 25c2
00000130: dffe 0442 53f2 50bd b8d6 6a3d e612 d53d
00000140: e194 d33d 5bb2 7abb b583 c7bd 5c04 103d
00000150: 7f8e 05be 7426 dfbe 41eb 173e 247d 0d40
00000160: 9ff6 36bf bc4b 743d eb3d de3e 17f9 9bc0
00000170: 0c3c 793f 2a78 80be ec7c abbd bdbc 643e
00000180: 523c 2e3e 63b5 a4bd d521 76be d9a3 ad3e
00000190: 6039 1cbd 0f5d bd3e 8e16 7fb9 da67 2140
000001a0: 98c8 bcbe 4448 26be 41b0 f6be 484e c8c0
000001b0: 3324 a53f 47ef 4cbe 3bbb 48bd 67f5 17be
000001c0: d6f7 043d 0b4f 01be e8b1 a63e 639c 25be
000001d0: 9caa f53d 6141 183e 87ac 93bc dedf b43d
000001e0: 42f4 19bd 1643 48ba 618c 9a3d eb7f e5ba
000001f0: 3366 0c3d 2acb dcbc 579d b93f 5533 f03f
00000200: 8592 67be 7554 f2be faa9 81bf d6a2 163f
00000210: 6b11 b53e d403 15be 594e 88c0 4de6 0fbf
00000220: cb14 80bf a75d 86bf 9ac7 28c0 ffe9 47c0
00000230: 9157 b9bf 782e 4c3f 8219 f2be 741a 03be
00000240: c030 61bf 28c2 3c3d 5baf b0be 5768 5b3e
00000250: ab2c e63e e698 6cbf 11cf 8a40 bb87 3a3f
00000260: 2535 2e40 e82d 723d b75d f23f ce03 81c0
00000270: f3ba b8bf d4e9 3b3f 2107 1c3f 1b94 41be
00000280: a870 bbbe f685 25bf 68a2 ecbd 9415 2a3e
00000290: 0255 2fbc 99c4 a5bd 7507 753f d45f 853f
000002a0: 5729 2fc0 19f7 12be a5df a53e 8543 b6c0
000002b0: c904 c6bf 0ce2 4e3f 414f b03d fd89 ef3e
000002c0: 87b5 b0be b9c6 383f a6ff 133a 637d 33be
000002d0: ea70 993e 8663 d93e c2d5 4cbe 2516 b4bc
000002e0: 7c9d 5dbe 7200 6a3f b288 49be ef18 d7bc
000002f0: 9fac 78be 220b 0abf 6203 703e e7df e6be
00000300: 27b9 cdbe 4793 f93e 81ed 263f 7845 e23e
00000310: bcbe 243f b521 5c40 96be 3940 a743 35be
00000320: e3cb 903f 2d53 00c1 1570 06c1 5224 e2bf
00000330: 4ad3 88bf 3909 6e40 d9cd 983f 8e63 463f
00000340: 4b3a 3a3f 506c c9be 10fb 19bf bc8c 0bbf
00000350: 1890 30bf b985 5ac0 00d7 31c0 a69f 2bc0
00000360: ec5c 88bf e681 24c1 b8f4 dac0 0ce7 eabf
00000370: fc69 9dbf 6962 17bf bdbf 7d3e ace0 81be
00000380: ca9a 9fbe 649e 3c3e 3e7a 453d 4a44 4f3e
00000390: bd77 813e da57 a73d 91d2 72bf 028f 2a40
000003a0: 7cea 943f ac44 a8c0 73bb acc0 1aa6 ffbf
000003b0: c44d 9cbf 4128 d2bd 5205 843d ef04 8ebe
000003c0: 2b25 763e be91 a3be 6352 8f3b 4c6e aa3f
000003d0: f23b cbbf e5f7 f03e f12d 56be e609 a4bd
000003e0: d2c1 24be e855 eb3e 557d 72be efa2 1b3e
000003f0: ac85 84bf 20c4 15bd 50f8 fbbc 6cb1 bb3f
-0.11775554 0.085468784 0.12409261 -0.17675966 -0.30810514 -0.025950337 -0.059379365 0.050089244
1.7263389 -3.2090518 -0.06804961 1.0615509 -1.5882884 10.571483 -0.1551925 0.60879844
0.31528825 -0.40675637 0.003325663 -0.42229196 0.18522502 0.3408583 0.23863403 0.23051932
-1.7646854 3.222708 -1.887093 4.5305395 -4.6810184 19.29851 0.057162456 0.47042847
-0.10245029 -0.3989576 -0.07552535 0.28552613 -0.18524511 -0.27754435 -0.20187214 -0.2129797
0.20310822 -1.071959 1.7548965 -4.502268 -3.6487715 12.562229 -0.046682656 0.4906385
0.085913256 0.03456176 0.0156247 0.28396708 -0.110868506 -0.027252682 0.11539275 -0.04373559
-0.17676865 0.086695835 0.027204355 -0.05815163 -0.12243743 -0.08261033 -0.11201951 0.56336296
-0.14426091 0.15138483 0.08836975 -0.24520917 0.20956028 -0.14674675 -0.034480684 -2.1567607
0.67732245 -2.6126213 0.40307766 -41.255314 33.248898 -0.05101235 0.057333678 0.10403995
0.10331131 -0.003825328 -0.09741918 0.035160407 -0.13042639 -0.43584025 0.14835836 2.210763
-0.71470064 0.05964254 0.43406615 -4.8741565 0.9735725 -0.25091678 -0.08373436 0.22337623
0.17015198 -0.08042409 -0.24036343 0.33914068 -0.038140655 0.3698506 -0.00024327097 2.5219636
-0.3687179 -0.16238505 -0.48181346 -6.259556 1.2901672 -0.20013152 -0.049006682 -0.14839707
0.032462917 -0.12627809 0.32557607 -0.16172938 0.11995432 0.1486869 -0.018026603 0.08831762
-0.037586458 -0.0007639391 0.075463064 -0.0017509436 0.034277152 -0.026952345 1.4501141 1.8765665
-0.22614487 -0.4733006 -1.0129998 0.5884222 0.3536485 -0.14552242 -4.259564 -0.56210786
-1.0006346 -1.049733 -2.6371827 -3.123657 -1.4479848 0.79758406 -0.47285086 -0.1280306
-0.8796501 0.0460836 -0.34508786 0.21426521 0.44955954 -0.92420805 4.3377767 0.7286336
2.7219937 0.05912581 1.893485 -4.0317144 -1.4432052 0.7340367 0.6094838 -0.18904154
-0.36609387 -0.64657533 -0.11554414 0.16609794 -0.01070142 -0.08094139 0.95714504 1.041987
-2.7368982 -0.14352073 0.3239719 -5.695742 -1.547021 0.8081367 0.086088665 0.46784964
-0.34513494 0.72178227 0.00056456996 -0.175283 0.2996896 0.42458743 -0.20003417 -0.021983216
-0.21642107 0.9140693 -0.19681051 -0.026257006 -0.242846 -0.5392324 0.2343879 -0.450927
-0.40180323 0.48745176 0.6520615 0.44193625 0.6435354 3.4395573 2.9022574 -0.17701589
1.1312221 -8.020307 -8.402364 -1.7667334 -1.068948 3.719313 1.193782 0.7749566
0.727452 -0.39340448 -0.60148716 -0.5451162 -0.6896987 -3.4144118 -2.7787476 -2.6816192
-1.0653358 -10.2817135 -6.842373 -1.835176 -1.2297969 -0.59134537 0.24780174 -0.25366724
-0.31172782 0.18419796 0.048212282 0.20240894 0.25286666 0.08171053 -0.9485255 2.6649785
1.1634059 -5.258383 -5.397882 -1.9972565 -1.2211232 -0.10261584 0.06446327 -0.2773814
0.24037616 -0.3194713 0.004373835 1.331491 -1.5877669 0.4706413 -0.20915963 -0.080097005
-0.16089562 0.4596398 -0.23680623 0.15198873 -1.0353293 -0.036563993 -0.030758053 1.466352

fc1.bias f4 [64]
00000000: 1f3f 923f aedd 483f 6b7c 93c0 f7f6 bcbe
00000010: 3a79 dcc0 849d b4be 2f15 43c1 9262 423e
00000020: ff19 2441 1680 5cbe a044 c53f 25a0 6640
00000030: fe77 aabd d9d9 ddc0 3763 b13e 676a b3bf
00000040: d705 46be 16dc bd3e 2686 debe a741 fabe
00000050: 7149 02be 72bb b43f 5f2b 80c1 e50f c8bf
00000060: d592 37c0 311c 59c1 2b48 4cc1 000b 16bf
00000070: dad0 cabe 4865 dfc0 9c62 07bf 6803 8e41
00000080: f70f c2bf 6eb1 81c1 7b19 483f 0e26 8dbe
00000090: b432 4640 0307 afc0 8eb9 60c1 d35f 7ebf
000000a0: 8d4a fdbf d3e8 e93e 57eb f6c0 4312 4ac1
000000b0: f98b 2cbe 0419 58c1 8c3e cdc0 c9e2 02bf
000000c0: f38d b7be 205c 8dbf 52ae 54bf 3951 87bf
000000d0: 2a7a d9c0 d411 053f 1523 1dbf 4e39 85c0
000000e0: eb27 05c1 2d97 8c41 aa14 8b3f a51f 1bbf
000000f0: a80e 50c0 5d58 1c41 76f1 a2c0 a298 9440
1.1425513 0.78463256 -4.6089377 -0.3690717 -6.889798 -0.35276425 -12.192672 0.18982914
10.256347 -0.21533236 1.5411568 3.6035244 -0.08323668 -6.9328427 0.34646007 -1.4016846
-0.19338165 0.37081975 -0.43461722 -0.48878214 -0.12723328 1.4119704 -16.021177 -1.5629851
-2.868337 -13.569383 -12.767619 -0.58610535 -0.39612466 -6.9811134 -0.5288484 17.751663
-1.5161122 -16.211636 0.7816388 -0.27568096 3.0968447 -5.469606 -14.045301 -0.99364966
-1.9788376 0.45685443 -7.716228 -12.629458 -0.1685027 -13.506107 -6.413885 -0.51127297
-0.35850486 -1.1043739 -0.8307849 -1.0571662 -6.7961626 0.5198033 -0.61381656 -4.163245
-8.322246 17.573816 1.0865681 -0.6059516 -3.2508945 9.771573 -5.091975 4.643632

fc2.weight f4 [64, 64]
00000000: 29a7 44be 7a9e a03f e88d 41be b64d 41be
00000010: fbb9 873f 5ff8 00bf d883 d33d 6543 8e3e
00000020: ad65 9fbf 59a9 8ebf 7454 68bf 1003 143e
00000030: 00f1 123f e5b3 253f 057d be3f c0b6 88bf
00000040: 6c7f efbe 34b6 293f a6a7 0c40 4a8d 86bf
00000050: 4061 783f dd71 0c40 7561 c340 bb50 703f
00000060: c6fd 79be a7ea 3ec0 291a 4340 18c5 a33d
00000070: 9b3f 773f 7419 be3e db24 6f3d 7726 a1bf
00000080: b72a b7bf 5183 c8bf 5eaf 093d 5318 873f
00000090: 5f3c e43e cca4 143f 4d97 a3be a472 2b3f
000000a0: b5a0 25bf 4298 27be 56ed 94bd 5339 c440
000000b0: 4df3 0540 c8da 28bf aeaf c93e 7c86 08c0
000000c0: 7d23 f13d 7baf 8ebf 7c57 dabf 7bb7 2c3e
000000d0: d33e e73c afb0 d3bf 2fa1 56be 971a 503f
000000e0: 120d 653f 1ce3 0bbe 3e1c 9f3f 4770 5c3e
000000f0: e6b6 fd3e 37db 443f 75e2 d8bd 029c 2c3f
00000100: a3fa b1bf a7f8 9d3f 6059 93bd c751 753f
00000110: cfea 173f d2b1 b9be 649e 23bf 0b75 3a3e
00000120: 8328 4bbe 473f 8740 07d5 2f40 10cc 193f
00000130: 567f dbbe 93d7 dd3d 211a 7b3f 5f95 c93f
00000140: c087 c1be 73f6 7ebe 5fca 4cbf 6d83 773f
00000150: 4bb4 80bf 3ccf 2c3f 887e e73f b315 a83e
00000160: 7622 a73d 9026 02bd f29f 9cbd 5533 f8be
00000170: c03c 7ebf 422a c33e d5ca 10bf bbb0 63bf
00000180: 1d58 883b 79f1 03c0 ff8f 4440 fc4f 9f3e
00000190: 1ff8 32bf a381 c93e cef4 953f 8f6f 66bf
000001a0: def4 ca3d 2291 633f 0773 ad3f 8929 d4bf
000001b0: e346 a63f 2fcc 1dbf 7b69 d7be d117 733f
000001c0: 5d66 543d 95be 65bd 2c5f 07c0 a375 933e
000001d0: 4636 b23e 3325 71bf b550 3b3f 74bd 0c3f
000001e0: 0f17 fa3c b5a8 c5be 46cd 60be 3344 463f
000001f0: 4146 cabd 8add e53e 4cb6 ae3d 73d3 bebe
00000200: 4166 efbf dd4d 4a3f 8726 3a3f f748 25be
00000210: 2c51 fd3e ba7d 2d3f 8cca 02be 46c7 2abd
00000220: 3da5 16bf 7640 53bf 31a3 20be 20dd 79bd
00000230: 0181 ddbe ead4 acbe 1671 c2bf 9011 27bf
00000240: 5604 4cbf 7ab9 b8be 6915 2140 b2c0 9cbf
00000250: 01cd 9d3f f3d8 36c0 8089 28bf 23d7 e63f
00000260: fe82 b3be d3ae 3ec0 fe47 853f 78dd 9d3e
00000270: 793e e83f 174a e43f a170 533f f1c9 a33f
00000280: a66e c8bd 3750 0240 d790 03c0 057b 003f
00000290: 73f9 cabf 79a5 78bf 9ee0 ed3c 802a 8f3f
000002a0: 2992 17bf 3495 143f 33c2 3f40 96e9 c03f
000002b0: 2b06 823e 7f08 f0bc 0e6b 203f 2cc4 20c0
000002c0: da8f 1dbf e239 e8bc b542 bc3f 97d2 e63d
000002d0: 549b c9be b56a e53c bba7 263f 6098 233e
000002e0: 1e6a 0a3f 0430 c03e a182 07bf cf15 80be
000002f0: bf26 1bbf e956 cf3e aac5 46bf 0625 b03e
00000300: 706d f13f 0f45 83be fbb3 3b3e 7b1c 803f
00000310: eb68 463f c361 2a3f 89db cabf 3626 94be
00000320: 9898 e83e f1f1 7abe d46b 123f 1293 eabe
00000330: bea4 7e3e 3a56 9bbd ffbe dc3d 1aee 4fbf
00000340: d637 5e3f 85de 8d3f 0589 8dbe 3313 99bf
00000350: 8f06 253e ae20 8abf 0244 db3e dda0 b6bf
00000360: 3868 ebbd b540 fb3f 4873 13bf 2991 883f
00000370: efcd ed3c a098 88bf 4c8f 7b3f cbb4 0bbe
00000380: 1aa5 e7bc 4828 b4bf b9ca 133e a0db 4b3e
00000390: f8eb dabf 984e d23f 93b0 713f 931b b53e
000003a0: ab80 efbe 1537 b1bf 572b 9abf 42a4 98c0
000003b0: e99d 5fbf ccb1 243e 1d4e eabf 7edc bcbf
000003c0: 788f 993d cfc5 e0be 5f35 abbf 73fa 6d3e
000003d0: b317 50bf 90de 56bf 9569 0a3f 750c 983e
000003e0: b963 613f e244 d6bd 5623 4f3f af01 f53f
000003f0: b7aa 913f c7f8 68be 53a0 c5bb f89c 053d
-0.19204392 1.2548363 -0.18901789 -0.188773 1.0603632 -0.50378984 0.103278816 0.27785793
-1.2452904 -1.1145431 -0.90753865 0.14454293 0.57398987 0.6472762 1.4881903 -1.0680771
-0.46776903 0.66293645 2.1977324 -1.0511868 0.9702339 2.1944497 6.1056466 0.93873185
-0.24413213 -2.983072 3.0484717 0.07996577 0.9658143 0.37128794 0.058384757 -1.2589864
-1.430991 -1.5665075 0.03361451 1.0554298 0.4457731 0.5806396 -0.3195137 0.669718
-0.64698344 -0.16366675 -0.07271831 6.1319976 2.092975 -0.65958834 0.39391845 -2.1332083
0.11774347 -1.1147302 -1.7057948 0.16866867 0.0282282 -1.6538295 -0.20959924 0.8129057
0.8947307 -0.13660854 1.2430494 0.21527205 0.49553603 0.76896995 -0.10590068 0.6742555
-1.3904613 1.2341508 -0.07194781 0.9582791 0.59342664 -0.3626848 -0.6391356 0.18208711
-0.19839673 4.2264743 2.7473772 0.60077 -0.42870587 0.10832133 0.98086745 1.574871
-0.37798882 -0.248987 -0.79996294 0.96684915 -1.0055021 0.67503715 1.8085489 0.32829055
0.0816087 -0.031775057 -0.07647695 -0.48476663 -0.9931145 0.38118178 -0.565595 -0.88941544
0.0041608945 -2.0616133 3.0712888 0.3111571 -0.6990985 0.39356717 1.1715333 -0.90013975
0.09909986 0.8889333 1.3550729 -1.6575176 1.2990383 -0.61639684 -0.42072663 0.94958216
0.051855434 -0.056089956 -2.1151838 0.28800687 0.34807032 -0.94197387 0.73170024 0.5497658
0.030528573 -0.38605276 -0.21953306 0.77447814 -0.09876681 0.44895583 0.08530864 -0.37270698
-1.870308 0.7902506 0.7271504 -0.16141115 0.49475992 0.6776997 -0.12772578 -0.04169395
-0.58845884 -0.82520235 -0.15687253 -0.061001897 -0.43262485 -0.3375619 -1.5190761 -0.65261173
-0.79694116 -0.36079007 2.5169318 -1.2246306 1.2328187 -2.8569915 -0.6583481 1.8034405
-0.35060877 -2.9794204 1.0412595 0.3083303 1.8144065 1.783511 0.82593733 1.2796003
-0.097867295 2.036146 -2.0557153 0.5018771 -1.5857376 -0.9712749 0.02903777 1.1184845
-0.592074 0.58040166 2.996228 1.5071285 0.2539533 -0.029300926 0.6266335 -2.5119734
-0.61547625 -0.028347913 1.4707857 0.112706356 -0.39376318 0.028004983 0.65099686 0.15976095
0.5406817 0.37536633 -0.529337 -0.2501664 -0.60605997 0.40495995 -0.7764536 0.34403247
1.8861523 -0.25638625 0.18330376 1.0008692 0.7750384 0.6655542 -1.5848247 -0.28935403
0.4542892 -0.24506356 0.5719578 -0.4581533 0.24867532 -0.07584806 0.10778617 -0.8122269
0.8680395 1.1083533 -0.276436 -1.1958984 0.16115783 -1.0791223 0.42825323 -1.4267842
-0.114944875 1.9629122 -0.5759778 1.0669299 0.02902886 -1.0671577 0.9826553 -0.13643186
-0.028276969 -1.4074793 0.14432801 0.19907999 -1.7103262 1.6430235 0.94410056 0.353726
-0.46777853 -1.3844935 -1.2044476 -4.770051 -0.87350327 0.16083449 -1.8305088 -1.4754789
0.074980676 -0.43900916 -1.3375663 0.2324007 -0.8128616 -0.83933353 0.54067355 0.29697004
0.8804279 -0.10462357 0.80913293 1.9141139 1.1380223 -0.22751151 -0.006031075 0.0326204

fc2.bias f4 [64]
00000000: 78db 92c0 b280 0dc1 b3a8 1d41 072f 7740
00000010: 1af0 9ac0 db7d 1940 8b0b 2bc0 c6a0 4e3e
00000020: 19fe b33f ce76 0cc0 84e7 75c0 8f86 563f
00000030: bc8b eb40 1529 5741 077a 9fc0 08a8 2f41
00000040: 1bfa 62c0 e4ce 473f 0e9a 43bf cd46 7141
00000050: ef9e 8c41 b4de 33c0 030e 40c0 7c6e 3c41
00000060: f438 0b41 73c1 d1c0 d0f2 6441 e300 a1be
00000070: a078 27c0 7ed8 5241 830f 0dbf 8cde a8c0
00000080: b0e5 31c0 1ef1 6a3f a57a fb3f 38b5 b140
00000090: 9828 8bc0 84c4 34c0 26eb f340 6f5c 36c0
000000a0: 86dd a4c0 524b 82bf 5a9a 5f40 05b4 c340
000000b0: eab6 0fc0 3e37 36c1 b50c 873f b3bf b6bf
000000c0: c1fb 70c0 7c71 d03f ebcd 7bbf 5dfa 86c0
000000d0: 8aca b640 ae19 d9c0 faa4 30c0 4c29 c6c0
000000e0: bec3 91c0 8316 31bf d141 acbf 9f51 d9be
000000f0: 7e85 7f40 6d78 743f 0114 9340 7523 10c0
-4.5892906 -8.84392 9.853686 3.8622453 -4.8418093 2.3983066 -2.6725795 0.20178518
1.406192 -2.1947513 -3.8422556 0.8379907 7.3608074 13.44753 -4.983646 10.978523
-3.5465152 0.78050065 -0.76406944 15.079785 17.577604 -2.8104677 -3.0008552 11.776974
8.701405 -6.5548644 14.30928 -0.3144599 -2.6167374 13.177855 -0.55101794 -5.2771664
-2.779644 0.91774166 1.9646803 5.5533714 -4.3487053 -2.8244944 7.6224546 -2.8493917
-5.1520414 -1.0179236 3.4937959 6.115725 -2.2455392 -11.388487 1.0550753 -1.4277252
-3.7653658 1.6284633 -0.9836108 -4.218062 5.712224 -6.7843847 -2.7600694 -6.192541
-4.5551443 -0.69174975 -1.3457586 -0.42445084 3.9925227 0.95496255 4.596192 -2.2521641

fc3.weight f4 [64, 64]
00000000: cc57 5fc0 fed4 663f 939a b3bf 609f 2ac0
00000010: ec96 093d 7d6d ee3f feef 8e3f 7a7f b5bd
00000020: 0f4b 35c0 6aaf 42c0 87ca 5cc0 6b10 92c0
00000030: 4dff 273f d2b8 e8c0 7420 26be f05e 66be
00000040: 5fd9 fa3f 9c2b 313d b132 a2c0 a030 d13f
00000050: dbc4 28bf a863 09c0 5fe7 c3c0 ea13 0ec0
00000060: 976f df3f c08a febf e652 3dc0 9692 8ac0
00000070: 4f05 283f 809c d3bf 5bff a53f 5346 393f
00000080: 6f0c 353f fd0b 78c0 5004 bebe 9404 9bc0
00000090: e491 fabf 9f5d 70bd de71 e2be 8f6c 10c0
000000a0: 6ef0 83be 384f eabe f7ff d33f e946 20bf
000000b0: 520d 1240 4698 14c0 5f96 bebf 788c 97c0
000000c0: ed46 9e3d c896 b7bf f4b3 5cbf deda 97bf
000000d0: 9e42 953e 70cd 55bf 69de 36bf 88f1 103d
000000e0: b315 f93e cddd a6be 4300 5abe 62ea f7bf
000000f0: b162 453d ae15 68bc ea2b 4c3f e3ba 4e3f
00000100: aa64 43c0 d9be 8a3c cbe2 b9be fc64 083e
00000110: e672 a1bf 973a 1c40 d5cb 9840 9417 b5bd
00000120: efa4 173e 41f3 3c3e 16ac 10bf 1e16 913f
00000130: 1897 2ac0 972b d5bf f128 d7bf d01a b8be
00000140: f6e1 43c0 e676 f43e 4435 52c0 02de 12c0
00000150: a937 24bf d01d bc3f 3dda 78c0 7329 323f
00000160: b77d eebf a048 00bd 8877 2840 994b a73f
00000170: 3f1a 413f adf4 b2bf 66b3 6a3f 6563 093f
00000180: 7554 0bc0 37c2 0840 f44c f63e 7fda 803f
00000190: 60cb 3e3f 0353 2b3f 69a2 853e 0ded 9dbf
000001a0: 2709 8fbf a06e 52bd a00f a43e 0bb5 4dbd
000001b0: dbbb 2b40 aef1 1e3e b2f6 2240 283f b0bf
000001c0: b34f a0bb feb5 07c0 42f0 01bf 3871 87bc
000001d0: 5159 a53f a467 04c0 e9c2 253f 21d2 1c40
000001e0: 8a6d e23f 491e 743f 1b78 cc3e 66b8 553f
000001f0: 22ef 5abf b56f acbe a632 88bf 9931 05bd
00000200: 0cff 02c0 f1a1 6cbe efc2 a0bf 9385 74bf
00000210: 1a8a 0f3f 9c02 41c0 5059 3a40 4b87 76bc
00000220: 530e 3ec0 a3af a5be 5951 95bf 3c39 94bf
00000230: 1997 41c0 37b2 88bf b2ac 7c3e 2860 49c0
00000240: f58a 0b3f dc90 f0bf 63ce a4c0 6d27 8fbf
00000250: 5fd0 353f a02d aebf 691c aa3f bfa2 a63e
00000260: 9fb5 cabf 5423 04bf 3d3b 3ac0 3b02 6b3f
00000270: 6860 593e 7dd8 39c0 f0c3 82c0 f163 62bf
00000280: 931a 1cbf 339c df3f 3468 d6bf 3947 09bf
00000290: 9671 c1bd e700 853e 71ea 76c0 2dc1 e7bf
000002a0: e640 cc3f 05f0 abbe b4ec fbbe 8f70 273f
000002b0: 5174 fbbf 41df 873f 92e4 4640 ba1c b0bf
000002c0: 084f 92bf 7977 41c0 b6d3 dc3f 4ea8 7ec0
000002d0: fbc2 8dc0 c9a3 2d3f c2e4 9dbe ae61 aabf
000002e0: 32dd af3d 7b07 b3bf fd05 dfbf e586 483e
000002f0: 0b1d 4b3f 0ec3 84bf 4c3c 8cbe 9269 423f
00000300: 149c 9abf 3ae8 84bf 8abf 01c0 b64a 05bf
00000310: 2fd9 b4bc 7fa4 1ebf bf7a 3d3e f84a af3c
00000320: e41b a93e bf12 103e 2470 babe a246 03be
00000330: 9313 84be 72c5 3ebf 0d7b 07bf 71fd e0bf
00000340: 3d42 9e3d 6208 10c0 a4c0 573e 3dc7 883f
00000350: e7b7 b1bf c15f 7a3f bf84 79bf f9f5 17bf
00000360: 35e5 e5bd f315 62bf 2426 7fbf f824 35bf
00000370: c816 8abf 7e8e c23e a639 18bf 3be8 443f
00000380: 5e83 85bf f013 9b3f f0ae 493f f06a 813e
00000390: 1f7c ccbe 28ec bd3f a466 b6bf 6a14 3bbf
000003a0: c240 d5be 8d35 83bf 1830 9ebf bcf7 adbf
000003b0: fbd1 40be 7ba0 b3be 8d98 5e3f 0645 c2bf
000003c0: 8b1b 1ac0 d6b4 39bd 7fe9 4fbf c684 f3bd
000003d0: c451 f9be ae65 cabe ec6b ff3e 0315 3f3e
000003e0: f1e6 9dbe dc91 473f 4bb2 663f fc39 c73e
000003f0: 3955 a2bf 03e8 10bf 1933 73be 4239 d13c
-3.4897337 0.9016875 -1.4031547 -2.6659775 0.033591196 1.8627163 1.116699 -0.08862205
-2.8327062 -3.0419564 -3.4498613 -4.564504 0.65623933 -7.272561 -0.16223317 -0.22497153
1.9597586 0.04325448 -5.068688 1.6342964 -0.6592538 -2.1467075 -6.1219935 -2.2199655
1.745593 -1.9886093 -2.9581847 -4.330394 0.656331 -1.6532135 1.2968553 0.7237293
0.707221 -3.8757317 -0.37112665 -4.844309 -1.9575772 -0.058683034 -0.442275 -2.256626
-0.2576937 -0.45763564 1.6562489 -0.626082 2.282063 -2.321794 -1.488964 -4.735897
0.07728372 -1.434289 -0.86212087 -1.1863668 0.29152387 -0.835166 -0.7143312 0.035386592
0.48649368 -0.32591096 -0.21289162 -1.9368403 0.048189823 -0.014165325 0.7975451 0.80753917
-3.053019 0.016936706 -0.36305842 0.13319772 -1.2613189 2.441076 4.774882 -0.08842388
0.14809011 0.18452169 -0.5651258 1.1334875 -2.665472 -1.6653928 -1.6809369 -0.35957956
-3.0606666 0.47746962 -3.284501 -2.2948003 -0.6414743 1.4696598 -3.8883202 0.69594496
-1.8632115 -0.03131926 2.6322956 1.3069946 0.75430673 -1.3980919 0.9167999 0.5366729
-2.1770298 2.136854 0.48105586 1.006668 0.74529076 0.6692354 0.26100472 -1.2337967
-1.1174668 -0.05137503 0.3204317 -0.050221484 2.6833408 0.15521881 2.546307 -1.3769274
-0.0048923134 -2.120483 -0.5075723 -0.01653348 1.2917882 -2.0688257 0.64750534 2.4503253
1.7689679 0.9535871 0.39935383 0.83484495 -0.8552114 -0.33678976 -1.0640457 -0.032518003
-2.0468168 -0.2310865 -1.2559489 -0.9551632 0.560701 -3.0157843 2.9117012 -0.015046905
-2.9696243 -0.32360563 -1.166545 -1.1579967 -3.0248473 -1.0679387 0.24675253 -3.146494
0.54508907 -1.8794208 -5.1501937 -1.1183907 0.71021074 -1.3607674 1.328992 0.3254604
-1.5836676 -0.51616406 -2.9098656 0.9180028 0.21228182 -2.9038384 -4.086418 -0.8843375
-0.6097805 1.7469543 -1.675055 -0.536243 -0.09445493 0.2597725 -3.8580592 -1.8105828
1.5957305 -0.33581558 -0.49204028 0.65406126 -1.9644872 1.0615007 3.1077008 -1.3758767
-1.1430368 -3.022917 1.7252109 -3.9790225 -4.4300513 0.6782804 -0.3083859 -1.331106
0.085871115 -1.3986658 -1.7423702 0.19582708 0.7934119 -1.0372026 -0.27389753 0.7594234
-1.2078881 -1.038337 -2.0273156 -0.52067125 -0.022076217 -0.6196975 0.18503855 0.021398053
0.3302909 0.14069651 -0.36413682 -0.12819913 -0.25796184 -0.7452003 -0.52922136 -1.7577344
0.07727478 -2.2505116 0.2106958 1.0685803 -1.3884248 0.9780236 -0.9746818 -0.593597
-0.112253584 -0.8831474 -0.9966757 -0.70759535 -1.0788202 0.37999338 -0.59462965 0.76916856
-1.0430715 1.211546 0.7878256 0.252769 -0.39938447 1.4837694 -1.4250073 -0.73078024
-0.4165097 -1.0250717 -1.2358427 -1.3591228 -0.18830101 -0.35083374 0.86951524 -1.5177314
-2.407931 -0.045338474 -0.8121566 -0.11890559 -0.48695195 -0.395307 0.49887025 0.18660359
-0.30840257 0.7795694 0.90115803 0.38911426 -1.2682258 -0.5660402 -0.23749961 0.025539998

fc3.bias f4 [64]
00000000: 46f1 2140 89fc c03f e85b 9b3f 22db a0c0
00000010: a13f 7241 5a86 3d40 47e6 80c0 8139 9041
00000020: dd09 b5c0 bb7c 2840 d48a 7140 2b15 d83f
00000030: 125c 44bf 513d babf b407 8d41 adb4 19c1
00000040: 0a89 c73f 155f 3541 aaaf 5841 9ba4 f2bf
00000050: 05a5 1ebf abf4 5540 ca73 c9bf 66cd 8bc0
00000060: 666a 90bf 52f5 71bf 4f34 f53e cbba 2141
00000070: d233 09c0 2f5e 4641 b23c 4abf a551 2dc0
00000080: c68a 1e3f 214b 2e40 675d 9f40 1ed6 8641
00000090: 6061 7f3e c8d0 10bf 2c28 69c0 0b19 08c0
000000a0: 1feb 3a40 7094 b3be 8106 83c0 d78f edbf
000000b0: e14b 5a3f fd3c 9340 3954 98c0 3f40 21c0
000000c0: cca6 31c0 ec74 0e40 49f7 f1bf d781 1dc0
000000d0: 2bcb 3fbe 2f09 fc3e 57cf 06c1 09e0 a9bc
000000e0: 5494 323d db51 8bc0 e8e0 c33f 9fd2 19bf
000000f0: 1a78 a0bf a320 dabc 7473 47c0 2b2d 50be
2.5303512 1.5077068 1.2137423 -5.0267496 15.140534 2.9613252 -4.02811 18.028078
-5.657454 2.632613 3.7740984 1.688146 -0.7670299 -1.4549962 17.628761 -9.60661
1.5588696 11.335713 13.542887 -1.8956484 -0.6197055 3.3430583 -1.5738461 -4.368823
-1.128247 -0.94514954 0.4789147 10.108104 -2.1437879 12.397994 -0.78998864 -2.7081082
0.619305 2.7233355 4.9801517 16.85455 0.2493949 -0.56568575 -3.643077 -2.1265285
2.9206007 -0.35074186 -4.094544 -1.8559521 0.8527203 4.601195 -4.760281 -2.5195463
-2.7758055 2.2258863 -1.890359 -2.4610498 -0.18729846 0.49225757 -8.42562 -0.020736711
0.043598488 -4.353742 1.5303011 -0.6008701 -1.2536652 -0.02662689 -3.1164217 -0.2032973

q_out.weight f4 [1, 64]
00000000: e650 f2bd 639d dabc 3e8c a73e 33e8 22bd
00000010: 28ce 903c 1bd1 4e3e 486b 9dbc 79c4 133e
00000020: 0d23 a3bd 4057 81be 9a97 253f 17ce 38bd
00000030: fbab 9bbf c49f 9d3c 3049 ce3e 1980 12bf
00000040: 49d5 9abe 4986 433d f880 fb3e 3c40 343f
00000050: 3415 473c 343e a33d 85db eabe 337e 1dbe
00000060: 94a3 c7bf 2876 3fbe 0c4f abbd 6bdb 5c3d
00000070: 2dcc 953e a85b d63d 05cb 763e cd5c ebbe
00000080: efa2 cb3f ca95 71bd c965 a33d 953c 2b3f
00000090: 60a6 c9bc c8d4 63bf ff64 c0bd 30e7 fbbd
000000a0: 4d92 17be 752a eebc b9e3 b73c 0855 c43c
000000b0: 2f13 6f3c 921b a83e cbe2 52bd e6b8 60be
000000c0: aed0 34be 1f5c dcbd bf0d ce3b d53d 07be
000000d0: 58fd be3c 8f32 42bb b5b7 7e3e 6fb6 6b3d
000000e0: e25e 993d 07d6 223e e9e3 90bc a601 16bd
000000f0: 70b9 3f3f 7163 2abe e2f1 2fbc 9234 0b3d
-0.118318364 -0.026686376 0.32724184 -0.039772224 0.017676428 0.20196955 -0.019216195 0.14430417
-0.0796567 -0.2526188 0.6468445 -0.045118418 -1.2161859 0.019241221 0.40290213 -0.5722671
-0.3024085 0.047735486 0.49121833 0.70410514 0.012151051 0.07970849 -0.45870605 -0.15380172
-1.5596795 -0.18697417 -0.08364686 0.05392019 0.29257336 0.10466701 0.24100883 -0.4596924
1.5909098 -0.05898074 0.07978398 0.66889316 -0.024615467 -0.88996553 -0.093942635 -0.12299955
-0.14801903 -0.02907298 0.022447454 0.023966327 0.014591976 0.32833534 -0.051485818 -0.21945533
-0.1765773 -0.10759758 0.0062882598 -0.13207181 0.023314163 -0.0029632186 0.24874766 0.05754703
0.074888006 0.15901957 -0.017686801 -0.036622666 0.7489233 -0.16639496 -0.010738822 0.03398568
