Coop Navi/MADDPG-master/model/simple_tag/agent_2/2_actor_params.pkl (torch, 41167 bytes, 8 tensors)

fc1.weight f4 [64, 16]
00000000: 1df4 b7be 6bd6 1ebf a6da 5a3e 2f68 323f
00000010: a184 2dbe 83ba 893f 959b cc3e 0127 f9be
00000020: 1915 ea3f 5acd 0140 0468 6f3f a619 fa3d
00000030: 7832 b03f beae 0040 1bf1 e03d d68a 993d
00000040: 18f9 883e dcaf b9be 6a80 c6be 180e d23d
00000050: a811 1f3f a3ad 203f d137 aebf 6a8f 5cbe
00000060: ac62 963e 3a0b 1140 b528 483e fe34 323f
00000070: b11b 393e 7176 ac3f 4f68 053f dcc5 edbd
00000080: a5d6 2e3e a53c 763e 3e62 24bf 3b80 053e
00000090: e40f ddbe 74ce 963d b279 6cbe 0a96 8b3d
000000a0: b334 6e3f 8c62 dc3e 061c a2bb 6c41 3e3e
000000b0: 642f 2fc0 c0d2 1dc0 4fbd 513b afd0 11be
000000c0: 2a41 853e fdb3 eebe aa29 ecbd 2be0 c83e
000000d0: e211 b53e 9bd4 8c3e 2b9a dcbe 0d9c 353c
000000e0: 4f96 1440 1bd6 c3be 2eda a23f af3d 8abe
000000f0: a95c 1dbf ba44 b43f 4e79 1cbf b11b 363e
00000100: 8a35 3a3e e918 e43a a595 dbbd c204 193c
00000110: 19c8 7cbd f479 cbb9 0d89 80bd b009 f43c
00000120: 1dee 7c3f 2491 a83e c2d3 16c0 a650 49c0
00000130: 24c2 b53f 5d11 9e3f 2bf7 e7bd bf1a b8bc
00000140: b609 643e de1a b73d 9bca c23e 82db 803e
00000150: 963c 0a3e 05dc e63d 10d5 463e 13b0 bc3d
00000160: 3139 95c0 d03b 3e40 34d7 243e b304 2e3f
00000170: a0bf 93bf 5ffd bd3e 995b b23e a275 7dbf
00000180: 9de1 723e afb0 df3d 38d0 733f 463f 413f
00000190: 0ca5 283f c805 353e 2108 8d3e 12e4 e03e
000001a0: 877e 3abe 3d46 553f 5a80 ca3d 1446 5e3e
000001b0: ce8f 85be b999 46c0 53b3 2ebe 9e18 fc3e
000001c0: 5300 143d 2324 793e 4fbc b23d 2441 28bf
000001d0: b76c a33e e824 14bf de9e 81be b0ea 12bd
000001e0: 0b8b 8d3e 9434 63bb 871f 64bd 0cad 3dbf
000001f0: 11aa d33f f9a1 66c0 6601 33be 5ad9 afbe
00000200: 6caf 41bf 63a5 ab3e 127a edbd 60f9 123f
00000210: 9d38 7cbd 60e4 cdbe 78ac 92bc 51bc 4d3f
00000220: b5db 913e 4767 90bf 0c17 a73e d91e dbbf
00000230: bbd8 353f 4e29 1fc0 40f7 ab3f d252 84bd
00000240: 4c79 24bd da93 97bd ab4d 97be b099 0d3f
00000250: 522d 64bf 59af c8bd c58c 253f 7997 3b3f
00000260: b4ac cf3d bcb0 91bf 2978 43bf 98c5 503f
00000270: 5547 cbbf fa99 0640 c07f 2b3e f929 ddbe
00000280: d18e 2e3d 8a66 8e3e 69a6 273f 3bab 9d3d
00000290: 9449 483f b569 23bf 7c16 c3bd 75d0 253f
000002a0: 27e0 8cbe d5f1 f13f 8035 26bf 8bcf 233f
000002b0: 52d8 0a40 96e6 5940 f883 10bf a4f9 d93e
000002c0: 8af3 a53e a6fb a13d ff86 cd3e 7da2 873e
000002d0: 120a 9d3d c519 dc3d 5e45 a83e 7be5 e03d
000002e0: 26b0 f5bf 6994 71bf 4a8b c7bf c9e8 8ebf
000002f0: 4fee 0340 6b88 3940 baab 4c3e abe6 463e
00000300: 8904 1ebe 8d7e 83bc a622 9f3e 5a7a 10bf
00000310: f212 0bbd e28c 0d3c 19b1 c73e 2caa 0cbf
00000320: 11f5 8bbe c4ec d03e 7982 903f 54f6 b2bf
00000330: c7c9 9bbf e679 e0bf 21f7 4cbf 7e10 28bd
00000340: 8ee7 ef3d 4d29 003d 8df4 ca3c 61c6 bbbc
00000350: 1434 b03e f0c7 56bf 763a 9abe 5b3f 303f
00000360: 14c8 d1bf ccdc 8abf 56bf 95bf 1d5e 68bf
00000370: d89c dbbf 6d67 c53f dcb3 6c3e 8118 b33d
00000380: 5533 b73e 277f 353f 6a85 4c3f 2d6f 3a3e
00000390: 6409 46be 81e4 07be 72a8 6d3f 69d1 503e
000003a0: 358d 84bf 9ea5 313e e6c4 9ebf 7b13 2d3f
000003b0: 072f d6bf 2a90 cebe 8b68 a33d ce08 edbe
000003c0: ba9e 53bf 07ff fabc 289e 8fbd 2227 eebe
000003d0: aaa3 2bbf f0a5 f53d 6909 313f 8b51 10bf
000003e0: 7af2 be3c de9e 4d3e e4f1 d63e 81d0 c23f
000003f0: a27b 0fc0 136a eb3f 85a1 38bf 9059 273e
-0.3592843 -0.62045926 0.2137247 0.6969022 -0.16945125 1.0760044 0.3996245 -0.4866257
1.8287688 2.0281587 0.9351809 0.12211923 1.3765402 2.0106654 0.10983487 0.07497184
0.26752543 -0.36266983 -0.38769847 0.102565944 0.62136316 0.6276495 -1.3610784 -0.21539083
0.29372156 2.2663102 0.19546779 0.6961211 0.1807697 1.3473645 0.5211229 -0.11610004
0.17074068 0.24046572 -0.64212406 0.13037197 -0.43176186 0.073635966 -0.23093298 0.06815727
0.9304916 0.43043935 -0.0049471883 0.18579644 -2.7372675 -2.4659882 0.0032003706 -0.14239763
0.2602628 -0.46621695 -0.11531384 0.39233527 0.35365206 0.27505955 -0.4308637 0.011084569
2.321674 -0.38249287 1.2722833 -0.27000186 -0.61469513 1.4083474 -0.61122596 0.17784001
0.18184486 0.0017402443 -0.10721902 0.009339513 -0.061714265 -0.0003881004 -0.0627614 0.029789776
0.9880083 0.32923234 -2.3566747 -3.1455474 1.4199872 1.2349049 -0.113264404 -0.022473691
0.2226933 0.089406714 0.380452 0.2516747 0.13499674 0.11272434 0.19417214 0.09213271
-4.6632314 2.9724007 0.16097718 0.6797592 -1.1542854 0.3710737 0.34835508 -0.9900762
0.23718877 0.109223716 0.9523959 0.7548717 0.6587684 0.17677987 0.27545264 0.43924004
-0.18212329 0.833103 0.09887762 0.2170642 -0.26086277 -3.1031325 -0.17060594 0.4923753
0.03613312 0.24330191 0.08727323 -0.65724397 0.3191888 -0.57868814 -0.2531652 -0.035868347
0.27645144 -0.003466879 -0.05569413 -0.74092174 1.6536275 -3.603636 -0.17481002 -0.34345514
-0.756583 0.33524618 -0.11595549 0.57411766 -0.061577428 -0.402133 -0.017904505 0.80365473
0.28487936 -1.1281518 0.3263477 -1.7118789 0.7103383 -2.486896 1.343483 -0.06461109
-0.04015474 -0.07401247 -0.29551443 0.55312634 -0.89131653 -0.0979907 0.6466792 0.73278004
0.101403624 -1.138206 -0.76355225 0.81551504 -1.5881144 2.103148 0.16747952 -0.43196085
0.04261667 0.27812606 0.65488297 0.07698675 0.7823727 -0.6383317 -0.09525773 0.64771205
-0.27514765 1.8901926 -0.64925385 0.6398856 2.1694531 3.4046988 -0.5645137 0.42573273
0.32412368 0.07909326 0.40142056 0.26491156 0.076679364 0.10747103 0.32865423 0.1098127
-1.9194381 -0.9436708 -1.5589383 -1.116479 2.0614202 2.8989513 0.19987383 0.1942393
-0.15431418 -0.016051555 0.31081122 -0.56436694 -0.033953615 0.008639546 0.39002302 -0.5494716
-0.27335408 0.40805638 1.1289817 -1.3981423 -1.2170953 -1.75372 -0.8006459 -0.041031353
0.117140874 0.031289387 0.024774814 -0.022921743 0.34414732 -0.8389883 -0.30122727 0.6884667
-1.6389184 -1.0848632 -1.1699016 -0.90768605 -1.715724 1.5422188 0.23115486 0.08744908
0.3578135 0.70897144 0.79891074 0.18206473 -0.1933952 -0.13270761 0.9283515 0.20392384
-1.0355593 0.17348334 -1.2403839 0.6760785 -1.6733102 -0.40344363 0.07978924 -0.4629578
-0.8266407 -0.030639185 -0.07012588 -0.4651423 -0.67046607 0.11994541 0.69154984 -0.56374425
0.023308981 0.20080134 0.41981423 1.521988 -2.241921 1.8391746 -0.7212146 0.16342759

fc1.bias f4 [64]
00000000: eeac 69bf 75f6 37bf a3a6 833f daa0 4c3f
00000010: 0d8c 313e 45c8 a43d 8b29 703f ffac 9e3f
00000020: a263 b7bd 319c 833f bd4b 673f 3a2f 1a3f
00000030: 80e8 9cbe 6b2d 0d3f 1a8f d4bf eff8 c73e
00000040: f070 ac3f 6a7e 44bc bd3f 5ebf 7638 a73f
00000050: befa 163f bea9 083e fdc4 dfbe 1641 a03e
00000060: 976c 0f3e 2713 89bd 9c80 fa3e 571e af3f
00000070: e7ec ca3f 5595 88bd 6e13 c03f 4d5d c03f
00000080: b224 f3bd 865b 55bf c34d 063e 9051 7dbe
00000090: 8d27 823f 0834 e3bf 843b b93e 0910 c53f
000000a0: 6193 593f 6fca 30bc 0808 563f c039 cbbe
000000b0: 9482 f0be c5ad 11bf 35fe f1be aabd 823f
000000c0: c722 673f 15bc 2abe 0259 b33f c99a bd3f
000000d0: eeb0 b73f 9983 aa3d f2f3 24bf 805a 843f
000000e0: 036b 583f e119 743d c8db c73f 7962 8e3f
000000f0: 557c b23f 6387 0bbe 75cb 08bf 2316 2cbf
-0.91279495 -0.7186044 1.0285228 0.7993294 0.17338581 0.08046011 0.9381339 1.2396544
-0.0895455 1.0282041 0.9034994 0.6022831 -0.30646133 0.5514743 -1.6606171 0.3905711
1.3471966 -0.01199303 -0.86816007 1.3064106 0.5897635 0.13346002 -0.43704978 0.31299657
0.14006267 -0.06693106 0.48926246 1.3681134 1.5853547 -0.06669108 1.500593 1.5028473
-0.118722335 -0.8334278 0.13115601 -0.24738145 1.016832 -1.7750254 0.3617822 1.5395519
0.8499051 -0.010790451 0.83606005 -0.39692497 -0.46974623 -0.56905776 -0.47264257 1.0214131
0.9028744 -0.1667331 1.4011538 1.4812862 1.435087 0.083258815 -0.6443473 1.0340118
0.84538287 0.059594993 1.5613947 1.1123801 1.3944193 -0.13625865 -0.5343545 -0.6722128

fc2.weight f4 [64, 64]
00000000: a0ff 023f 6f2b 87be efcb 323f 8845 56bf
00000010: a235 1e3e 22fc 42bf 73b3 a6bb fbe8 b3bf
00000020: cc30 573d b39f 023f 8516 0dc0 7bb0 65be
00000030: a5df 123f a257 cc3d e9c3 e93e d077 9ebe
00000040: 1d95 b2bf b352 5fbf 653c 68be af8f e7bf
00000050: 3133 83bf 1de2 20bf 16c6 24bf 1f42 59bf
00000060: 1a7c 8abf 1c0c 033e 0a35 063e dae0 c4be
00000070: 3d8d 143f 41f8 c13e 38c4 67bf f942 81bf
00000080: 0bf3 a0be 0afd 2b3f 1446 dfbe bdd5 1c3d
00000090: e739 44be 6931 05be 44a5 aebe 8fc1 21bf
000000a0: e185 8e3f e89e 6e3e 7785 59bf 3374 db3e
000000b0: 9ee3 963c 561f 30bc f753 b13d 78e6 8dbf
000000c0: 06fc 643e 89a8 d33d 2ed6 0ebf 301b 0ebf
000000d0: c6dc f5be 9396 b73c 2453 483e 0e41 fd3d
000000e0: 9035 1b3f 0dbe 133f fdb9 5fbd 8556 b4be
000000f0: c713 93bf 0cbb 503f 3687 cfbe 9020 4f3d
00000100: 969e fabe d765 9cbf fc2b 3abe a64f ba3e
00000110: 44ef bdbe ab32 613f 82f4 a63d 0cd7 7cbf
00000120: b436 453e 5026 383d 32dc 8e3e f5bf 053f
00000130: 7fd1 813e bf1a 2fbe 6028 103e 3627 573f
00000140: 0771 16bf 259c ef3e 22c4 50be 52a9 87be
00000150: f1e3 4cbd 12e5 21bf c69f 103f 4950 633e
00000160: c361 f53e 5d1c a2bd fc0c a23f b0fd 993e
00000170: e3bf a13e 03ed f4be becd 403f a18b 08be
00000180: 273d cabf fff7 34bf de25 593f 5351 bb3e
00000190: e9a0 e5be 7940 3d3f 912b a5be d51e 443f
000001a0: 473e 993f bd1a 353d 8d02 27bf 237f 013f
000001b0: 2468 073e 7635 c73d 5a2b c23e d26c f1be
000001c0: fff3 28bf 6d02 90bf bc10 9e3f 6454 473e
000001d0: 17e8 523f ab1a 0dbf 2415 09be b82d 0e3f
000001e0: 1db8 e93e 51e2 b43e 39dc b9bf 3325 4fbe
000001f0: 7194 15bd 44f2 85bf 4898 dc3d b461 21bf
00000200: 043e 84bd 22af 603d 4064 5fbe 275a 853e
00000210: 14a1 c43e a014 d2be 1191 af3e acf6 83bf
00000220: 03dd 9cbc 8797 573f 2807 1a3f c1a2 463f
00000230: d30f c2be d0e6 9d3f fa96 1f3f 82ef 863f
00000240: 46ce 753f 34fe 9a3d 37a9 c73d 679a 1d3e
00000250: 9490 633e 6bad 5abf 2ac1 ce3d b020 57bf
00000260: 6367 cbbe a528 9fbe 2937 b93f 1309 743f
00000270: 6c33 c23d 0f55 7d3e fc38 b33e 882d 5ebf
00000280: 2b59 a33e e8e7 243e 7cff f5be 90d2 5fbf
00000290: 4306 66bf 49ff 813f 1c57 b4bd 9f5c 9b3f
000002a0: 2826 97be 5146 2f3e 972a 85bf a989 5b3f
000002b0: 57fe cc3e 01d7 38be b0dd 38be 5ba3 be3e
000002c0: 4ddd f3be 2e8e 00bf 5777 b3bc d6b6 db3f
000002d0: 1825 cabe 1673 2bbc b89a a33d b37b 903f
000002e0: 0e5f 75bd c151 1f3e 0464 9fbd bbab a23f
000002f0: 6944 ec3e 93a5 a53e df6a 6dbe 503e 973e
00000300: 7d79 f0be 0e8c 65be 69cc 15bf ca65 34be
00000310: ac1b adbe b5c8 8e3f d60f ef3e 3e4e 8a3e
00000320: 01a9 9b3d 8801 51be 81e0 433e 421b 603f
00000330: ff35 273f 2242 6a3e 4e85 003f db56 75bd
00000340: 32cd bb3e 40e0 82bf ff44 33bf ec31 16bf
00000350: 61f4 da3d 7703 8bbd 7cec 933e 20b9 123f
00000360: 3c1e 5d3e 2d82 a0bc 85d9 0dbe ee50 a1bd
00000370: 5b73 e83e 73a9 713d 8102 4f3e fb41 32bf
00000380: c694 a23e 8a01 743e ec90 003f 65a4 723e
00000390: d917 28bf cc43 7b3f a3fa b33e 45f7 843f
000003a0: faf7 523f 2be2 d63c 6b1a 37bf fd0b 33be
000003b0: d8db 173d b4a9 43bf 458a be3d d878 283f
000003c0: 935e 1abf e6b0 4ebf b8a1 253f 8e77 cbbe
000003d0: 9ff2 733f dd06 363f 7f6e 773f bcfd 9a3f
000003e0: d447 36be d57a eebe 96fd 073f a23d 0a3f
000003f0: 8199 10bf 7af0 5d3e 56e7 01bf 82f8 d2bf
0.511713 -0.26400325 0.6984243 -0.83699846 0.15450147 -0.76165974 -0.00508731 -1.4055475
0.05253677 0.5102493 -2.2044995 -0.22430603 0.57372504 0.09977652 0.4565728 -0.30950785
-1.3951756 -0.87235564 -0.22679289 -1.8090724 -1.0249997 -0.6284502 -0.64364755 -0.8486652
-1.0819123 0.12797588 0.1310617 -0.38452798 0.5802801 0.37884715 -0.9053378 -1.0098563
-0.31435427 0.6718298 -0.43608153 0.038289774 -0.19162713 -0.1300713 -0.34110463 -0.6318597
1.1134607 0.23302805 -0.84969276 0.4286209 0.018419083 -0.010749659 0.08658593 -1.1085958
0.22361764 0.1033488 -0.5579556 -0.55510235 -0.4802 0.022410667 0.19562966 0.12365924
0.60628605 0.5771187 -0.05462073 -0.3522226 -1.149041 0.8153541 -0.40532845 0.050568163
-0.48949116 -1.2218579 -0.18180841 0.36388892 -0.37096608 0.8796794 0.08152105 -0.98765635
0.19259149 0.044958413 0.2790237 0.5224603 0.25355145 -0.17100047 0.14077902 0.84044206
-0.58766216 0.46798816 -0.20387319 -0.2649637 -0.05002207 -0.6324016 0.56493795 0.22198595
0.4792615 -0.07915566 1.2660213 0.3007636 0.3159171 -0.47837076 0.7531394 -0.13334514
-1.5799912 -0.7069091 0.84823406 0.36585483 -0.44849327 0.739265 -0.322598 0.76609546
1.197213 0.044214953 -0.6523827 0.5058462 0.1322332 0.09726994 0.379237 -0.47153336
-0.6599731 -1.125074 1.2348857 0.19465786 0.8238539 -0.5511882 -0.13386971 0.5553851
0.4564828 0.35328916 -1.4520332 -0.20229034 -0.036518518 -1.0464559 0.10771233 -0.6303971
-0.06457141 0.05485452 -0.21815586 0.26045343 0.38404143 -0.4103136 0.34290364 -1.0309653
-0.019148355 0.8421559 0.6016717 0.7759209 -0.37902698 1.2336063 0.62339747 1.0541842
0.96017873 0.07568017 0.09749072 0.15390931 0.22223121 -0.85420865 0.10095437 -0.8403425
-0.39727315 -0.31085697 1.4469959 0.95326346 0.09482464 0.24739479 0.35004413 -0.86788225
0.31903967 0.1610409 -0.48046482 -0.8743067 -0.89853305 1.0156032 -0.08805677 1.2137641
-0.29521298 0.17116667 -1.0403622 0.8575693 0.40037796 -0.18050767 -0.18053317 0.37234005
-0.47629777 -0.5021695 -0.021907492 1.7165172 -0.39481425 -0.01046445 0.07988495 1.128775
-0.059905104 0.1555853 -0.07782748 1.2708658 0.46145943 0.32352886 -0.231853 0.29539728
-0.46967688 -0.22416708 -0.5851503 -0.17616954 -0.33810174 1.1155001 0.4669177 0.2701282
0.07600594 -0.2041074 0.1912861 0.8754159 0.65316767 0.2287679 0.50203407 -0.059897285
0.3667999 -1.0224686 -0.70027155 -0.58669925 0.10691143 -0.0678777 0.2889136 0.5731373
0.21593565 -0.019593323 -0.13852508 -0.07876764 0.4540051 0.05899949 0.20215799 -0.6963193
0.3175413 0.23828712 0.50221133 0.23695524 -0.6566139 0.98150325 0.35152158 1.0387961
0.8240963 0.026230892 -0.71524686 -0.17485042 0.037074894 -0.7643082 0.093037166 0.6580939
-0.6030056 -0.80738676 0.6469989 -0.3973965 0.95292085 0.7110422 0.9665298 1.2108684
-0.17800838 -0.46578088 0.53121316 0.54000294 -0.5648423 0.21673766 -0.50743616 -1.6482089

fc2.bias f4 [64]
00000000: b73f 10bf 8128 143e 8f72 8c3f d0fc 543e
00000010: 1f17 0abf 0b54 4e3e a938 86be 9571 bd3e
00000020: 59d1 9b3e 202e 4b3f 36bf 3ebf 3cd0 12bf
00000030: 5f64 b53e 3946 7bbc 861f fa3e b700 12be
00000040: 66f6 9dbe f5e6 fb3d 3fa4 1abe 8c89 3e3d
00000050: 85cd b2bc 510c 1a3e 056b 2b3f bee1 973d
00000060: 026e c7be 7cf5 f73d 91b2 003f a18a ec3e
00000070: 3f36 69be 06c2 08bf 9c9f 773f 87e9 92bf
00000080: 55d3 143f a8eb c9bd b804 c43e 25d4 bfbe
00000090: 9f77 b9be 74b1 373f 6692 2c3f 9ccb 69be
000000a0: bdc7 053f e146 85be 7455 f53e bc76 d23d
000000b0: bf2f ccbe 8066 08be f87d a6be c684 063f
000000c0: 986d 23bf 151e 80bd bff4 6d3e d940 6ebd
000000d0: 5fe2 21be ae20 edbe 588b 983e 67e5 2ebe
000000e0: 419f 20bf f6b5 9bbe 8447 25be 9ec4 f2be
000000f0: 720a 9c3e a501 a33e 0245 74bd 2bbe 41be
-0.5634722 0.14468576 1.097246 0.20799565 -0.5394153 0.20149247 -0.26215103 0.3700072
0.30433157 0.79367256 -0.74510515 -0.5734899 0.3542814 -0.015336567 0.48852175 -0.14258085
-0.3085205 0.12299911 -0.15101717 0.046517894 -0.021826515 0.15043761 0.66960174 0.07416104
-0.38951117 0.12107369 0.5027247 0.46199515 -0.227746 -0.53421056 0.9672792 -1.1477517
0.5813497 -0.09859401 0.3828485 -0.3746654 -0.36224076 0.71755147 0.67410886 -0.22831577
0.522579 -0.2603064 0.47916758 0.10276553 -0.39880177 -0.1332035 -0.32517982 0.52546346
-0.638391 -0.06255738 0.23237894 -0.058167312 -0.1580901 -0.46313995 0.2979381 -0.17079698
-0.62743 -0.30412263 -0.16140562 -0.47415632 0.3047672 0.31837192 -0.059636123 -0.189202

fc3.weight f4 [64, 64]
00000000: 0178 083d ace9 a23f 967c 85bd 01a1 23be
00000010: d99f 933e f0e0 883f a578 673f 7678 97bf
00000020: 0139 023f e857 fc3e b916 c73f e2f9 b3be
00000030: dba6 8fbe 7d4c 94be de1a 823f 359c 413e
00000040: 4014 38be 2f52 8c3e 1e93 433f 10d9 003f
00000050: f6b6 543f 84f7 cbbe 977c 52bf 8eec 80bf
00000060: 94ac 4a3e 6623 693f c8ad e23e b9ea 28be
00000070: 20bb cabc cb2b 0ebf 1da0 243d 3ab6 51bf
00000080: 3243 edbf 5e6c 2fbe b647 d7be d059 1ebf
00000090: 9139 723e f315 4a3f be62 6e3e eb02 173f
000000a0: 3640 7c3f e190 f93f 0669 543e 49ec fdbd
000000b0: 7a7d 89be 78c7 593f 2bea 0e3f c8bd 3e3f
000000c0: 7aa6 4b3e ee43 7b3f e741 2c3f f15b 93be
000000d0: dedd 9cbe 0fb8 113e 5c2c 2bc0 4983 91bd
000000e0: 2bed 1bbe aa42 443e cacf ec3e 6f47 093f
000000f0: 2621 b1bd 58f7 1ebf ca9b 26bd a643 8dbe
00000100: 94aa d0bf 5d92 10be 74ce f3bd c25f d2be
00000110: 7776 3ec0 d898 bfbf 89f7 7a3f 19fc dbbe
00000120: 607e 063e 84b2 c0be 53d0 2b3f ae52 403f
00000130: 6918 a5bd 0ae7 33be 4888 f03e 5813 7c3f
00000140: cf12 6bbe e3d4 50bf ce0a 943e 3009 0dbf
00000150: d811 6b3d 96be e93e 9816 b6be 13b1 053f
00000160: ce30 65bf ffe7 a3bf 5060 89be cadf a5bf
00000170: 9165 ce3e b9f7 893f 054d 41bf 5ae1 74bf
00000180: f106 af3e 3447 72bf 6e89 03bf 2288 c9bf
00000190: d9ed c3bf 35d1 203f 5585 793b 71ee 5d3e
000001a0: 950a 1dbf e521 be3e ec6d c3be e8cd 45bf
000001b0: 893e 53bf a707 d6be 443f 4ebf 949c 3a3d
000001c0: f403 093f a7c8 ab3e 23e2 df3d bf26 88be
000001d0: cc02 223f 8379 64be fd77 a73f 5ae9 5b3e
000001e0: 74a1 b43d 6e12 433f 4c0e 1dbf f70f 7cbf
000001f0: 7567 2ebf 7fba 323e bf1d 3f3f a948 d43e
00000200: f9c2 87be 2d23 82bf 5a52 71be d3c1 203e
00000210: f168 8dbf 88bf bdbf a3cc 2f3d 491a 0e3f
00000220: a75d 073d 9b32 86bf 552d 19bf 53f7 2cbd
00000230: 00ad 9abf 89a8 5bbe d7b7 14bf 2f97 9d3e
00000240: d9de 043f b8b6 e7bf c81a 03c0 181b 27bd
00000250: 4014 47be f3a1 a4bf be3a d6bd cdc9 db3e
00000260: 35ee 3cbf 0557 5bbf e35e 253e d063 233e
00000270: 57da 383f 9f1c 95bf 5e65 07bf e03f debd
00000280: 6e33 c5bf 814f e23f 3826 4b3d 89be 1a3f
00000290: 527e e5be c013 77be 3b62 1cc0 6fcd e3bd
000002a0: 06be f9be 9b40 3dbf 7ce6 01bd e72f 91be
000002b0: 77f5 723f d401 8c3f 9797 7c3e 6faa 12bf
000002c0: 276c 19bf d53f d7bf cdeb acbd 1290 253e
000002d0: a473 bf3e 721a 70bf b0de 743f 3366 92be
000002e0: a5e3 25bf 38d5 5a3e 822d 60bf eee6 a03f
000002f0: 30e8 21bf e8ee 423f dc9a 1cbe 6ca2 71be
00000300: 7e4a 24bf e896 dd3e d6a2 0f3f 3d22 80be
00000310: 12ca a83e 8fca 60bf d117 363f bde7 3dbf
00000320: 2ddd 38bf 5195 4bbd 5e92 cb3e be54 fdbd
00000330: a269 06bf 5540 993f ad00 9dbf 0a31 8fbe
00000340: a2cd a63e 2d7f 27bf 14cb e53e 7c7c 03bf
00000350: 8899 7c3e 48d7 5dbf 709a 1e3f c180 a03f
00000360: 7de1 d4be 82a0 e9bc cf38 083f 7e83 b23e
00000370: ab77 e53d 93ef b43e 7fe5 1a3e 780f 93bf
00000380: dc71 c3bf dd76 8abe 79b4 273f 98b3 88be
00000390: 63fc f9bd 6144 563f 0189 c5be 9af1 713e
000003a0: 26f2 1fbe 7e2a 8dbf 6fa7 05bf 25d2 47bd
000003b0: 5ad1 dabd 3003 ffbe d750 8dbe 9110 163e
000003c0: efa3 663f 9a9f f43e 3ccf 50bd 7725 63bd
000003d0: b042 453f d97c 11be cb07 833f 0380 d93e
000003e0: 9add 07be 9272 00c0 519d 9d3d 4a68 a6be
000003f0: 51ee 80bf bd5b bc3e 04be 3f3e d837 3ebf
0.03331757 1.2727561 -0.065179035 -0.15979387 0.28832892 1.0693645 0.90418464 -1.1833637
0.5086823 0.49285817 1.555381 -0.35151583 -0.28056988 -0.28964606 1.0164449 0.18907245
-0.17976475 0.2740645 0.7639636 0.5033121 0.83091676 -0.39837277 -0.8222136 -1.0072191
0.19792396 0.9106964 0.4427321 -0.1649579 -0.024747431 -0.5553557 0.04019176 -0.8191868
-1.8536131 -0.17131183 -0.420469 -0.61855793 0.23654772 0.7893974 0.23279855 0.5898883
0.9853548 1.9497339 0.20743188 -0.123985834 -0.26853544 0.8506999 0.5582606 0.74508333
0.19887725 0.9815053 0.6728806 -0.28781083 -0.3063802 0.14230369 -2.6745825 -0.07105119
-0.15227191 0.19166055 0.4625228 0.53624624 -0.08648901 -0.62096167 -0.040675916 -0.27590674
-1.6302056 -0.14118333 -0.11904612 -0.41088682 -2.9759805 -1.4968519 0.9803396 -0.42965773
0.13134146 -0.37636197 0.6711475 0.7512616 -0.080612965 -0.17568603 0.46978974 0.98467016
-0.22956394 -0.8157484 0.28914493 -0.55092144 0.057390064 0.45653218 -0.35564113 0.5222332
-0.89527595 -1.2805175 -0.26831293 -1.295892 0.40311864 1.0778724 -0.7550815 -0.9565636
0.34184983 -0.946399 -0.51381576 -1.574467 -1.530696 0.62819225 0.0038073857 0.2167299
-0.6134427 0.37135234 -0.381698 -0.77267313 -0.82517296 -0.41802713 -0.80565286 0.04555948
0.53521657 0.33551523 0.10931804 -0.2659206 0.6328552 -0.22311978 1.3083493 0.21475735
0.08819857 0.76199996 -0.6134994 -0.9846186 -0.6812661 0.17453955 0.74654764 0.41461685
-0.2651594 -1.0166985 -0.23566571 0.15698938 -1.104765 -1.4824076 0.042919766 0.5550886
0.0330483 -1.0484194 -0.59834796 -0.042228054 -1.2084045 -0.2145101 -0.5809302 0.30779406
0.5190254 -1.8102636 -2.0485096 -0.040797323 -0.19441319 -1.2861923 -0.10460423 0.429274
-0.73800975 -0.85679656 0.16149478 0.15956044 0.7220816 -1.164936 -0.5288905 -0.10852027
-1.540632 1.7680513 0.049596995 0.60446984 -0.44822937 -0.24128628 -2.4434955 -0.11123168
-0.4877779 -0.73926705 -0.031713948 -0.2835686 0.949058 1.0938058 0.24667202 -0.5729131
-0.5993065 -1.6816355 -0.08443413 0.1616824 0.37392914 -0.9379035 0.95652294 -0.28593597
-0.64800483 0.21370399 -0.8756944 1.2570474 -0.63244915 0.7614579 -0.15293449 -0.23597115
-0.64176166 0.43279195 0.5610784 -0.25026122 0.32966667 -0.8780908 0.7113009 -0.7418173
-0.7221249 -0.049702946 0.39760107 -0.12369679 -0.5250493 1.1972758 -1.2265831 -0.279671
0.3257876 -0.6542843 0.448815 -0.51361823 0.24667943 -0.8665662 0.619544 1.2539293
-0.41578284 -0.028518919 0.53211683 0.34865946 0.112044655 0.3533903 0.15126608 -1.1489096
-1.5269122 -0.2704381 0.65509754 -0.2669952 -0.12206342 0.8369809 -0.38581088 0.2362732
-0.15619716 -1.1028593 -0.5220861 -0.048784394 -0.10684462 -0.4980712 -0.27600738 0.14654757
0.9009389 0.47778016 -0.050978884 -0.05545565 0.7705488 -0.14207782 1.0236753 0.42480478
-0.13268128 -2.0069928 0.07696021 -0.3250144 -1.0072728 0.3678874 0.18724829 -0.7430396

fc3.bias f4 [64]
00000000: 1be0 973e 6e26 973c 295a 75be 9dbf 603e
00000010: f133 6cbf efa3 7bbd ca45 6a3b 9ca1 25bf
00000020: 91e6 66bd 7963 fcbe f7cd d13d 4da2 72bf
00000030: 2dbd d63c efd8 1c3c 8e6c 40bf 61cb 6e3e
00000040: dc33 363e 7f0e 9f3e 325f b9be 97df 30bf
00000050: 8c1b 84be f949 d73c dbc1 c13e 1863 27be
00000060: 9e39 913e 7f0f 4a3e fc09 253f becd 02bf
00000070: 639a 663e 3638 1e3f e121 d6be d669 79bf
00000080: 6b09 e93e 2435 473f 45a7 1ebe 6c99 8dbe
00000090: 4a67 5dbf d95a 07bf c109 8e3f c824 373f
000000a0: 54f0 5b3f d334 69be 5226 8bbf ce9c 22be
000000b0: 1f22 00be b642 97be 18a8 d2be c12f 48be
000000c0: 14a3 573d 73ca 243e b9bf 27bf 0278 a83e
000000d0: 1c9b c8be dbee f0be bf95 6a3e 596c 283f
000000e0: 0732 a6be 812d 12bf 5c84 0abd 6c19 4ebe
000000f0: 464b 923e ba97 0c3b 3a51 e73e 5a87 c23c
0.29663166 0.018450942 -0.23960175 0.21948095 -0.92266756 -0.061435636 0.0035747164 -0.6469972
-0.05637223 -0.49294642 0.10244363 -0.947789 0.026213253 0.009573205 -0.7516564 0.2331977
0.1779322 0.31065747 -0.3620544 -0.6909117 -0.25802267 0.02628039 0.37843212 -0.16346395
0.2836427 0.19732474 0.6446836 -0.5109519 0.22519831 0.6180452 -0.41822723 -0.9742712
0.45514998 0.7781546 -0.15493496 -0.27656114 -0.8648573 -0.52873 1.1096727 0.715405
0.85913587 -0.22774057 -1.087107 -0.15880129 -0.12513016 -0.29543084 -0.4114387 -0.19549467
0.052645758 0.16092853 -0.6552692 0.3290406 -0.3918084 -0.47057232 0.22908686 0.65790325
-0.32460043 -0.57100683 -0.033817634 -0.20126885 0.28573054 0.002145274 0.45179158 0.023746181

action_out.weight f4 [5, 64]
00000000: 3b32 46bf 6cc2 b23f 3246 5c3f 1276 0fc0
00000010: dc63 37be 409b c83d b0c6 bc3e 1bf4 a6bf
00000020: 5829 053e 33b6 0d3f 899e 083f 7c07 56bf
00000030: 893e 94bd 1dca 58bf 03fe af3f cfa5 533e
00000040: 933b 86be a24c 41bf d5f7 9cbe c4fc ddbd
00000050: a053 cbbf 11b2 a93f 016c 653f 1634 30bf
00000060: 3dc7 1d3e 0eaf 16be 4e3e 633f 260d b1bf
00000070: 5918 06c0 4e55 11bf c670 a13f fae9 45bf
00000080: 3fee 853f b159 25be e671 94be 9173 31bf
00000090: 3787 5fbd 16c9 fabe b999 d63f a491 ab3f
000000a0: f825 dc3e 513b 6cbd 594d 12c0 6882 6f3d
000000b0: a8af 413e f0a5 d4be 5a80 ffbe f1ef b63f
000000c0: 91ff 1f3f 8a6c 5d3f a478 bf3e 8964 93be
000000d0: c8ed 1ebf b90b b9be 53a8 cc3d 04ca 273f
000000e0: 3e55 07bf 9d26 96bf 4f50 30bc 4c13 7f3f
000000f0: dcad 12be e322 abbf 7f69 003f 871b d33f
00000100: ea43 97bf bc2a 51bf 0b40 8c3f b2a3 aa3f
00000110: 300f f9be 1e56 87bd 0f69 40bf 1f56 02bf
00000120: 20b7 b93f bef4 e5be a193 47be 49a6 3f3f
00000130: bc79 313c 75fd d83f 676b f1be 7d68 6c3f
00000140: 61a6 5bbf ee2e cf3c 25a3 89bf d62e 2f3f
00000150: ece2 86bf 36ea b3bf 6a9e 1e3f 53f4 f0bf
00000160: 7f16 473f 2057 52bf 9eaa 513f b295 fabc
00000170: eec6 1a3f 2534 d83e 9b6d 2ebe a140 d2be
00000180: c029 213f dece 153f 53be d53e a695 b93e
00000190: 323e 36bf fcda 10bf 9fe0 36be 91ad 0ebf
000001a0: 6790 753e c936 183f fca1 cbbc 0025 3bc0
000001b0: 81e6 e7bf 1197 1f3f 1850 afbf e5d6 c23e
000001c0: d963 aa3e 36e8 48bf be59 b13e ef83 2ebf
000001d0: 8e38 a8bf d1d4 cb3d edd5 63bf 9d3f 87be
000001e0: 59a7 e5be 83c9 983f ba0b 073d 9425 a9bd
000001f0: c630 c2be d0be 1a3f 0df3 173f 8230 69be
00000200: ee19 7b3f 5198 873f 1180 98bf 39eb 39bf
00000210: 9268 3c3b 29eb 893d 0d29 7f3f d05a 89bd
00000220: c24f bdbf aa29 303f eed8 54bf f51a 03bd
00000230: 14ee 4c3d dbb5 04c0 daab 083f 2515 16bf
00000240: f7e2 db3f 7e5e 66bf 567e 803f 1f0c 39bf
00000250: 6ea1 233d 3f84 65be 0427 2dbf 9481 2cbf
00000260: 910d 9f3e 3cd7 ac3f 85a0 2340 a380 bfbe
00000270: ebef 55bf b583 8ebe e0e7 373f d7d0 a73f
00000280: d91f b5bf ceac 233e b30a dabd 0b3f c83e
00000290: a13c a33f 8438 723f 4c14 abba b1f8 083f
000002a0: b4ab c0be 4a96 6f3e 3e8f 96bf f33e a73f
000002b0: cf90 623f 2a67 cc3d c13f 113f 0b76 6e3f
000002c0: dbbf babe b852 213e 2ece 683f e1ee fc3e
000002d0: 11a7 c93f d03e f5be 7aa5 8bbf f941 c93c
000002e0: fc70 3e3f 4d28 12bf 9856 a83d 9273 cbbe
000002f0: 86be 8dbf cde7 dabe cc41 b6bf de2f 953f
00000300: 0fab 2c3e 7729 3a3e c74a 39be 7d47 323e
00000310: bc8e ad3f 8b15 24be 340a dcbf fd86 af3e
00000320: baad 3dbf 37db e6bf bcc4 b1bf 263c 833f
00000330: df28 e63d eec4 063f a81d fe3d b36b 5c3e
00000340: 1a69 a23e d785 41bf aa4b adbf 3a74 00be
00000350: 78ed a33e 0599 52be a157 62bf e253 6f3e
00000360: da68 5b3f 8af5 a33f aa86 06be 92b8 cfbd
00000370: feac 863f 2aa5 e4be ef49 953f 60f1 993f
00000380: 9970 54bc 208d 143f 6a49 5e3e a5d9 04bf
00000390: 1a56 cfbe 06f2 b53f 3018 34bf bc54 a63e
000003a0: 198a 023f 3649 13bf a8e5 44bf 2685 913e
000003b0: 19fd bbbf 12f9 93bf d537 2bbf c525 b5bf
000003c0: bf00 d83f 5776 5cbf b192 31c0 1686 2e3f
000003d0: 26b8 5cbf 0e73 643f d230 b5bd 3623 b93f
000003e0: 21c9 3a3e 2033 983f 30c7 433c 56cc dabf
000003f0: 224d 163e 5b98 4e3f 8c03 a03e f4d1 a2bd
-0.77420396 1.3965583 0.8604461 -2.2415814 -0.17909187 0.097952366 0.36870337 -1.3043245
0.13004053 0.5535614 0.53366905 -0.8360517 -0.0723849 -0.846834 1.3749393 0.2066872
-0.26217327 -0.7550756 -0.3065783 -0.10839227 -1.5884895 1.3257467 0.89617926 -0.68829477
0.15408035 -0.14715216 0.88766944 -1.3832138 -2.095236 -0.5677079 1.2612541 -0.77310145
1.0463332 -0.16147496 -0.28993148 -0.69316965 -0.05457231 -0.4898154 1.6765662 1.3403821
0.42997718 -0.057673756 -2.285971 0.058473974 0.18914664 -0.4153285 -0.49902612 1.4291974
0.6249934 0.8649374 0.3739673 -0.2878764 -0.62081575 -0.36141756 0.09993043 0.65542626
-0.52864444 -1.1730534 -0.010761335 0.9963882 -0.14324135 -1.3370022 0.50160974 1.6492776
-1.1817601 -0.8170583 1.0957044 1.3331206 -0.486444 -0.066082224 -0.75160307 -0.5091266
1.450901 -0.44913286 -0.1948991 0.74863106 0.010832246 1.6952349 -0.47152254 0.92346936
-0.8580075 0.025290933 -1.0752913 0.6843084 -1.0538001 -1.405585 0.6196047 -1.8824562
0.777687 -0.8216419 0.81900966 -0.030588958 0.6045979 0.42227283 -0.17033999 -0.41064933
0.6295433 0.5851878 0.41746768 0.36246985 -0.7118865 -0.56584144 -0.17859124 -0.5573359
0.23980866 0.59458596 -0.024857514 -2.9241333 -1.8117219 0.62339884 -1.3696318 0.38054577
0.33279303 -0.78479326 0.3463878 -0.68170065 -1.3142259 0.09952701 -0.889983 -0.2641572
-0.4485424 1.1936496 0.032970168 -0.082591206 -0.37927836 0.60447407 0.5935524 -0.2277241
0.9808644 1.0593358 -1.1914083 -0.72624546 0.0028748852 0.06734306 0.99672014 -0.06706774
-1.4789965 0.68813574 -0.8314351 -0.03200813 0.050031736 -2.0735996 0.53387225 -0.58626014
1.7178639 -0.89987934 1.0038555 -0.7228412 0.039948873 -0.22413729 -0.6763766 -0.6738522
0.31065038 1.3503184 2.5566723 -0.3740283 -0.8356921 -0.2783486 0.7183819 1.3110608
-1.4150344 0.15983889 -0.10646572 0.39110598 1.2752877 0.94617486 -0.0013052314 0.5350447
-0.37631 0.23397174 -1.1762464 1.3066086 0.8850221 0.099806145 0.56737906 0.9314887
-0.364745 0.15754211 0.90939605 0.49401 1.575411 -0.47899485 -1.0909874 0.024567591
0.7439115 -0.57092744 0.082196414 -0.3973661 -1.1073768 -0.42754975 -1.423883 1.1655233
0.16862129 0.1817988 -0.18094932 0.17410083 1.3559184 -0.16023843 -1.7190614 0.34282675
-0.7409321 -1.8035649 -1.3888164 1.0252731 0.11238264 0.5264424 0.12408 0.21525459
0.3172081 -0.7559485 -1.3538716 -0.12544337 0.32017112 -0.20566185 -0.8841496 0.23371843
0.85706866 1.2809308 -0.13137308 -0.10142626 1.0521543 -0.4465726 1.1663188 1.2026787
-0.0129662985 0.5802784 0.21707693 -0.518946 -0.40495378 1.4214485 -0.7034941 0.32486522
0.5099197 -0.57533586 -0.7691293 0.28421897 -1.4686614 -1.1560385 -0.6688207 -1.4152151
1.6875228 -0.8611807 -2.7745783 0.6817335 -0.8621849 0.8923806 -0.08847202 1.446387
0.18240787 1.1890602 0.0119493455 -1.7093608 0.14677861 0.80701226 0.31252706 -0.07950202

action_out.bias f4 [5]
00000000: e67d b93e 0798 683c d49c 0d3e c44e 88be
00000010: ba48 5cbf
0.36228865 0.014196402 0.13829356 -0.26622593 -0.8604847
