Coop Navi/MADDPG-master/model/simple_tag/agent_2/2_critic_params.pkl (torch, 52175 bytes, 7 tensors)

fc1.weight f4 [64, 63]
00000000: cb7b 70be ffb8 663d 5d6e e03d dd15 34be
00000010: 15ec 97be 15be b73b af1d e7bd 0c32 fc3c
00000020: bc81 e43f e0c4 54c0 95d1 2fbd 3adf 773f
00000030: 9af5 cfbf a6cd 2741 04df b6bd aea0 073f
00000040: e0ad 873e 043c a0be 12ee b63b 8b49 dfbe
00000050: 958b 3b3e ecce c83e 1fb6 373e 8b78 633e
00000060: 466a e9bf 9ea4 5540 f130 f8bf 1235 8f40
00000070: 752f 9dc0 cb3a 9a41 2608 fc3d e768 c83e
00000080: 8c4e 46be 6b3c abbe 150c b2bd 2a6f 873e
00000090: 813f 34be a7ae 5dbe dc39 83be 224b 5bbe
000000a0: 4941 363e 4b89 7abf 2145 e73f 784d 8ec0
000000b0: 1d91 6cc0 3925 4a41 9f6d 9d3c dfc1 d23e
000000c0: 31a3 443d 030f 6a3d 3653 113c 904c 833e
000000d0: a530 09be 10c6 ba3d 9187 7b3e d873 c03d
000000e0: 030e 72be 1c7a 063e 55ba 4a3d 994c dcbd
000000f0: f12c 5cbe 2cb6 a4bd 5679 ffbc 0fbc 0f3f
00000100: 1f14 72be 15eb 0b3e 275a e43d 1192 44be
00000110: cade 523e 9701 06be 79a7 8abd 02f7 09c0
00000120: 0195 373f e323 2bc0 368b d43e ab12 25c2
00000130: 0212 0542 56e4 7dbd d65e 753c f091 913d
00000140: 4b61 1d3d 6334 87bc ec76 91bd b172 aa3d
00000150: ffeb 10be c81c d8be b835 e83d c86b 0d40
00000160: 9f26 41bf 39ef 1c3d ce83 d13e 2421 9cc0
00000170: f200 703f 6316 86be 311e 01be fbbd 3e3e
00000180: e281 153e ce21 cabd e9cb 5fbe 3457 cb3e
00000190: ff2d 36bd 1017 c73e a7a9 febc 8d56 2540
000001a0: 9cf3 c2be 2a71 10be 24f6 e9be 7dad c6c0
000001b0: deff a33f c62b 58be 131d bbbd 74eb 24be
000001c0: 7274 833d 1664 08be 09d7 a53e 63a7 62be
000001d0: 3ed6 193e 2b41 003e 3d96 10bd 5337 82bd
000001e0: 50cb 83bc 37c4 9f3d 8244 c83d 02ae 813c
000001f0: 1bb9 cf3c 8c4e 183b 215a c03f e036 eb3f
00000200: e3e1 49be b2e4 04bf 5df2 86bf cdcd 313f
00000210: 904a ab3e faab 54be 2712 82c0 acf9 07bf
00000220: d905 73bf c194 87bf c430 26c0 15df 44c0
00000230: ad20 b5bf 7f89 5a3f 370e f3be 0d2b c3bd
00000240: e061 54bf ade0 763b 8ed9 d1be 9ccd a13e
00000250: fea2 d13e 6616 7dbf df92 8440 1a9b 323f
00000260: 078f 2440 f372 f43a fe64 e03f 4346 80c0
00000270: 0f84 b4bf db44 4a3f 6680 233f 7d22 95be
00000280: 77f1 a9be 7989 31bf db7a 26be ce69 8a3e
00000290: 36a6 0fbd 246e 0dbe b8e3 673f ee96 863f
000002a0: 3983 25c0 23a9 b0bd b3ee a53e 8e0c b4c0
000002b0: e5cd c1bf 133d 5d3f f1b1 a73e 3582 163f
000002c0: 1ee6 01bf 22e2 2f3f 775a 183e 06d8 6dbe
000002d0: 0e25 9cbc 88b4 e83e 4985 c5be 5296 bcbd
000002e0: fd60 4bbe 9070 353f 07ab 4abe bcae 883c
000002f0: b8ac babe 760b f6be 13de a63e 972a d5be
00000300: 97b8 d4be d048 b33e 5d46 253f 6111 ea3e
00000310: e8c3 243f ce6c 5840 2f57 3f40 8718 76be
00000320: 68b7 a83f 8446 00c1 4779 01c1 ae03 e5bf
00000330: e0c6 85bf 63ec 7040 1e65 993f 29a7 4c3f
00000340: 8e99 3a3f 565a 03bf 20a7 1fbf 4cd8 05bf
00000350: 2f2e 34bf d2d0 56c0 996f 37c0 9d11 2cc0
00000360: 303a 5cbf c96c 23c1 39fc d9c0 68c6 edbf
00000370: 925d 9abf 7369 bbbe 9034 963e 07ee 69be
00000380: 4cf7 95be eaf9 7e3d ce92 353c ed67 663e
00000390: 3e81 653e c880 143e d254 91bf f900 2b40
000003a0: 6a55 753f bfc5 a5c0 fcb5 aec0 b042 01c0
000003b0: 5a41 99bf 03a6 54be e3f5 1a3c 3e56 9ebe
000003c0: b9ad ce3e 2831 f9be a124 c33d e9d8 b33f
000003d0: 126e d4bf 8dbd 0c3f 26a8 66be 4488 7cbd
000003e0: 1cda 63bd 96f1 193f dcf2 87be b1a5 883e
000003f0: 7273 9ebf 43ec fbbd 351f c7bc f2f0 a53f
-0.23484723 0.05632877 0.1095855 -0.17586465 -0.29672304 0.0056073763 -0.112849586 0.030785583
1.7852092 -3.3245163 -0.042924482 0.9682499 -1.6246827 10.487707 -0.089292556 0.5297955
0.26499844 -0.31295788 0.0055825794 -0.43610796 0.18314965 0.3922037 0.17940567 0.22213952
-1.8235557 3.3381724 -1.9389936 4.4752283 -4.912043 19.278708 0.12306242 0.39142534
-0.19365901 -0.33444533 -0.08693711 0.26452 -0.1760235 -0.21648656 -0.2563008 -0.2141538
0.17798342 -0.9786574 1.8067971 -4.4469566 -3.696357 12.634088 0.01921731 0.41163537
0.048007194 0.057143223 0.008869937 0.2564435 -0.13397463 0.09119809 0.24563433 0.093970954
-0.23638158 0.13132519 0.049494106 -0.10756797 -0.21501519 -0.08042559 -0.031185787 0.5614633
-0.23640488 0.13663895 0.11150008 -0.19196345 0.205928 -0.13086544 -0.06770224 -2.1557012
0.71711737 -2.6740654 0.4151246 -41.26823 33.267586 -0.061985336 0.014976224 0.071079135
0.038422864 -0.016504472 -0.07102761 0.08322657 -0.14152525 -0.42209458 0.11338371 2.2097034
-0.75449556 0.038314078 0.40920871 -4.8790455 0.9375144 -0.26188955 -0.12609173 0.1862716
0.14600328 -0.09869729 -0.2185513 0.39714968 -0.04447746 0.38884783 -0.031086756 2.5834076
-0.38076484 -0.14105669 -0.45695603 -6.208678 1.281246 -0.21110448 -0.09136405 -0.16105443
0.064186946 -0.1331943 0.3239062 -0.22134165 0.15023133 0.1252486 -0.03529953 -0.063582085
-0.016088158 0.07801097 0.09778692 0.015830044 0.02535682 0.0023240177 1.5027505 1.8376122
-0.19715075 -0.5191146 -1.0542713 0.6945465 0.33455324 -0.20768729 -4.064716 -0.53115344
-0.949308 -1.0592271 -2.5967264 -3.0761158 -1.4150597 0.8536605 -0.47471783 -0.09529696
-0.82961845 0.0037670538 -0.40986294 0.3160218 0.40944666 -0.988623 4.1429286 0.69767916
2.5712297 0.001864998 1.753082 -4.008577 -1.4102801 0.79011315 0.63867795 -0.29127875
-0.33192036 -0.6935039 -0.16257803 0.27033848 -0.03507062 -0.13811547 0.90581846 1.051481
-2.5861342 -0.0862601 0.32408676 -5.6265326 -1.5140959 0.86421317 0.32752946 0.5879243
-0.50741756 0.68704426 0.1487826 -0.23226938 -0.019060638 0.45450234 -0.3857825 -0.09208359
-0.19861217 0.7087488 -0.19791804 0.016684882 -0.364599 -0.4805562 0.32591304 -0.41634056
-0.4154708 0.3501649 0.6456049 0.45716384 0.6436143 3.381641 2.9896963 -0.24032794
1.3180971 -8.017216 -8.092109 -1.7891748 -1.0451317 3.764428 1.1983984 0.79942566
0.72890556 -0.51309717 -0.6236439 -0.5228317 -0.7038297 -3.3564954 -2.8661864 -2.688575
-0.8602629 -10.214059 -6.812039 -1.8576174 -1.2059805 -0.3660389 0.29336977 -0.22844706
-0.29290235 0.062250055 0.011082364 0.22500582 0.22412583 0.14502251 -1.135401 2.6719344
0.95833457 -5.180389 -5.459715 -2.0196953 -1.1973069 -0.20766453 0.009458038 -0.30925173
0.40366915 -0.48670316 0.09528471 1.4050571 -1.6596091 0.5497673 -0.22525081 -0.06165339
-0.055627927 0.60134256 -0.26552474 0.26688913 -1.2378981 -0.12300923 -0.024306873 1.2964156

fc1.bias f4 [64]
00000000: 69b4 943f 217a 4d3f a466 96c0 d989 a6be
00000010: cfa0 dcc0 7c03 e6be ea57 42c1 2ea8 7b3e
00000020: e51e 2441 9bae 53be fbb8 c13f 114e 6640
00000030: 80b4 b0bd 5f25 dac0 15ed bc3e 3751 b2bf
00000040: a150 1fbe bbd0 c13e 12d5 ddbe 5676 f6be
00000050: 61e7 08be 3ed4 b63f 54aa 7fc1 457e c4bf
00000060: 9776 35c0 a1f9 54c1 7f95 4dc1 6dde fdbe
00000070: fa4d f2be b08b e1c0 b54a 08bf 3d23 8e41
00000080: 04f3 c4bf 5ef0 81c1 f043 4d3f 21d9 89be
00000090: 54a4 4340 31ee b1c0 e512 62c1 1ce8 75bf
000000a0: 6861 00c0 6f5b e03e 130c f1c0 e4dd 47c1
000000b0: fa90 2dbe 0419 58c1 db01 cec0 ded5 fbbe
000000c0: f0ee babe f741 8cbf dd58 58bf c8e6 8abf
000000d0: cd99 d8c0 ef81 f03e c0b2 20bf 8ef3 87c0
000000e0: 326a 05c1 29b6 8c41 4290 853f 1680 14bf
000000f0: 4268 4cc0 e282 1c41 459c a4c0 ad10 9540
1.1617557 0.8026448 -4.7000294 -0.32527044 -6.89463 -0.44924533 -12.146463 0.24575874
10.257543 -0.20672075 1.5134577 3.5985148 -0.08628178 -6.817062 0.3689963 -1.3931035
-0.15558101 0.3785456 -0.43326622 -0.48137158 -0.13369514 1.4283521 -15.979084 -1.5351034
-2.8353631 -13.310945 -12.848998 -0.4958376 -0.47325116 -7.0483017 -0.53238994 17.767206
-1.5386662 -16.242367 0.8018179 -0.2692347 3.0569048 -5.560326 -14.129613 -0.96057296
-2.0059452 0.43819758 -7.532724 -12.4916725 -0.16949835 -13.506107 -6.4377265 -0.49186605
-0.3651042 -1.0957631 -0.84510595 -1.0851679 -6.7687745 0.4697413 -0.6277275 -4.248481
-8.338427 17.588945 1.0434649 -0.58007944 -3.1938634 9.781954 -5.144076 4.6582856

fc2.weight f4 [64, 64]
00000000: 0fe3 6ebe c181 a13f 6a6c 4abe 89d3 76be
00000010: 1bc2 a53f 6850 01bf 8bcc 90bd de97 773e
00000020: 79f4 a0bf dcfd 94bf 84c6 63bf 1961 653e
00000030: 09fd 093f d807 123f 7c6e bd3f a9e6 83bf
00000040: e8f9 f4be 747a 2d3f 905a 0b40 05fa 8dbf
00000050: 0e26 713f be14 0d40 25cd c640 e376 703f
00000060: e9f7 94be 195a 0ac0 8b5b 4040 e6ed b03d
00000070: 65cb 463f ac94 973e df30 183d 0c21 a2bf
00000080: 8732 b3bf 7055 b2bf 5c40 6e3d 7927 803f
00000090: 40e7 c63e 33ac 1c3f 11d6 49bf 942a 1f3f
000000a0: 0ac4 31bf 9d68 4fbe 3e9e 943e 5a40 c640
000000b0: 93de 0540 c8da 28bf e5ba 033f 2676 0ac0
000000c0: 24b3 003e 9042 95bf 1b1c e4bf bf0f 4c3e
000000d0: 330d 193e c1ee d3bf ed00 61be 4844 383f
000000e0: b009 5a3f f7bc 17be 5469 983f 0127 9c3d
000000f0: 9bb7 bc3e 4531 423f 0319 77be bc17 303f
00000100: e985 b4bf 04d7 9c3f 7d9c 263d 803d 6d3f
00000110: c7a8 813f 7387 bebe 2d5a 02bf 50b0 423e
00000120: f1cf 5bbe f225 8840 7c66 3340 c089 153f
00000130: 5a55 dabe ce8a 263e a761 783f 9195 c73f
00000140: 1947 c6be d777 82be bd56 46bf 26d6 7d3f
00000150: eef7 7fbf 83e7 2c3f 3744 b83f aff6 843e
00000160: 742b c8bb 9cac 653e 4b78 28bd 74f5 09bf
00000170: d788 7dbf a7fa 993e 7f3b 13bf 9164 67bf
00000180: 95ec f3bc b9f3 00c0 8315 4340 d759 b23e
00000190: 2a8d 43bf 791c bd3e 19b6 8f3f 714c 70bf
000001a0: 4da1 023e 415c 5d3f 3e02 bf3f 84e9 d5bf
000001b0: e1eb a33f 2fcc 1dbf 4843 8cbe 2a2f 763f
000001c0: 8714 0c3d 9164 45bd dfdb ffbf ed8c 4c3e
000001d0: 8bdd c13e abc8 69bf cfb5 2c3f 8bbf 0c3f
000001e0: e005 933c 2543 d0be 8312 75be 26b1 503f
000001f0: 2f97 cabd 0238 e03e 4ac9 273e 1d52 c6be
00000200: b711 ecbf c9a5 3f3f f7df 323f 0dab 36be
00000210: c6cd 323f 4a67 1f3f ce87 70bf c695 ddbd
00000220: d631 1dbf 9a79 59bf e873 38bd 4c9d 87bd
00000230: 02f0 d1be 4abb a5be cbec c6bf f5e6 2ebf
00000240: 7b03 59bf b161 bdbe 8cc7 1e40 8256 aabf
00000250: 18f6 983f bdc0 38c0 d21d 45bf f5fd 0340
00000260: 1d71 a7be 5069 4ec0 c8a2 803f c3b2 803e
00000270: 136f f23f 2058 e13f fe83 4b3f adfc 9f3f
00000280: 98bb e9bd 3750 0240 b487 03c0 e187 f33e
00000290: bb79 d0bf 19e0 52bf a42e b7be 7e62 883f
000002a0: 7577 0dbf 75aa 023f 8086 4640 e8ac f83f
000002b0: a1f0 893e 7f08 f0bc c9d8 053f 332f 22c0
000002c0: 38af 1cbf 548f febc 50fb be3f 6252 d33d
000002d0: 3a34 afbe 1d9c 593a 3b9c 303f 6e28 843e
000002e0: d2d8 0a3f 90ba b13e 86d2 0bbf c8be 92be
000002f0: 9774 28bf 81c4 c13e 897e 6abf 2f36 a43e
00000300: ab95 e43f 4403 85be 8869 123e ae2c 843f
00000310: 616d 463f e6ab 2d3f 6f4f a8bf 4b6c 92be
00000320: 673f ec3e b888 3ebe d065 2e3f ff8b e0be
00000330: 3b12 6e3e 975e d5bd 6941 c13d 6de2 51bf
00000340: 61ac 503f 3413 8a3f 678d 88be 762c 9bbf
00000350: dba6 153e 5d9f 8cbf ca47 983f ef0c bdbf
00000360: 2cdb 2fbe 8797 2040 0e76 1bbf 4ad6 833f
00000370: a224 18bd e341 a0bf d520 803f dc80 fabd
00000380: 043a 3ebd 1d0c b2bf e3f0 ff3d d455 8b3e
00000390: c54c dabf 10c6 d23f 0c5c a13f 103a c53e
000003a0: f357 e5be 0adc b1bf e5f2 e7bf 5405 97c0
000003b0: a4de 64bf ccb1 243e cb30 e5bf 67c8 c2bf
000003c0: 2b5a 993d 193d edbe 6918 9fbf 96dc 393e
000003d0: a645 0fbf 9c6e 6fbf 6065 043f d65b 973e
000003e0: df65 5e3f 2787 b9bd 3d2e 513f aa86 f63f
000003f0: 2825 963f ee0a 61be 8224 993e 6f9d 483d
-0.23328803 1.2617723 -0.19767919 -0.24104132 1.2949861 -0.50513315 -0.070702635 0.24179026
-1.2574607 -1.1639972 -0.88974786 0.22400321 0.53901726 0.5704322 1.4799342 -1.0304767
-0.47846913 0.67764974 2.1774025 -1.1091925 0.9419869 2.204391 6.212542 0.93931407
-0.2909539 -2.1617491 3.0055873 0.086391255 0.77654105 0.29605615 0.037155982 -1.2666335
-1.3999795 -1.3932323 0.058166847 1.0012046 0.38848305 0.61200255 -0.78842264 0.62174344
-0.69439757 -0.2025475 0.2902698 6.1953554 2.0917099 -0.65958834 0.51457053 -2.1634612
0.12568337 -1.1660938 -1.7821077 0.19927882 0.14946441 -1.6557237 -0.2197301 0.7197919
0.8517103 -0.14818178 1.1907144 0.07624627 0.3685883 0.7585643 -0.24130635 0.68786216
-1.4103366 1.2253118 0.040676583 0.92671967 1.0129632 -0.37212715 -0.5091885 0.1901257
-0.21466042 4.254632 2.8031301 0.58413315 -0.42643243 0.16263887 0.97024006 1.5592519
-0.38726118 -0.25482056 -0.774761 0.9915489 -0.99987686 0.6754076 1.4395818 0.25969455
-0.0061086956 0.22429127 -0.041130345 -0.53890157 -0.99036926 0.30074045 -0.5751266 -0.9038783
-0.029775897 -2.0148757 3.048188 0.34834167 -0.76387274 0.36935785 1.1227447 -0.9386664
0.12756844 0.86468893 1.4922559 -1.6711888 1.280636 -0.61639684 -0.27395082 0.96165717
0.034199264 -0.04819161 -1.9988974 0.19975634 0.37864336 -0.9132182 0.6746492 0.5497977
0.017947137 -0.40676227 -0.23932843 0.8152031 -0.09892117 0.4379273 0.1638538 -0.38734522
-1.8442906 0.74862343 0.69872993 -0.17838688 0.69845235 0.6226698 -0.9395722 -0.10819583
-0.6140417 -0.84951174 -0.04503241 -0.06621799 -0.41003424 -0.32369453 -1.5541013 -0.6832116
-0.84770936 -0.36988595 2.4809294 -1.330765 1.1950102 -2.8867638 -0.7699863 2.0623753
-0.32703486 -3.2251778 1.0049677 0.25136384 1.8940147 1.7605019 0.7949828 1.2498986
-0.11412734 2.036146 -2.0551577 0.47564605 -1.6287149 -0.82373196 -0.3577777 1.0655057
-0.552604 0.51041347 3.1019592 1.9427767 0.26941398 -0.029300926 0.5228391 -2.5341308
-0.6120486 -0.031074204 1.4920444 0.10318448 -0.34219533 0.0008301156 0.6898839 0.25812095
0.5423709 0.34712648 -0.5461811 -0.2866118 -0.658029 0.37845233 -0.9159933 0.3207259
1.7858175 -0.25979054 0.1429807 1.0326135 0.7751065 0.6784042 -1.3149241 -0.28598246
0.46142122 -0.18606842 0.68124104 -0.4385681 0.23249142 -0.10418432 0.09436304 -0.81986123
0.8151303 1.078711 -0.2667038 -1.2122943 0.14614432 -1.0986134 1.1896908 -1.4769572
-0.17173451 2.5092485 -0.6072701 1.0299771 -0.03714431 -1.2520107 1.001002 -0.12231609
-0.046442047 -1.3909947 0.12497117 0.2721392 -1.7054678 1.6466694 1.2606215 0.3852086
-0.44793662 -1.3895276 -1.8121 -4.7194004 -0.8940222 0.16083449 -1.7905515 -1.5217408
0.07487901 -0.46335676 -1.2429324 0.18150553 -0.5596565 -0.9352815 0.51717186 0.29562253
0.8687419 -0.090589814 0.8171118 1.9259846 1.1730089 -0.21976826 0.29910666 0.048978265

fc2.bias f4 [64]
00000000: 9220 93c0 d4c3 0dc1 a333 1d41 4df7 7740
00000010: 1af0 9ac0 bfbf 1840 8b0b 2bc0 c6a0 4e3e
00000020: 5ed6 b33f d904 0dc0 84e7 75c0 f304 703f
00000030: 5a73 ec40 a55d 5741 f28c 9fc0 08fb 2f41
00000040: 6c52 65c0 7e7f 533f 0e9a 43bf 858c 7141
00000050: cac5 8c41 b4de 33c0 7eb5 3fc0 4eb5 3c41
00000060: ed2b 0b41 4571 d2c0 d533 6541 7b94 a9be
00000070: a078 27c0 61ac 5241 830f 0dbf 8cde a8c0
00000080: b0e5 31c0 d8db 3f3f 238b f93f b124 b240
00000090: 9828 8bc0 84c4 34c0 6836 f340 6f5c 36c0
000000a0: b1d7 a3c0 e2dc 82bf 99b6 5e40 c6fe c340
000000b0: e703 0fc0 eb8a 36c1 8a2e 863f b3bf b6bf
000000c0: c1fb 70c0 9dc7 c53f 18c1 80bf 5c92 85c0
000000d0: 0835 b640 ea0d d7c0 faa4 30c0 9362 c6c0
000000e0: bec3 91c0 8316 31bf d141 acbf b859 cdbe
000000f0: 7e85 7f40 6d78 743f d2f5 9340 4a52 11c0
-4.597726 -8.86031 9.825107 3.874469 -4.8418093 2.3867033 -2.6725795 0.20178518
1.4049795 -2.2034209 -3.8422556 0.9375755 7.389081 13.460362 -4.985955 10.998787
-3.5831556 0.8261641 -0.76406944 15.096807 17.596577 -2.8104677 -2.9954524 11.794264
8.698224 -6.576327 14.325154 -0.33121094 -2.6167374 13.167085 -0.55101794 -5.2771664
-2.779644 0.7494483 1.9495586 5.566979 -4.3487053 -2.8244944 7.6003914 -2.8493917
-5.1200795 -1.0223658 3.4798949 6.1248503 -2.2346132 -11.4089155 1.0482953 -1.4277252
-3.7653658 1.5451542 -1.0058928 -4.174116 5.6939735 -6.7204485 -2.7600694 -6.199533
-4.5551443 -0.69174975 -1.3457586 -0.40107512 3.9925227 0.95496255 4.6237574 -2.2706475

fc3.weight f4 [64, 64]
00000000: 1c28 62c0 fed4 663f 8176 b9bf 609f 2ac0
00000010: ec96 093d 7d6d ee3f feef 8e3f 7a7f b5bd
00000020: 0f4b 35c0 6aaf 42c0 87ca 5cc0 6b10 92c0
00000030: ff16 193f d2b8 e8c0 7420 26be 56ce 8ebe
00000040: 5fd9 fa3f 9c2b 313d b132 a2c0 14a9 ca3f
00000050: f127 35bf a863 09c0 5fe7 c3c0 2f7d 11c0
00000060: 395d d93f c08a febf 6c2a 3fc0 01f6 8bc0
00000070: 4f05 283f 809c d3bf 5bff a53f 5346 393f
00000080: 6f0c 353f fd0b 78c0 5004 bebe 4a26 9cc0
00000090: e491 fabf 9f5d 70bd de71 e2be 8f6c 10c0
000000a0: 6ef0 83be 73d0 00bf 5196 cd3f 1bd6 29bf
000000b0: b61e 0e40 4698 14c0 5f96 bebf 788c 97c0
000000c0: ed46 9e3d c896 b7bf f4b3 5cbf d868 a4bf
000000d0: b2d2 793e 70cd 55bf 69de 36bf 88f1 103d
000000e0: b315 f93e cddd a6be 4300 5abe 62ea f7bf
000000f0: b162 453d ae15 68bc c3c5 403f e3ba 4e3f
00000100: 5322 45c0 7690 e1bd e19a 97be 95a1 623d
00000110: e672 a1bf 843c 1e40 d5cb 9840 9417 b5bd
00000120: 13fe 293e c84b a1b9 16ac 10bf 1e16 913f
00000130: c525 2dc0 35dc d9bf d18b d6bf 2a49 cabe
00000140: f6e1 43c0 2f70 e43e 4435 52c0 18ab 12c0
00000150: d7bf 25bf d01d bc3f 5f5a 78c0 8ebc 2b3f
00000160: 56c4 eabf aa35 2d3c 3f01 2840 6db6 993f
00000170: 3f1a 413f 4356 b3bf 66b3 6a3f 6563 093f
00000180: 7554 0bc0 0221 0e40 a133 e83e 919e 7f3f
00000190: 60cb 3e3f 0353 2b3f 2310 9a3e 0ded 9dbf
000001a0: 450e a6bf c826 91bd 1776 843e 9745 90bd
000001b0: 839f 2b40 910c 5dbd 9ac1 3340 283f b0bf
000001c0: b34f a0bb 28ee 09c0 5cf7 37bf 92e4 5c3e
000001d0: ad92 a13f 3750 06c0 e9c2 253f 8d9f 1b40
000001e0: 8a6d e23f 491e 743f 1b78 cc3e bed2 0f3f
000001f0: 22ef 5abf b56f acbe 24db 90bf 2f80 12bd
00000200: 0cff 02c0 f1a1 6cbe efc2 a0bf 9385 74bf
00000210: 1a8a 0f3f 9c02 41c0 5059 3a40 4b87 76bc
00000220: 530e 3ec0 a3af a5be 5951 95bf 3c39 94bf
00000230: 1997 41c0 37b2 88bf b2ac 7c3e 2860 49c0
00000240: f58a 0b3f dc90 f0bf 63ce a4c0 6d27 8fbf
00000250: 5fd0 353f a02d aebf 691c aa3f bfa2 a63e
00000260: 9fb5 cabf 5423 04bf 3d3b 3ac0 3b02 6b3f
00000270: 6860 593e 7dd8 39c0 f0c3 82c0 f163 62bf
00000280: 931a 1cbf 339c df3f 3468 d6bf 3947 09bf
00000290: 9671 c1bd e700 853e 71ea 76c0 2dc1 e7bf
000002a0: e640 cc3f 05f0 abbe b4ec fbbe 8f70 273f
000002b0: 5174 fbbf 41df 873f 92e4 4640 ba1c b0bf
000002c0: 084f 92bf 7977 41c0 b6d3 dc3f 4ea8 7ec0
000002d0: fbc2 8dc0 c9a3 2d3f c2e4 9dbe ae61 aabf
000002e0: 32dd af3d 7b07 b3bf fd05 dfbf e586 483e
000002f0: 0b1d 4b3f 0ec3 84bf 4c3c 8cbe 9269 423f
00000300: 149c 9abf 3ae8 84bf 8abf 01c0 b64a 05bf
00000310: 2fd9 b4bc 7fa4 1ebf bf7a 3d3e f84a af3c
00000320: e41b a93e bf12 103e 2470 babe a246 03be
00000330: 9313 84be 72c5 3ebf 0d7b 07bf 71fd e0bf
00000340: 3d42 9e3d 6208 10c0 a4c0 573e 3dc7 883f
00000350: e7b7 b1bf c15f 7a3f bf84 79bf f9f5 17bf
00000360: 35e5 e5bd f315 62bf 2426 7fbf f824 35bf
00000370: c816 8abf 7e8e c23e a639 18bf 3be8 443f
00000380: 5e83 85bf f013 9b3f f0ae 493f f06a 813e
00000390: 1f7c ccbe 28ec bd3f a466 b6bf 6a14 3bbf
000003a0: c240 d5be 8d35 83bf 1830 9ebf bcf7 adbf
000003b0: fbd1 40be 7ba0 b3be 8d98 5e3f 0645 c2bf
000003c0: 8b1b 1ac0 d6b4 39bd 7fe9 4fbf c684 f3bd
000003d0: c451 f9be ae65 cabe ec6b ff3e 0315 3f3e
000003e0: f1e6 9dbe dc91 473f 4bb2 663f fc39 c73e
000003f0: 3955 a2bf 03e8 10bf 1933 73be 4239 d13c
-3.533698 0.9016875 -1.448929 -2.6659775 0.033591196 1.8627163 1.116699 -0.08862205
-2.8327062 -3.0419564 -3.4498613 -4.564504 0.59800714 -7.272561 -0.16223317 -0.27891797
1.9597586 0.04325448 -5.068688 1.5832849 -0.7076407 -2.1467075 -6.1219935 -2.2732656
1.6981574 -1.9886093 -2.9869642 -4.37378 0.656331 -1.6532135 1.2968553 0.7237293
0.707221 -3.8757317 -0.37112665 -4.879674 -1.9575772 -0.058683034 -0.442275 -2.256626
-0.2576937 -0.5031807 1.6061498 -0.66342324 2.2206244 -2.321794 -1.488964 -4.735897
0.07728372 -1.434289 -0.86212087 -1.2844496 0.2439678 -0.835166 -0.7143312 0.035386592
0.48649368 -0.32591096 -0.21289162 -1.9368403 0.048189823 -0.014165325 0.7530176 0.80753917
-3.08022 -0.11013882 -0.2961035 0.055329878 -1.2613189 2.4724436 4.774882 -0.08842388
0.16600828 -0.00030764774 -0.5651258 1.1334875 -2.7054303 -1.7020327 -1.6761419 -0.39508945
-3.0606666 0.4461684 -3.284501 -2.2916927 -0.6474585 1.4696598 -3.8805158 0.67084587
-1.8341167 0.010571877 2.625076 1.2008797 0.75430673 -1.40107 0.9167999 0.5366729
-2.1770298 2.2207646 0.4535189 0.9985133 0.74529076 0.6692354 0.30090436 -1.2337967
-1.2973105 -0.07087475 0.25871345 -0.07044523 2.6816108 -0.053967062 2.8086915 -1.3769274
-0.0048923134 -2.155161 -0.71861815 0.21571568 1.2622887 -2.098646 0.64750534 2.4316132
1.7689679 0.9535871 0.39935383 0.5618094 -0.8552114 -0.33678976 -1.1316876 -0.035766777
-2.0468168 -0.2310865 -1.2559489 -0.9551632 0.560701 -3.0157843 2.9117012 -0.015046905
-2.9696243 -0.32360563 -1.166545 -1.1579967 -3.0248473 -1.0679387 0.24675253 -3.146494
0.54508907 -1.8794208 -5.1501937 -1.1183907 0.71021074 -1.3607674 1.328992 0.3254604
-1.5836676 -0.51616406 -2.9098656 0.9180028 0.21228182 -2.9038384 -4.086418 -0.8843375
-0.6097805 1.7469543 -1.675055 -0.536243 -0.09445493 0.2597725 -3.8580592 -1.8105828
1.5957305 -0.33581558 -0.49204028 0.65406126 -1.9644872 1.0615007 3.1077008 -1.3758767
-1.1430368 -3.022917 1.7252109 -3.9790225 -4.4300513 0.6782804 -0.3083859 -1.331106
0.085871115 -1.3986658 -1.7423702 0.19582708 0.7934119 -1.0372026 -0.27389753 0.7594234
-1.2078881 -1.038337 -2.0273156 -0.52067125 -0.022076217 -0.6196975 0.18503855 0.021398053
0.3302909 0.14069651 -0.36413682 -0.12819913 -0.25796184 -0.7452003 -0.52922136 -1.7577344
0.07727478 -2.2505116 0.2106958 1.0685803 -1.3884248 0.9780236 -0.9746818 -0.593597
-0.112253584 -0.8831474 -0.9966757 -0.70759535 -1.0788202 0.37999338 -0.59462965 0.76916856
-1.0430715 1.211546 0.7878256 0.252769 -0.39938447 1.4837694 -1.4250073 -0.73078024
-0.4165097 -1.0250717 -1.2358427 -1.3591228 -0.18830101 -0.35083374 0.86951524 -1.5177314
-2.407931 -0.045338474 -0.8121566 -0.11890559 -0.48695195 -0.395307 0.49887025 0.18660359
-0.30840257 0.7795694 0.90115803 0.38911426 -1.2682258 -0.5660402 -0.23749961 0.025539998

fc3.bias f4 [64]
00000000: bddd 1e40 f303 c03f e85b 9b3f 22db a0c0
00000010: 8642 7241 5a86 3d40 47e6 80c0 6b8b 9041
00000020: e01a b6c0 bb7c 2840 d48a 7140 2b15 d83f
00000030: 125c 44bf 513d babf f52f 8d41 adb4 19c1
00000040: 0a89 c73f 67b8 3541 aaaf 5841 9ba4 f2bf
00000050: 05a5 1ebf 355d 5740 ca73 c9bf 66cd 8bc0
00000060: 666a 90bf 52f5 71bf 4f34 f53e e2df 2141
00000070: d233 09c0 7987 4641 b23c 4abf a551 2dc0
00000080: c68a 1e3f 214b 2e40 0306 a040 1ed6 8641
00000090: 106c 7e3e c8d0 10bf 8332 69c0 9cfa 07c0
000000a0: 1feb 3a40 7094 b3be 8106 83c0 d78f edbf
000000b0: e14b 5a3f fd3c 9340 391f 99c0 3f40 21c0
000000c0: d519 32c0 ec74 0e40 49f7 f1bf 9181 21c0
000000d0: 2bcb 3fbe 2f09 fc3e 57cf 06c1 4402 4c3c
000000e0: 5494 323d db51 8bc0 e8e0 c33f 1726 14bf
000000f0: 1a78 a0bf a320 dabc 7473 47c0 2b2d 50be
2.4822838 1.5001205 1.2137423 -5.0267496 15.141241 2.9613252 -4.02811 18.068075
-5.6907806 2.632613 3.7740984 1.688146 -0.7670299 -1.4549962 17.648417 -9.60661
1.5588696 11.35752 13.542887 -1.8956484 -0.6197055 3.365064 -1.5738461 -4.368823
-1.128247 -0.94514954 0.4789147 10.117159 -2.1437879 12.408074 -0.78998864 -2.7081082
0.619305 2.7233355 5.000734 16.85455 0.2484591 -0.56568575 -3.643708 -2.124671
2.9206007 -0.35074186 -4.094544 -1.8559521 0.8527203 4.601195 -4.7850614 -2.5195463
-2.7828267 2.2258863 -1.890359 -2.523533 -0.18729846 0.49225757 -8.42562 0.012451712
0.043598488 -4.353742 1.5303011 -0.5787062 -1.2536652 -0.02662689 -3.1164217 -0.2032973

q_out.weight f4 [1, 64]
00000000: 5c68 edbd f30f 7fbd 3e8c a73e 33e8 22bd
00000010: 41f5 093d 1bd1 4e3e 486b 9dbc c281 1f3e
00000020: 95ea bbbd 4057 81be 9a97 253f 17ce 38bd
00000030: fbab 9bbf c49f 9d3c 18c1 d93e 1980 12bf
00000040: 49d5 9abe 8a7d 753d f880 fb3e 3c40 343f
00000050: 3415 473c 2538 ea3d 85db eabe 337e 1dbe
00000060: 94a3 c7bf 2876 3fbe 0c4f abbd 2bfb 7d3d
00000070: 2dcc 953e 736d d63d 05cb 763e cd5c ebbe
00000080: efa2 cb3f ca95 71bd df00 e63d 953c 2b3f
00000090: 6ae2 723c c8d4 63bf 5846 bebd 2403 18be
000000a0: 4d92 17be 752a eebc b9e3 b73c 0855 c43c
000000b0: 2f13 6f3c 921b a83e 84ca 3fbd e6b8 60be
000000c0: 4127 4dbe 1f5c dcbd bf0d ce3b fb43 50be
000000d0: 58fd be3c 8f32 42bb b5b7 7e3e c84c bc3d
000000e0: e25e 993d 07d6 223e e9e3 90bc f45f 1ebd
000000f0: 70b9 3f3f 7163 2abe e2f1 2fbc 9234 0b3d
-0.115921706 -0.06227107 0.32724184 -0.039772224 0.033681158 0.20196955 -0.019216195 0.15576842
-0.09175602 -0.2526188 0.6468445 -0.045118418 -1.2161859 0.019241221 0.4253013 -0.5722671
-0.3024085 0.059934177 0.49121833 0.70410514 0.012151051 0.1143649 -0.45870605 -0.15380172
-1.5596795 -0.18697417 -0.08364686 0.06200711 0.29257336 0.104700945 0.24100883 -0.4596924
1.5909098 -0.05898074 0.11230635 0.66889316 0.014824489 -0.88996553 -0.09290761 -0.14844948
-0.14801903 -0.02907298 0.022447454 0.023966327 0.014591976 0.32833534 -0.046823993 -0.21945533
-0.20034505 -0.10759758 0.0062882598 -0.20338432 0.023314163 -0.0029632186 0.24874766 0.09194332
0.074888006 0.15901957 -0.017686801 -0.038665727 0.7489233 -0.16639496 -0.010738822 0.03398568
