Coop Navi/MADDPG-master/model/simple_adv/agent_1/critic_params.pkl (torch, 54223 bytes, 7 tensors)

fc1.weight f4 [64, 71]
0	0xba1717c1	-0.00057637325
1	0x3ad1e88b	0.0016014738
2	0x3f3994e2	0.724928
3	0xbe658989	-0.22415747
4	0x3f508bf2	0.8146354
5	0x3ecdc662	0.40190417
6	0xbe9a81db	-0.30177197
7	0xbf111606	-0.5667423
8	0xbdefbe13	-0.11706176
9	0xbd4d38f2	-0.050103135
10	0xbda387f3	-0.07984915
11	0xbdb1c5ea	-0.08680327
12	0xbe2661dc	-0.16248268
13	0xbe869dd9	-0.26292303
14	0xbd67b773	-0.056571435
15	0x3d4e5ba9	0.050380383
16	0x3d5257e1	0.05135334
17	0xbd6171b7	-0.055040088
18	0xbde34eec	-0.110990375
19	0xbdc04b0b	-0.09389313
20	0xbc08117a	-0.008304948
21	0x3dddf39f	0.10837483
22	0x3fb3eebe	1.4057233
23	0xbe8c01b8	-0.2734506
24	0x3fc8aca5	1.5677687
25	0x3ea08d27	0.3135769
26	0xbea747da	-0.32672006
27	0xbf5e639b	-0.86870736
28	0x3e060ce6	0.13090858
29	0xbde85fd1	-0.113464005
30	0x3df6dcd2	0.12053837
31	0xbdcd10bf	-0.1001296
32	0xbe2a553d	-0.16634078
33	0xbe92653e	-0.28592867
34	0x3aecf0d2	0.0018077141
35	0x3e2f5fed	0.17126437
36	0x3be35784	0.006937923
37	0xbc8e756d	-0.017389977
38	0x3c84da62	0.016217414
39	0xbd45219a	-0.048127748
40	0x3f705154	0.93874097
41	0xbee32481	-0.44363788
42	0x3f9ded34	1.2338014
43	0x3f242a62	0.6412717
44	0xbe23844d	-0.15968437
45	0xbf5f7c9a	-0.872995
46	0x3d61ee5c	0.055158958
47	0x3ca579d9	0.020199703
48	0xbc5acd4d	-0.013354612
49	0x3d68d59f	0.05684435
50	0xbeb552fb	-0.35414872
51	0xbe86f05a	-0.2635525
52	0x3d391003	0.045181286
53	0xbc29cdfe	-0.010364054
54	0xbddd838b	-0.108161055
55	0xbe0e9528	-0.13924086
56	0xbc0f5f14	-0.008750696
57	0x3d108d96	0.035291277
58	0xbd08356a	-0.033254065
59	0x3c5fd5d2	0.013661819
60	0xbd428354	-0.047488526
61	0xbd4054a1	-0.04695571
62	0x3cdfb35b	0.027307203
63	0xbcb1cc60	-0.021703899
64	0x3cf269f5	0.02959154
65	0xbd8673f4	-0.06565085
66	0xbd1dc122	-0.038514264
67	0x3bee088b	0.007264202
68	0xbd366979	-0.04453418
69	0x3d22c0cf	0.039734658
70	0xbae193ae	-0.001721015
71	0xbc00fe78	-0.00787317
72	0xbdb659f3	-0.08903875
73	0xbf05159b	-0.5198609
74	0x3f3737e1	0.7156964
75	0x3e39fe06	0.18163309
76	0xbd90d362	-0.07071568
77	0x3d5a190d	0.053246547
78	0x3c1a31ba	0.00941127
79	0x3e85d9e5	0.26142803
80	0x3eb0dcf6	0.3454358
81	0x3e29889a	0.16556016
82	0xbd4dc882	-0.050240047
83	0x3e9ab817	0.30218574
84	0x3e1bb90a	0.15207306
85	0x3da53315	0.08066384
86	0x3df50a4f	0.11964857
87	0x3cf588fc	0.029972546
88	0xbe34c633	-0.17653732
89	0xbd4e8098	-0.050415605
90	0xbd002fa6	-0.03129544
91	0xbd8c2b18	-0.06844157
92	0x3e662787	0.22476016
93	0xbeb487f8	-0.35259986
94	0x3fa377c4	1.2770925
95	0xba3a21ba	-0.00071003626
96	0xbf1015aa	-0.56283057
97	0xbe6cfeee	-0.23144123
98	0xbef53a8b	-0.47896227
99	0xbe04d116	-0.12970385
100	0xbea8d332	-0.3297363
101	0xbd78bbf4	-0.06072612
102	0xbecf2ed4	-0.40465415
103	0x3cdefa84	0.027219065
104	0xbe000f18	-0.12505758
105	0x3de69ffa	0.11260982
106	0x3cb8f6d5	0.022578636
107	0x3ca5a570	0.020220488
108	0x3d4e3e80	0.050352573
109	0x3e096c11	0.1342013
110	0xbcc673cf	-0.024225144
111	0xbe8b01ec	-0.27149904
112	0x3f4a61a7	0.79055256
113	0x3d3b6dff	0.045759197
114	0x3c9373a6	0.017999481
115	0xbdffffca	-0.1249996
116	0x3e178062	0.14795068
117	0xbd96139f	-0.07327961
118	0x3c9c48b3	0.019077634
119	0xbcb015c0	-0.021494746
120	0x3e64fefb	0.22362892
121	0x3d0383fc	0.032108292
122	0x3ee1ef61	0.44127944
123	0xbdec9e37	-0.115536146
124	0x3dca6e1f	0.09884285
125	0xbae2bbf9	-0.0017298452
126	0x3e004ed1	0.12530066
127	0x3d8422a6	0.06451921
128	0xbd4957e0	-0.04915607
129	0xbb99efde	-0.004697784
130	0xbdb69190	-0.089144826
131	0x3d1313bb	0.03590749
132	0xbdc571cb	-0.09640845
133	0xbd647cd1	-0.055783097
134	0x3dcc3565	0.09971122
135	0x3e901939	0.28144243
136	0xbe35fdee	-0.17772648
137	0x3d8f8ff9	0.070098825
138	0x3e0837c2	0.1330252
139	0xbca67dff	-0.020323751
140	0x3c38e62f	0.011285349
141	0x3c3e3b67	0.011610842
142	0x3de4f528	0.11179572
143	0xbe8c5615	-0.27409425
144	0x3de621ee	0.1123694
145	0x3e911eac	0.28343713
146	0xbce02401	-0.027360918
147	0xbf02d6a9	-0.51108795
148	0x3d4e3e17	0.050352182
149	0x3c88d494	0.016702928
150	0xbd84ca97	-0.064839534
151	0x3e35b7db	0.17745917
152	0xbd20ccaf	-0.0392577
153	0x3c816400	0.015794754
154	0xbdaadf01	-0.08343316
155	0xbe083c07	-0.13304149
156	0xbd0a9d3b	-0.033841353
157	0xbce7fa56	-0.028317612
158	0x3e0c99f9	0.13730611
159	0xbdb71603	-0.08939745
160	0xbd83421c	-0.06409094
161	0x3d026cf8	0.031842202
162	0xbe372ccb	-0.17888181
163	0x3c87060c	0.016482376
164	0xbe1648b3	-0.1467617
165	0x3e3a3af9	0.18186559
166	0x3e7d7625	0.247521
167	0xbf25e169	-0.64797074
168	0x3f4f4203	0.809601
169	0x3cc6182a	0.024181444
170	0x3e25f2bd	0.16205879
171	0xbe33f185	-0.17572601
172	0x3e8341b1	0.25636056
173	0x3ea7163a	0.32634145
174	0x3d8e72a3	0.06955459
175	0x3f2c9126	0.6740898
176	0x3d4558a9	0.048180256
177	0x3c5a9b33	0.013342666
178	0xbcde1062	-0.027107421
179	0x3d41fe3c	0.047361597
180	0xbc306f16	-0.010768672
181	0x3d8254bb	0.06363817
182	0x3dc44076	0.095826074
183	0x3f1da275	0.61576015
184	0x3e754613	0.23952512
185	0xbf85ff95	-1.0468622
186	0x3ef32d6e	0.47495598
187	0xbec32368	-0.3811295
188	0xbdb6f580	-0.08933544
189	0x3c45a693	0.01206364
190	0xbe3828f7	-0.17984377
191	0xbe968e6c	-0.29405534
192	0x3a6fa3dc	0.00091415434
193	0x3e8a58b7	0.2702081
194	0xbd3b7bf3	-0.045772504
195	0xbe02c4ab	-0.12770335
196	0xbe2a5b95	-0.16636498
197	0x3cddccd0	0.027075201
198	0xbcc90d3c	-0.024542443
199	0x3daa1a4d	0.08305798
200	0xbd4b3be9	-0.04961768
201	0xbe085aa3	-0.13315825
202	0x3d9ee702	0.07758905
203	0xbdb7d67c	-0.089764565
204	0xbdfe17e2	-0.12406899
205	0x3e63ffdb	0.2226557
206	0xbdd0f440	-0.10202837
207	0x3d7b198c	0.06130366
208	0x3d93f880	0.07225132
209	0x3d8edecf	0.06976091
210	0xbd90881e	-0.07057212
211	0xbbbf2a90	-0.0058339313
212	0xbd89d7d1	-0.06730617
213	0x3e558421	0.20851184
214	0xbe0dc2ce	-0.13843843
215	0xbeb17686	-0.3466074
216	0xbe9eb2d8	-0.30995822
217	0xbd12439c	-0.03570901
218	0x3f2bc6b1	0.67100054
219	0xbe83b4cf	-0.25723884
220	0xbef95fb4	-0.48705828
221	0xbd0b9a36	-0.034082614
222	0xbcdf90f8	-0.027290806
223	0x3dbff587	0.093730025
224	0x3dc99ccf	0.09844362
225	0x3e37bfa6	0.17944202
226	0x3e55da7a	0.20884123
227	0x3e048210	0.1294024
228	0xbdb2c488	-0.087288916
229	0xbc9bd2dd	-0.019021446
230	0xbdd3a3b1	-0.10333956
231	0x3dbfd1de	0.09366201
232	0x3e21b249	0.15790667
233	0x3dfe8c8a	0.124291494
234	0xbe26c2f8	-0.16285312
235	0xbe3434d3	-0.17598276
236	0xbef46d66	-0.47739714
237	0xbf0d149e	-0.55109584
238	0x3f3ea4a9	0.7447
239	0xbf5b2f84	-0.8561938
240	0xbe8e730d	-0.27822152
241	0x3ca65b9e	0.020307358
242	0xbe136ed2	-0.14397743
243	0xbe10c1fa	-0.14136496
244	0xbe90e704	-0.2830125
245	0xbe8b9efd	-0.27269736
246	0x3ec3540e	0.38150066
247	0x3d58d706	0.052939437
248	0xbe022936	-0.12711033
249	0xbb481a69	-0.003053332
250	0xbd638c03	-0.055553447
251	0xbc891029	-0.016731339
252	0xbde3372d	-0.11094508
253	0xbf453512	-0.77034104
254	0xbe2701e4	-0.16309315
255	0x3e8b5ce0	0.27219296

fc1.bias f4 [64]
0	0x3f0ee5ae	0.55819213
1	0xc0a23dff	-5.070068
2	0xc024a89c	-2.572791
3	0xc04c4d82	-3.1922307
4	0xc0a3da7e	-5.1204214
5	0xbda526dc	-0.080640525
6	0xbf051be6	-0.51995695
7	0x3ffeb17d	1.9897915
8	0x3f7b18fe	0.9808501
9	0xbfbb707d	-1.4643704
10	0xbed7ae36	-0.421251
11	0xbe91f1d4	-0.28504813
12	0x3fa9accc	1.3255858
13	0x3f294fdb	0.66137475
14	0x3fabf07a	1.3432763
15	0x3d54486e	0.051826887
16	0xbc1e15c6	-0.009648746
17	0x3f30a3f1	0.69000155
18	0x3fdf3bac	1.7440085
19	0xbebf2431	-0.373323
20	0xc0154a03	-2.3326423
21	0xbe48e928	-0.19620192
22	0x3ff9e498	1.9522886
23	0x3e05f2a7	0.13080846
24	0xbf8f24c2	-1.1183093
25	0x401d934c	2.4621153
26	0x3fa0c092	1.2558768
27	0x3f836af5	1.0267016
28	0x4002893d	2.0396264
29	0x3e08bc1e	0.13353011
30	0xbf82f0f6	-1.0229785
31	0xc063c779	-3.5590498
32	0xbe12c008	-0.14331067
33	0xc0a661d2	-5.199441
34	0x3e81da6a	0.2536195
35	0x40266b62	2.6003041
36	0xc09c10df	-4.8770595
37	0xbf893c21	-1.0721475
38	0xc023d5d1	-2.5599253
39	0xbf90d294	-1.1314263
40	0x3f99f497	1.2027768
41	0xbd99ada0	-0.075038195
42	0x3fec8225	1.8477217
43	0xbfc1c797	-1.5139035
44	0xc0079189	-2.1182578
45	0xba1bfe51	-0.0005950677
46	0xbf6a4e58	-0.91525793
47	0x3c946ea0	0.018119156
48	0xbd6b5027	-0.057449486
49	0xc0849400	-4.1430664
50	0x3fc771d8	1.5581617
51	0xbe324ca9	-0.17412056
52	0x3f2e301f	0.68042177
53	0xc01cf563	-2.4524772
54	0x3ffcdccb	1.9754881
55	0xc0289e67	-2.634668
56	0xbffa0dc7	-1.9535455
57	0x3fa1a6b3	1.2628998
58	0xbf36ce5e	-0.7140864
59	0xbe24eccb	-0.16105954
60	0x3f79e8b8	0.97620726
61	0xbe62b479	-0.22139157
62	0x3f8655c5	1.0494925
63	0xbf043020	-0.5163593

fc2.weight f4 [64, 64]
0	0xbe0082ec	-0.12549943
1	0xbf1f614f	-0.62257856
2	0xbf377b4d	-0.7167252
3	0xbedffda0	-0.43748188
4	0xbe3d1ee9	-0.18468823
5	0xbddb3215	-0.10702912
6	0xbfd9e018	-1.7021513
7	0x3e52d026	0.20587215
8	0xbff9b6d9	-1.9508926
9	0xbfe969e6	-1.8235443
10	0xbea6fde8	-0.3261559
11	0xbdc1b625	-0.094585694
12	0x3d40e10f	0.047089633
13	0xbe0d30cc	-0.13788146
14	0x3e2a4342	0.1662722
15	0xc012a1a2	-2.2911153
16	0xbfd2a698	-1.645709
17	0xbfe20d2b	-1.7660269
18	0xbf8f4a57	-1.1194562
19	0xbfb07cef	-1.3788127
20	0xbfef8a78	-1.8714132
21	0x3f64ec33	0.8942291
22	0xbfd6cb78	-1.6780844
23	0x3e9ad858	0.30243182
24	0xbf72ef31	-0.9489623
25	0xbfe456df	-1.7839011
26	0x3e44826e	0.1919038
27	0xbfa8e745	-1.3195578
28	0x3d044c3c	0.032299265
29	0x3efee34f	0.49782798
30	0x3eef4760	0.46734142
31	0x3e9bf13d	0.30457488
32	0xbe14d8f8	-0.14535892
33	0x3ecd6a22	0.40120035
34	0x3f986114	1.1904626
35	0xbee10749	-0.4395087
36	0xbd12832a	-0.03576962
37	0xbf1d4581	-0.6143418
38	0xbfce2fff	-1.6108397
39	0xbfe3e818	-1.7805204
40	0xbf94270a	-1.1574414
41	0xbf4794c5	-0.7796138
42	0x3e233581	0.15938379
43	0x3ee80dc7	0.4532301
44	0xbe0fedaa	-0.14055505
45	0xbe875ec9	-0.26439503
46	0xbf1003f7	-0.5625605
47	0xbfb46ee0	-1.4096336
48	0xc0147c72	-2.3200955
49	0xbf221bab	-0.6332347
50	0xbe977743	-0.29583177
51	0xbff0db00	-1.8816833
52	0xbd914896	-0.07093923
53	0xbff0cd9b	-1.8812746
54	0xbe2ae879	-0.16690244
55	0xbe75161b	-0.23934214
56	0xbf3c3f02	-0.7353364
57	0xbfb75216	-1.4321926
58	0xbfce3313	-1.6109337
59	0xbf000a7c	-0.50016
60	0x3beedb52	0.0072893286
61	0xbf72e5f3	-0.94882125
62	0xbe5b1983	-0.2139645
63	0x3f39a495	0.7251676
64	0xbfc295d7	-1.5201977
65	0x3ec26853	0.37970218
66	0xbfcf17ae	-1.6179101
67	0xbf5583b5	-0.83404094
68	0xbcb83ec2	-0.022490863
69	0xbd9ea87c	-0.077469796
70	0xbfa3f9ea	-1.2810643
71	0x3e410ddf	0.18852948
72	0xbfa34f7a	-1.2758629
73	0xbe76b9d3	-0.24094324
74	0xbf7456ec	-0.9544513
75	0xbfe88b84	-1.8167577
76	0xbf9f4cc4	-1.2445302
77	0x3e87c22d	0.26515332
78	0xbc84b81a	-0.016201068
79	0x3e268e88	0.16265309
80	0xbdbe79e2	-0.09300591
81	0x3f5c5754	0.8607075
82	0x3ee819b5	0.45332113
83	0xbd190e41	-0.03736711
84	0xbf199c3a	-0.6000401
85	0x3e4ab6c2	0.19796279
86	0xbf84b70c	-1.0368361
87	0x3f2e12ab	0.67997235
88	0xbf2f5672	-0.6849128
89	0xbecd0c5a	-0.40048486
90	0x3e89f5d9	0.2694538
91	0x3ebb05b7	0.36527798
92	0x3ccef69f	0.025264082
93	0xbe143eb2	-0.14477041
94	0xbf2db762	-0.67857945
95	0xbea8868a	-0.32915145
96	0xbf5103cb	-0.8164641
97	0x3ba46d9c	0.0050179493
98	0xbf54cb11	-0.83122355
99	0xbf16b2b8	-0.58866453
100	0x3df18445	0.117928065
101	0x3d523906	0.051323913
102	0xbfa13143	-1.2593158
103	0x3e83d0c6	0.2574522
104	0xbf07f6ea	-0.53111136
105	0xbec69608	-0.3878634
106	0xbf9b5bbc	-1.213737
107	0x3e36bcc5	0.17845447
108	0xbeeab8a7	-0.45844004
109	0xbf858a04	-1.0432744
110	0xbf3c5c29	-0.73578125
111	0xbf2fa884	-0.6861651
112	0x3e629b7a	0.22129622
113	0xbfaa74ff	-1.3316954
114	0xbea774c5	-0.32706276
115	0x3ef28a4e	0.47371143
116	0xc0092951	-2.1431468
117	0x3ec47652	0.3837152
118	0xbd5c82a4	-0.053835526
119	0x3ec1a5e6	0.37821883
120	0x3e03e7fa	0.12881461
121	0xc03d59ac	-2.9585981
122	0xbf7dfd3a	-0.9921452
123	0xbf474be4	-0.77850175
124	0x3efbf3e3	0.49209508
125	0xbef23f26	-0.47313803
126	0x3f3c423f	0.73538584
127	0xbfebe760	-1.8429985
128	0x3e906689	0.28203228
129	0xbc0ba316	-0.008522769
130	0xbf184384	-0.5947802
131	0x3e4ab3f4	0.19795209
132	0xbf483100	-0.7819977
133	0xbe10f623	-0.14156394
134	0x3f040d98	0.5158324
135	0x3e2c4d04	0.16826254
136	0x3e75c4db	0.24000876
137	0x3cb22fac	0.021751247
138	0x3f390076	0.7226633
139	0x3f2129c1	0.62954336
140	0x3f8721e2	1.0557215
141	0x3f7a67f7	0.9781489
142	0x3f05d0ee	0.52271926
143	0xbe7619e7	-0.24033318
144	0xbe3e9bd7	-0.18614136
145	0xbd34905e	-0.04408299
146	0xbdf24e2b	-0.118313156
147	0x3f25a586	0.64705694
148	0xbe008f14	-0.1255458
149	0x3e72ee09	0.23723616
150	0xbee81efd	-0.45336142
151	0xbe5b0a86	-0.21390733
152	0x3ee94ee6	0.45568007
153	0xbe9ab2c7	-0.3021452
154	0xbee2af31	-0.44274285
155	0xbf0ae2e3	-0.5425245
156	0xbf443256	-0.76639307
157	0xbf482f8f	-0.7819757
158	0xbe27fe04	-0.16405493
159	0xbe64579e	-0.22299048
160	0xc007167b	-2.110747
161	0xbef8a4d3	-0.4856325
162	0x3d8e6795	0.069533505
163	0x3e253ed2	0.16137245
164	0x3f016ab7	0.5055346
165	0x3de22a93	0.11043277
166	0x3eb72560	0.35770702
167	0xbe533f21	-0.2062955
168	0xbfb31d28	-1.3993273
169	0x3e2804ec	0.16408128
170	0x3e08fbc4	0.13377291
171	0xbf389412	-0.7210094
172	0x3f313965	0.692282
173	0xbf658be6	-0.89666593
174	0x3fc73e62	1.5565913
175	0x3ed0d127	0.4078457
176	0xbe88cb84	-0.2671777
177	0xbea67168	-0.32508397
178	0xbf4898b6	-0.7835802
179	0x3e82dcde	0.25559133
180	0x3f0cedc0	0.5505028
181	0x3e11a1a7	0.14221822
182	0x3dd41bf7	0.10356896
183	0x3e0313dc	0.12800545
184	0xbeba1e9e	-0.36351484
185	0x3f8a1d0e	1.0790117
186	0x3eba2269	0.36354378
187	0xbeb5aa48	-0.35481477
188	0xbfb945e1	-1.447445
189	0x3ea854b2	0.32877117
190	0x3e114846	0.14187726
191	0xbe9a7374	-0.3016621
192	0xbea0a591	-0.31376317
193	0xbf7348d0	-0.9503298
194	0xbe4f9abe	-0.20273873
195	0x3e4f7a05	0.2026139
196	0x3f0ac089	0.54200035
197	0xbdd44741	-0.10365153
198	0xbe0eab74	-0.13932592
199	0xbed61fa1	-0.41821006
200	0xbed5fa9d	-0.41792765
201	0x3e1e07c4	0.1543265
202	0xbf318385	-0.6934131
203	0x3de55e31	0.11199606
204	0xbf0af006	-0.54272497
205	0x3e005779	0.12533368
206	0xbf8a1c6c	-1.0789924
207	0xbe64d8f0	-0.2234838
208	0xbf002eec	-0.500716
209	0xbc973bb3	-0.018461084
210	0xbeb1aee0	-0.34703732
211	0xbe8d6b5a	-0.27620965
212	0xbdda9b7f	-0.1067419
213	0x3e58846c	0.21144265
214	0x3e0f5309	0.13996519
215	0xbce93af4	-0.028470494
216	0xbf4e44a0	-0.80573463
217	0xbeeb2db3	-0.45933303
218	0xbea1dd4f	-0.31614158
219	0xbe150d9d	-0.14555974
220	0xbe701415	-0.2344516
221	0xbf18e63c	-0.5972631
222	0xbeebdc12	-0.46066338
223	0x3f45f982	0.77333844
224	0x3eaca77a	0.33721524
225	0x3e49facf	0.19724582
226	0x3cd6d3d6	0.026224058
227	0xbf6d966d	-0.92807657
228	0xbe583119	-0.2111248
229	0xbeb2fa59	-0.34956625
230	0xbe2aa81a	-0.16665688
231	0x3e19ed99	0.15032043
232	0x3ddfda81	0.10930348
233	0x3dc01878	0.09379667
234	0xbf7b37a9	-0.98131806
235	0x3e050298	0.1298927
236	0xbebb5d90	-0.3659482
237	0xbedc1922	-0.42987925
238	0xbe9bef32	-0.3045593
239	0xc01b453a	-2.4261003
240	0xbecf7012	-0.4051519
241	0x3e7d7848	0.24752915
242	0xbcfaac0c	-0.030599616
243	0xbe511370	-0.20417571
244	0x3d4eea33	0.05051632
245	0xbf2920f4	-0.6606591
246	0xbe979568	-0.29606175
247	0x3dd0ca12	0.10194792
248	0x3e699d89	0.22814001
249	0xbf2eb4c2	-0.68244565
250	0xbe8d1a66	-0.27559203
251	0x3cac6705	0.021045217
252	0x3e6e90cb	0.23297422
253	0xbf511611	-0.81674296
254	0xbedfa517	-0.4368064
255	0x3e26bf03	0.16283803

fc2.bias f4 [64]
0	0xbf12e8ee	-0.5738667
1	0x3e801629	0.25016907
2	0xbda432e6	-0.080175206
3	0xbf8a51a5	-1.0806166
4	0xbfaf0a5d	-1.3675038
5	0x3f2c92d7	0.6741156
6	0x3f0cd774	0.55016255
7	0xbdcf4973	-0.10121431
8	0xbe18da1f	-0.14926957
9	0xbf050aa3	-0.51969355
10	0xbf70fa3a	-0.94131815
11	0x3f1693d8	0.5881934
12	0xbedb1392	-0.42788368
13	0xbe44d52f	-0.19221948
14	0x3e443fac	0.19164914
15	0xbf152e49	-0.5827375
16	0x3ff07838	1.8786688
17	0xbf827102	-1.0190737
18	0x3e5208b9	0.2051114
19	0xbf983f48	-1.1894312
20	0x40014089	2.019564
21	0x3ecce7bc	0.4002055
22	0x3dae018f	0.08496391
23	0x3c844ad6	0.016148966
24	0xbe755841	-0.23959447
25	0xbf307adb	-0.6893746
26	0x3def5360	0.116858244
27	0xbdb565e2	-0.08857323
28	0xbe0c0f7f	-0.13677786
29	0xbd931543	-0.0718179
30	0xbeb2ffbe	-0.3496074
31	0xbf41383f	-0.7547645
32	0x3e8c9546	0.27457637
33	0x3e47cdb1	0.19512059
34	0x3fba0445	1.4532553
35	0xbe1e5a79	-0.154642
36	0xbff124ba	-1.8839333
37	0x3f8e7419	1.112918
38	0x3f1f26e7	0.62168735
39	0xbe8885c7	-0.26664564
40	0xbf3ecec5	-0.74534255
41	0x3f021943	0.50819796
42	0x3fa22ed4	1.2670541
43	0xbf57c5c8	-0.84286165
44	0x3f4f7203	0.81033343
45	0xbf83089e	-1.0237005
46	0x3bed94a8	0.007250387
47	0xbe026850	-0.12735105
48	0x4049a570	3.1507225
49	0xbe4fa826	-0.20278987
50	0xc00b682e	-2.1782336
51	0xbf89d72f	-1.0768794
52	0xbe886678	-0.26640677
53	0x3e91b331	0.28457025
54	0xbf1d892d	-0.6153744
55	0xbf2ea748	-0.68224
56	0xc015f977	-2.3433511
57	0xbfbfb47c	-1.4976954
58	0xbf96dc6d	-1.1786019
59	0x3e134f68	0.1438576
60	0xbf83d78a	-1.0300152
61	0xbedcf27e	-0.43153757
62	0x3ec5ce3e	0.38633913
63	0xbf9276f7	-1.1442555

fc3.weight f4 [64, 64]
0	0x3e24361a	0.16036263
1	0xbf01aa45	-0.50650436
2	0xbe1e74d0	-0.15474248
3	0x3e25716b	0.16156547
4	0xbe6a2076	-0.22863945
5	0x3d989225	0.0744975
6	0xbd82a6cf	-0.063794725
7	0x3d7522d5	0.05984767
8	0xbd185823	-0.03719343
9	0xbea9e9d5	-0.33186212
10	0x3f8a88a8	1.0822954
11	0x3f143636	0.5789522
12	0xbf4b898f	-0.7950677
13	0xbeba1eaa	-0.3635152
14	0x3f17327c	0.5906141
15	0x3ecd0474	0.4004246
16	0x3f154636	0.5831026
17	0xbfc1b0bb	-1.5132059
18	0xbe77b89c	-0.24191517
19	0x3ef59dd2	0.4797197
20	0x3f3ffa35	0.7499116
21	0x3ec6ce7e	0.38829416
22	0x3e8670f5	0.26258054
23	0xbeec029e	-0.46095747
24	0x3f1949dc	0.59878325
25	0xbf6346ed	-0.887801
26	0x3df34e2f	0.11880147
27	0xbcf46398	-0.029832646
28	0xbe666669	-0.22500004
29	0xbe8c7e0d	-0.2743992
30	0xbf2f2946	-0.68422353
31	0xbeeb30e2	-0.45935732
32	0xbddc2586	-0.107493445
33	0x3ef4d6ed	0.47820225
34	0xbe840b00	-0.25789642
35	0xbdaa13ba	-0.08304544
36	0xbf04b198	-0.51833487
37	0xbe6a4ccf	-0.22880863
38	0x3e8c643e	0.2742023
39	0xbf053aeb	-0.52043027
40	0x3f4b258d	0.7935417
41	0x3e5be4a8	0.21473944
42	0x3e2026d9	0.15639819
43	0xbe4a3451	-0.1974652
44	0xbd1ce8b9	-0.03830788
45	0xbe44b83b	-0.19210903
46	0x3f2f7294	0.6853421
47	0xbf05d0ea	-0.522719
48	0xbecceeeb	-0.4002603
49	0xbedef161	-0.43543532
50	0xbf8c9e98	-1.0985899
51	0x3e5454ca	0.2073547
52	0xbd92e509	-0.07172591
53	0x3df1c7f3	0.118057154
54	0x3e9ace68	0.302356
55	0x3eabda0f	0.33564803
56	0xbf4fba05	-0.8114322
57	0xbf31d3a6	-0.69463575
58	0xbef47eb5	-0.4775292
59	0xbf9cb5c9	-1.2242976
60	0xbea331f0	-0.31874037
61	0xbec6bb61	-0.38814834
62	0x3e2eb982	0.17062953
63	0xbf596ac3	-0.8492853
64	0x3c1bad32	0.009501742
65	0xbdeda88e	-0.11604415
66	0xbf2910d1	-0.66041285
67	0xbecd0ee2	-0.40050417
68	0xbef1d377	-0.47231647
69	0xbecac22a	-0.3960126
70	0xbd498725	-0.04920115
71	0xbd660b55	-0.05616315
72	0xbbd1c86f	-0.0064020674
73	0x3dc9c7b7	0.09852546
74	0x3dea041a	0.114265636
75	0xbee8ad38	-0.45444655
76	0xbbd063f3	-0.006359571
77	0xbee36f46	-0.44420832
78	0xbf68daf4	-0.90959096
79	0xbf22fa1f	-0.63662905
80	0xbf367ffc	-0.7128904
81	0xbec2ee46	-0.38072413
82	0xbe97a50e	-0.29618114
83	0xbe7c4ffb	-0.24639885
84	0xbf7ea749	-0.99474007
85	0xbfdfd9cf	-1.7488345
86	0xbc34939f	-0.011021524
87	0x3f6816b7	0.9065966
88	0xbf07dfc6	-0.53075826
89	0xbe29c76d	-0.16579981
90	0xbe9228a6	-0.28546637
91	0x3f4fc960	0.8116665
92	0x3eb4bd1f	0.35300538
93	0xbfdeb1ca	-1.7398007
94	0xbe9ea43a	-0.3098467
95	0x3d665a91	0.056238715
96	0xbf524e5f	-0.82150835
97	0xbf8008b1	-1.0002652
98	0x3e89e6f9	0.2693403
99	0x3dd49429	0.10379822
100	0xbf5907c9	-0.84777504
101	0xbf8f2273	-1.1182388
102	0xbe897009	-0.2684329
103	0x3f4a6b1f	0.79069704
104	0x3f063d6d	0.5243748
105	0x3ddddcd2	0.10833134
106	0x3d800c04	0.06252292
107	0xbe794e53	-0.24346285
108	0xbfc2d958	-1.5222578
109	0x3e3dffa4	0.1855455
110	0xbe850b17	-0.25985023
111	0x3dc86ad2	0.09785999
112	0xbf0ec597	-0.5577025
113	0xbe489106	-0.19586572
114	0xbe246324	-0.16053444
115	0xbec472e8	-0.38368917
116	0xbe4e3f97	-0.20141445
117	0xbf082573	-0.5318214
118	0xbe5173f5	-0.2045439
119	0xbf812c7f	-1.0091704
120	0xbdf9276c	-0.12165722
121	0xbf05f6e5	-0.52329856
122	0x3eeec3af	0.4663367
123	0x3e6fdc75	0.23423941
124	0x3f04fd6e	0.51949203
125	0xbe58b624	-0.21163231
126	0x3f7a29fa	0.977203
127	0xbd2b1728	-0.04177013
128	0xbd485bd8	-0.048915714
129	0xbd86ca14	-0.06581512
130	0xbde199fc	-0.11015698
131	0xbda7a728	-0.081861794
132	0x3cf837dc	0.030300073
133	0x3c3c7139	0.011501604
134	0x3cb09caa	0.021559078
135	0x3ddd869a	0.10816689
136	0x3db2ce00	0.08730698
137	0xbdbb0aec	-0.091329426
138	0x3dd2548c	0.10270032
139	0x3d94ef77	0.07272237
140	0xbd2fb316	-0.0428954
141	0xbbea233a	-0.0071453126
142	0x3d1bcf10	0.038039267
143	0xbe6e9367	-0.23298417
144	0xbe1cbe23	-0.15306906
145	0x3b923620	0.0044620186
146	0xbe4f6c01	-0.20256044
147	0xbd220500	-0.03955555
148	0xbe06d9ac	-0.13168973
149	0x3c80cf84	0.015723951
150	0xbd5cfb05	-0.05395033
151	0xbde4ef3a	-0.11178441
152	0xbe4ee659	-0.20205058
153	0xbd92c357	-0.07166164
154	0x3d1b6e83	0.03794719
155	0xbd60ad55	-0.054852802
156	0xbd7c5f7f	-0.06161451
157	0x3d9eb1cb	0.07748755
158	0xbd8a8a91	-0.06764711
159	0xbdd8e18d	-0.105898954
160	0xbd9ff050	-0.07809508
161	0x3d2ae369	0.04172078
162	0xbdef231b	-0.11676618
163	0xbdcb2c38	-0.099205434
164	0x3b37692b	0.002798627
165	0x3c938313	0.018006837
166	0x3d26280e	0.040565543
167	0xbe1c1267	-0.15241395
168	0x3d66dea4	0.05636467
169	0x3c8f9139	0.017525302
170	0xbe39c94a	-0.18143192
171	0x3b691b6b	0.003556932
172	0x3c79cee3	0.01524708
173	0x3dd7411e	0.10510467
174	0xbc4df2b2	-0.01257007
175	0x3d155740	0.03646016
176	0xbd80e723	-0.06294086
177	0xbd340e34	-0.043958858
178	0xbe18dae7	-0.14927255
179	0xbd929ddd	-0.07159016
180	0xbe257f74	-0.16161901
181	0xbdb607ca	-0.088882044
182	0x3cb993b4	0.022653438
183	0xbe3bf675	-0.18355735
184	0xbd2a7755	-0.04161771
185	0xbdc4df66	-0.09612922
186	0xbdfa21e1	-0.12213493
187	0x3d935734	0.07194367
188	0xbd44da0b	-0.048059504
189	0xbd5bb7b0	-0.053641975
190	0xbdd5584a	-0.104172304
191	0x3cb74a38	0.022374257
192	0xbf9a128d	-1.2036911
193	0xbf05a28a	-0.5220114
194	0x3e873686	0.26408786
195	0xbca8bab9	-0.020596849
196	0x3d84d95c	0.064867705
197	0x3e517322	0.20454076
198	0xbedb220c	-0.42799413
199	0xbd8e158d	-0.06937704
200	0xbd8dfef8	-0.06933397
201	0xbe3bab14	-0.1832698
202	0x3e8885e2	0.26664644
203	0xbe32a03e	-0.1744394
204	0xbe2c90bb	-0.16852085
205	0xbe956e75	-0.29185835
206	0x3dd18fdd	0.10232518
207	0x3ef1e62e	0.47245926
208	0xbee7cb26	-0.45272177
209	0xbdef0d61	-0.11672474
210	0xbe1f183b	-0.15536587
211	0x3ef08d79	0.46982935
212	0xbf8f4d0c	-1.1195388
213	0x3eae9345	0.34096733
214	0xbf186a1d	-0.59536916
215	0x3e8a3a37	0.2699754
216	0xbeb66b80	-0.3562889
217	0x3e1ee90e	0.15518591
218	0xbefb79dd	-0.49116412
219	0xbea91f6d	-0.33031788
220	0xbe27fe45	-0.1640559
221	0xbe753c0a	-0.23948684
222	0xbe8db494	-0.27676833
223	0x3e9e98c0	0.30975914
224	0x3e0c6c60	0.13713217
225	0x3e2aa565	0.16664656
226	0xbef6d5fb	-0.4821013
227	0x3d8908fd	0.066911675
228	0xbe100085	-0.14062698
229	0xbe3c3b63	-0.18382029
230	0xbd35e9c6	-0.044412397
231	0x3f1dcfba	0.6164509
232	0xbe0a2f13	-0.1349452
233	0xbf02b811	-0.51062113
234	0xbe48d947	-0.19614135
235	0xbdccf1bc	-0.10007045
236	0xbf138f02	-0.5764009
237	0xbf16ddcd	-0.5893219
238	0xbed9921f	-0.42494294
239	0x3d1f857b	0.038945656
240	0xbf862ae7	-1.0481843
241	0x3e309f00	0.17248154
242	0xbde8c2e8	-0.113653004
243	0xbf9c9c39	-1.2235175
244	0xbde716d9	-0.11283655
245	0x3ebc503c	0.36779964
246	0xbf25b586	-0.6473011
247	0xbead251a	-0.3381737
248	0x3d88122d	0.06644092
249	0xbddab145	-0.10678343
250	0xbec84442	-0.39114577
251	0x3ffcfcd7	1.9764661
252	0xbd876301	-0.0661068
253	0xbda62664	-0.08112791
254	0x3ed5b914	0.41742766
255	0x3da1cd47	0.07900482

fc3.bias f4 [64]
0	0x3f17d190	0.5930414
1	0x3f09fa40	0.53897476
2	0xbe43baa9	-0.19114174
3	0xbf48693c	-0.78285575
4	0xbe25f280	-0.16205788
5	0x3f0da8f1	0.5533591
6	0x3f306249	0.6889997
7	0x3ecab17b	0.39588532
8	0x3ed694ae	0.4191031
9	0x3f2de875	0.67932826
10	0x3f3ea25c	0.7446649
11	0xbdd52658	-0.10407704
12	0xbf2eb291	-0.6824122
13	0xbe9d2eda	-0.30699807
14	0x3f3ae200	0.730011
15	0xbe0989d8	-0.1343149
16	0xbdef6fb1	-0.11691225
17	0x3f29507d	0.6613844
18	0x3f1efffd	0.6210936
19	0x3fbcd322	1.4751933
20	0xbe862da3	-0.26206693
21	0x3eb0e68b	0.3455089
22	0xbecc6832	-0.39923245
23	0x3f86d314	1.0533166
24	0xbe2f7bfc	-0.1713714
25	0xbe1f4ba8	-0.15556204
26	0xbe23eafe	-0.16007611
27	0xbe85ee14	-0.26158202
28	0x3e1cef8b	0.15325753
29	0xbe1d413f	-0.1535692
30	0xbc08fbe9	-0.008360841
31	0xbf033cd4	-0.5126469
32	0xbebfade1	-0.37437347
33	0x3f6e3245	0.93045455
34	0xbe2a3562	-0.16621926
35	0xbef74672	-0.48295933
36	0x3d233165	0.03984203
37	0x3e6e2e17	0.2325977
38	0x3edc7bfb	0.4306334
39	0x3f2ff53d	0.6873358
40	0x3f12f595	0.5740598
41	0xbf610418	-0.8789687
42	0x3f096c08	0.5368047
43	0x3f9121ec	1.1338477
44	0xbe522772	-0.2052286
45	0x3eb7d2c8	0.35903
46	0xbe966a7d	-0.2937812
47	0x3e020db4	0.1270054
48	0x3eaac58e	0.33353847
49	0x3eb0241c	0.3440255
50	0xbbc64b98	-0.006051492
51	0xbe5a7027	-0.21331845
52	0x3eb3e650	0.35136652
53	0x3f87f932	1.0622923
54	0xbdec92a7	-0.11551409
55	0xbc2df11e	-0.010616569
56	0x3ed088a5	0.40729252
57	0xbf2740a3	-0.65333
58	0x3f10ca88	0.5655904
59	0x3e1a8a50	0.15091825
60	0xbe1fa688	-0.1559087
61	0x3f8eca63	1.1155514
62	0x3de156e1	0.11002899
63	0xbf5b9f35	-0.85789806

q_out.weight f4 [1, 64]
0	0x3f2eb800	0.6824951
1	0xbea784f6	-0.3271863
2	0xbcf3b45f	-0.029749094
3	0xbd5fad44	-0.0546086
4	0xbf1fc338	-0.62407255
5	0xbebe0bed	-0.37118474
6	0xbf99d14e	-1.2017
7	0x3ea26d65	0.31724086
8	0xbf107da8	-0.56441736
9	0xbeefcf26	-0.4683773
10	0xbfd6036c	-1.6719794
11	0xbf3f49e5	-0.7472213
12	0xbf124634	-0.5713837
13	0x3f05aa21	0.5221272
14	0x3f1935f6	0.5984796
15	0xbc1fcd9f	-0.009753614
16	0x3ccefd3c	0.025267236
17	0x3ec3828e	0.38185543
18	0xbfa78a9d	-1.3089176
19	0x3f7c8699	0.9864288
20	0xbee38410	-0.44436693
21	0xbe4d56dd	-0.20052667
22	0xbf0b9b29	-0.5453363
23	0x3eecd0c8	0.46253037
24	0x3ccfd005	0.025367746
25	0xbf848841	-1.0354081
26	0xbab59747	-0.0013854288
27	0xbed8ba93	-0.42329845
28	0xbf6a5f59	-0.9155174
29	0x3c81c257	0.015839739
30	0x3ee2ed52	0.44321686
31	0xbf495457	-0.7864432
32	0x3f22f2b8	0.6365161
33	0x3e931413	0.28726253
34	0x3cb2f9cc	0.021847628
35	0xbed86dbd	-0.42271224
36	0xbda1f527	-0.07908087
37	0xbd31d6e7	-0.043417837
38	0x3ea4aada	0.321616
39	0x3f442b27	0.76628345
40	0xbf8b90df	-1.0903586
41	0xbfaf3d61	-1.3690606
42	0xbfac9394	-1.3482537
43	0x3ef4c2fa	0.47805005
44	0xbedc199b	-0.42988285
45	0xbf03260a	-0.5122992
46	0x3fb39819	1.4030792
47	0xbea5a8e1	-0.32355407
48	0xbfc82113	-1.5635093
49	0x3f11dd20	0.56978035
50	0x3d0da079	0.034576867
51	0xbc988f3f	-0.018622993
52	0xbe49e958	-0.1971792
53	0x3edd96bf	0.43279073
54	0xbdbe2966	-0.0928524
55	0x3f01150d	0.50422746
56	0x3ee90fed	0.45519963
57	0xbed66a0a	-0.41877776
58	0xbf9bcd11	-1.2171956
59	0x3db6ed67	0.08932
60	0x3d96438b	0.073371015
61	0xbfb15188	-1.3853006
62	0x3ea51de0	0.32249355
63	0x3f153b0c	0.58293223
