Coop Navi/MADDPG-master/model/simple_adv/agent_0/actor_params.pkl (torch, 42191 bytes, 8 tensors)

fc1.weight f4 [64, 20]
00000000: 6a25 2d3c 6dfd a43e 75e1 9ebe 7d01 113f
00000010: 5284 6e3e 463a be3e b14a 50be 03d4 14be
00000020: bf14 6f3c 2578 83bd 104b 41bd 0f12 813e
00000030: c57e 073e bb75 d4be f97b 6cbd 6445 80bc
00000040: d9e2 1e3d 480b 033e 8967 44bc d945 23be
00000050: a899 cf3d 07f0 55bc f8dc eb3d c627 8b3d
00000060: 784f 39be ced3 663e 7b34 36bc 7f9e bbbe
00000070: dba6 903e 6dc2 9c3e 856f acbe 3c51 ab3c
00000080: 482a a9bd 1de5 e23b 0867 9f3e 6657 d3bd
00000090: 4023 6fbd 5e40 cb3d 1b32 ae3c 511b e1bd
000000a0: 02e5 96bd 42bd 5abd d497 a23e 3ee8 e9bd
000000b0: e975 6f3e 66e0 bfbe 68c0 92be 4fd0 0d3e
000000c0: d35e 55be 6c73 8a3d e1bf 2bbe 9f24 103e
000000d0: c58d 603e 9ff0 aebe 9905 20be 019a ce3c
000000e0: 93e7 033d b343 bcbd 28c4 44bd 756d a4bd
000000f0: 4318 ff3b e5ca 0bbd bd09 513e ae2a f63d
00000100: dc28 ccbd 6fdd 803e 886e 40be 611f 923e
00000110: 4a1e 893e 6855 ddbe d22d bb3d f61d 7b3e
00000120: 7eca c2bc 1bcb 02be 6bb0 4fbe 91ad 7d3c
00000130: 83be 61bd d60a 513b 8d32 adbd 001c 21bd
00000140: 6545 7e39 633b fcbc 6bdc 693d 7671 a0be
00000150: b7cc fdbd 5f12 ef3d 4672 003d ac4d c13d
00000160: 8edb a33c e471 3a3f 136e 783e 8f20 76be
00000170: d049 aabe d531 d03e b92b 7abe 3fef e63e
00000180: b635 adbc bc8c b9bd 92c6 d3bd 605e d33d
00000190: 8176 8d3d d993 833c 74e6 acbe 7a56 89be
000001a0: 8cd5 19bf d9ea 87be 294d 073f e152 dcbe
000001b0: 59fa 3dbc 8adb 283e 4890 113d b23c 86bc
000001c0: 9a2b 89be 2424 90bc f902 92bc 545b b6bc
000001d0: ac85 61bd 54ce 853b 4670 1ebd bff1 ae3d
000001e0: 0c40 84bc 54f3 06be 34f0 a4bd 787a 6dbd
000001f0: 2dc6 663e 95d0 16bb a673 5abb a35a 25bd
00000200: fff7 0dbf 7509 ba3e 9977 bbbc 8915 16be
00000210: 85a3 45bb 7e30 03bd 7d58 073f b9f8 28bf
00000220: 7b01 9b3d a137 8fbd 46db c93b 7458 873b
00000230: eb92 56bd 4c19 15be 1c85 943c 478b 543d
00000240: 35d6 68bd 4ca6 893d 6bc3 2ebc a773 853c
00000250: 0ef0 76bd 3ee1 a53f 4a1f 103a 7ab6 96bb
00000260: 20ba 63bb b863 81bc 6dbe 9ebe c123 a7be
00000270: fc36 893a a22d 49bb 274b e0bb 45d6 4ebc
00000280: 07dc aabe bfe6 3abe ac72 2cbe 1e98 1c3e
00000290: a229 6638 c3b3 8abd f888 1b3c 6e19 063c
000002a0: 468e 5b3f bb26 43bd b8f8 bcbd de57 4f3d
000002b0: 6cdb 25bd d91a 9e3d 89a1 9ebe 99ad 173d
000002c0: 386a dabd a436 72be 04f1 8fbc f0fc 0bbc
000002d0: d151 8ebd 00a4 a23c 33bf 843c 28f8 03bd
000002e0: cd5f 393e 778b 35be 2958 993d 7e92 343f
000002f0: bfab 24be c061 63be 0faa d8bd e6bb c93d
00000300: 90d1 8abe d335 11be a6e1 d1bd f88d 95bd
00000310: b58d 483c d773 c9bd 1b3a ebbd 9874 813b
00000320: ece1 303d 6fae 20bb 2bcc 793e d1e4 76bc
00000330: 2182 02bf f45e 863d d822 85bd 37f0 083e
00000340: 9dea 0bbf aa6f 10be a90a 93bd e377 0abe
00000350: 9a3a 583e b244 f73c 9d1a c2bd f160 463b
00000360: ca8a 0cbd 9d13 bc3d ae6d 9f3c 2dfb 46bb
00000370: 24a6 da3d a1ef 7a3d 723c 3abe 8b10 9c3e
00000380: 2b44 acbd e937 ddbd 6fcf 02bf 7498 a1bd
00000390: 621a 1a3d c4ed 32be 3bda 713d c379 e2be
000003a0: 40e3 9e3e a09c a1bd 71c7 acbd a5b2 38bd
000003b0: c2c4 7ebd dac8 f4bd d689 943e 2664 ecbd
000003c0: fec1 2f3d f7a4 8cbd d583 dbbe db93 eb3b
000003d0: 3628 5d3d 87de a1bd 5a70 2e3e 4f75 b23d
000003e0: 452f bfbe cecf f63d 5181 f8bd a122 6a3e
000003f0: 3e5e 273e 66a8 33bd f408 a6be 9ad2 09bc
0.010568002 0.322246 -0.31031385 0.56642896 0.23292664 0.37153834 -0.20340993 -0.14534001
0.014592349 -0.064194 -0.047190726 0.2520909 0.13231952 -0.4149607 -0.057735417 -0.015658088
0.038790558 0.12797272 -0.011987575 -0.15944614 0.101367295 -0.013057715 0.11516756 0.067946956
-0.18096721 0.22541735 -0.011120911 -0.3664436 0.282523 0.30617085 -0.33678833 0.020912759
-0.08260018 0.006924285 0.31133294 -0.10319404 -0.058383226 0.099243864 0.021264127 -0.10991538
-0.073678985 -0.053403147 0.3175646 -0.1142125 0.23384823 -0.3747589 -0.2866242 0.13848995
-0.20836954 0.06760296 -0.16772415 0.1407647 0.21929081 -0.34167954 -0.15627135 0.02521992
0.03220327 -0.091926 -0.04803863 -0.0802869 0.0077848746 -0.034129042 0.20413871 0.12019859
-0.09968731 0.2516894 -0.18792164 0.28539565 0.2678092 -0.43229222 0.09139599 0.24523148
-0.023778196 -0.12772791 -0.20282142 0.015483276 -0.055113327 0.0031897328 -0.084569074 -0.039333344
0.00024249179 -0.030790037 0.057094973 -0.31336564 -0.12392562 0.11673426 0.03135898 0.09438643
0.020002153 0.72830033 0.2426074 -0.24035858 -0.3325944 0.4066302 -0.24430741 0.45104405
-0.021143775 -0.09060046 -0.10340609 0.10320735 0.069073685 0.01606171 -0.33769572 -0.2682379
-0.6009147 -0.26546362 0.5285211 -0.43031982 -0.011595332 0.16489998 0.035537988 -0.016386364
-0.26791078 -0.017595358 -0.017823683 -0.022260346 -0.05505912 0.004083434 -0.03868129 0.08542203
-0.016143821 -0.1317876 -0.080536276 -0.057978123 0.22536536 -0.0023012508 -0.0033333092 -0.04036964
-0.55456537 0.3633534 -0.022884177 -0.14656653 -0.003015728 -0.032028668 0.528694 -0.6600452
0.07568642 -0.06993032 0.0061601726 0.0041304175 -0.052386206 -0.14560431 0.018129878 0.051890638
-0.05684491 0.06721172 -0.010666708 0.016290499 -0.060287528 1.2959363 0.00054978265 -0.0045993896
-0.003474839 -0.01579462 -0.31004658 -0.32644466 0.0010468657 -0.0030697365 -0.0068448964 -0.012624328
-0.33370993 -0.18252085 -0.16840619 0.15292403 5.4875047e-05 -0.06772568 0.009493105 0.008184774
0.8576397 -0.047644358 -0.09227127 0.050620906 -0.04049246 0.077199645 -0.30982617 0.03703079
-0.10664791 -0.23653656 -0.01757098 -0.008544192 -0.06949199 0.019853592 0.016204452 -0.032219082
0.18102951 -0.17728983 0.07487518 0.7053603 -0.16081141 -0.22205257 -0.10579311 0.09850292
-0.27113008 -0.14180689 -0.10248117 -0.07302469 0.012240817 -0.09836548 -0.11485692 0.0039506666
0.043184206 -0.0024518033 0.2439429 -0.0150692025 -0.5097981 0.065610796 -0.065007865 0.13372885
-0.54654866 -0.14105096 -0.07179768 -0.13522296 0.21116105 0.030184124 -0.09477732 0.0030270184
-0.034312047 0.091834284 0.019461479 -0.0030362115 0.1067622 0.061263684 -0.1818712 0.3048137
-0.084114395 -0.1080168 -0.5109777 -0.07890406 0.037622817 -0.17473513 0.05904601 -0.44233522
0.31032753 -0.07891202 -0.08436478 -0.045092244 -0.06219936 -0.11952372 0.2901141 -0.11542539
0.042909615 -0.06867402 -0.42874017 0.0071892566 0.053993426 -0.07903772 0.17035046 0.08713781
-0.3734075 0.12051354 -0.1213404 0.22864772 0.16344544 -0.04386177 -0.32428706 -0.008412028

fc1.bias f4 [64]
00000000: d3b4 a43e 38f2 133e 1fd1 e93b 5227 573e
00000010: f5d2 923d d03c 283e 89c6 be3e f67f 523e
00000020: 0130 d03e 6604 763e 9661 ec3e 88c7 ffbc
00000030: 84fb ac3e d449 963e d285 973c b9ff cc3e
00000040: 148f 5a3e 12cf 84be 8059 873e 7255 8e3e
00000050: 8098 bf3d 3ec1 40bd 0317 bc3c 6faa 883e
00000060: 2a39 9d3d 42bd 5a3e 3a02 f03e 105c c43e
00000070: 7e21 c43e a2e4 ecbe e01b cb3e 2d93 bb3e
00000080: f4bd 2dbd f6b4 af3e 69a3 95bd f630 cc3c
00000090: 0aa2 ffbc 87d5 4a3e 23c4 763e 1605 1e3e
000000a0: 4e1c e13e 0296 5e3d eb57 a23d 4c15 0c3f
000000b0: 2227 12bb 6a74 023f 6782 803e 4c30 3e3f
000000c0: 0b20 be3e 50c5 1a3e 437c da3e c619 04be
000000d0: 4d3a 55bd 475b 1f3e 1a10 ac3e 0782 a4bd
000000e0: 9e24 b73e f7cb bc3e 3990 1d3e 18ee c63e
000000f0: b67b dabd 3ace ec3e cd02 3b3e 833b d53e
0.32169208 0.14447868 0.007135525 0.21011093 0.07169143 0.16429448 0.37260845 0.20556626
0.40661624 0.24025115 0.46168202 -0.031223074 0.3378564 0.293532 0.018496428 0.4003885
0.21343642 -0.25939232 0.2643547 0.27799565 0.09355259 -0.04705929 0.022960192 0.2669253
0.07676919 0.21361259 0.468767 0.38351488 0.38306803 -0.46268183 0.39669704 0.36635724
-0.04241748 0.3431775 -0.07306559 0.02492569 -0.031205196 0.19808017 0.24098258 0.15431628
0.43966907 0.054342277 0.07926925 0.54719996 -0.0022301157 0.50958884 0.2509949 0.74292445
0.37133822 0.15114331 0.4267293 -0.12900457 -0.052057553 0.15562163 0.33606035 -0.08032613
0.35770124 0.36874363 0.15387048 0.38853526 -0.10668127 0.46251088 0.18262787 0.41646966

fc2.weight f4 [64, 64]
00000000: a0ac 843e cb40 3c3e e09a ecbc 4165 a13d
00000010: 6672 843d 836d 14be b115 30be dbef 66bc
00000020: 5408 e83d 840a a7bd 9659 2f3c 685c 34bd
00000030: b97f cabd 297c 773d 39a4 dcbe e692 fe3d
00000040: 3f41 413d f4e9 f43d 48b8 ae3e 24e2 a93e
00000050: 6370 923e 563b 523d 93e8 433d 987f 04bd
00000060: 9055 963e 7067 153c 75f1 ddbd 6b66 bcbd
00000070: 4040 a53e cadb abbd 3fd3 d73d 18c8 0f3e
00000080: d033 b2bd 5a6f 853e efa2 d4bd cbd6 e13c
00000090: 88ba 803e 8765 2f3d 69bc cd3d c257 6bbd
000000a0: 8ade 8f3c d7ca 51bd d415 1b3d cd0a 7ebc
000000b0: 5316 19bd 811a 573e 4b62 923d 24fc b3bd
000000c0: 791c 4f3e 66b9 923d 4d1f 983d 1eda d13d
000000d0: 04d1 14bd be19 a13d 6d23 0f3e 8278 0b3e
000000e0: a763 63bd c5c8 a33d 931e ab3d 70e4 3b3d
000000f0: 7cdb 80bd 80fa 21be 4c5c b7bd 4da1 d7bd
00000100: a691 283d f46e a33d 9e02 993d a34d babd
00000110: 9da5 24bc b94a 0bbe e312 4abe 915a 06be
00000120: 6e12 423e 445d 183c 35eb 44bd 77e4 73bc
00000130: cc2b 01be 4e11 02bc 6b29 0cbe e98a e3bd
00000140: 5190 a63c 2743 eebc be8b 4e3e 8814 a33e
00000150: 1fdd c93d b693 4f3e ce69 aa3e 63b8 0bbe
00000160: 4ce1 d23e 9375 f83d 42f7 393e 50e4 003e
00000170: 09c1 4d3e aca8 23be 3ede ce3d 397e a93e
00000180: b532 adbd 349c 1d3e 0a39 26be 3375 9e3d
00000190: 0e94 0abe d72d bb3c f4ef 56bd c7e5 083d
000001a0: dba7 41bd bd04 5dbe 5327 74bd bb9f 363e
000001b0: 99a4 8bbd 74be c6bd 31d2 aabd e1c3 bfbd
000001c0: 90fa 30bd 3289 973d d65b 313e 1cb6 513e
000001d0: 05f9 933e be8c 523d e714 673d 0ecc f83d
000001e0: 699e 913e 63dc 033e b1b8 24bc 99c9 933e
000001f0: f752 30bd 5664 853d 64b5 2b3d 59aa 07bd
00000200: a71b 083e 8640 b93d 1bca 54bd de62 fd3e
00000210: 9983 9ebe 4524 ad3d 5253 bbbe 8aa4 64be
00000220: 0847 c8bd 12f6 a2bd f8b0 09be b83b 7e3e
00000230: 981e babe c782 6ebe a7b7 243e a884 a3be
00000240: 6abb cbbe e561 8dbe 0174 ff3d 637d e93d
00000250: eae9 4b3e 6190 1abe b148 9cbe e671 4dbd
00000260: 6131 873e 6c89 2dbe 73bf 983b be11 e43d
00000270: a866 e63d cd1d 3ebc 32dd b5bd 6133 563a
00000280: ae6b 403d 4277 d03d de52 33bd 9657 103c
00000290: ab4d 12be 83be e83d e919 05bd 6291 fc3d
000002a0: 4bfb 243e a152 953d d75d aebe 2de0 70be
000002b0: bf44 373e 51e5 f7bc 4099 4f3d 4dd0 14be
000002c0: d604 773e 14c8 a9ba 5da8 443e 31e0 ac3e
000002d0: 6702 943d e954 973e d280 87be 6ef1 833e
000002e0: b506 f4bd ee33 723e 5da0 fd3d 52db 70bd
000002f0: 91cf 6dbe 1d9e f53d eb28 90bd e1fe 70be
00000300: 885e a8be 299a 30be 6ca3 7abd 4ce5 45be
00000310: 0160 673e 0c13 2b3c 6877 3dbe b43e 4a3d
00000320: e340 183e b8c2 983e 799a 783b 3bd2 29be
00000330: 2104 a4bd 8a0c 253e 579e 593e 158a 76be
00000340: b7ed 9e3d ad03 663e d60c babe 8683 253d
00000350: 5e1a 323e 9c61 bb3e 8195 d03e 0eaf ab3d
00000360: 0770 053e f7b5 2e3e 7d79 5ebd de32 ff3d
00000370: 9223 073d 3c6f 163e cd12 f43c 7e8b d73e
00000380: b0f7 5cbd 31e7 5cbe a8da 293e 6335 f8bc
00000390: a67a 89be 9808 2dbe 40d8 24bd 5d55 3a3e
000003a0: 0363 ba3d cba4 15be a660 7e3d d06e 21be
000003b0: afb6 5fbe a6ae 06be 6d10 833e 04df d53c
000003c0: f931 353d d464 42be 409f 55be 6a79 0dbe
000003d0: 6f81 813e 46de 8cbe db02 753e ed82 973e
000003e0: 17e6 043f fccf b83e 5ed5 4d3d a0bb 6d3e
000003f0: f430 193e 6cac 503d 12e2 f73e 5d2a f3bc
0.25912952 0.18384092 -0.028882444 0.07880641 0.06467132 -0.144949 -0.17195775 -0.014095272
0.113297135 -0.081563026 0.010702511 -0.044033438 -0.098876424 0.060421143 -0.43094042 0.124303624
0.047181364 0.119586855 0.3412497 0.33180344 0.2860137 0.05132612 0.047829222 -0.032348245
0.29362154 0.0091189 -0.1083707 -0.09199222 0.3227558 -0.08391531 0.10538339 0.14041173
-0.08701289 0.26061517 -0.103826396 0.027568242 0.25142312 0.042821433 0.10045702 -0.05745674
0.01756217 -0.051218834 0.037862614 -0.015505505 -0.037374806 0.21006204 0.07147654 -0.087883264
0.20225705 0.07164268 0.07427845 0.10246681 -0.036332145 0.07866238 0.13978358 0.13620189
-0.055514958 0.07997278 0.08355441 0.04587215 -0.06291863 -0.15818214 -0.08953151 -0.105288126
0.041154526 0.07980147 0.07471202 -0.09096839 -0.010049251 -0.13602723 -0.19733767 -0.13120486
0.18952343 0.00929958 -0.048075873 -0.014886013 -0.12614363 -0.007938696 -0.13687675 -0.111104794
0.020332487 -0.029084755 0.20170495 0.31851602 0.098566286 0.20271191 0.33283848 -0.13644557
0.41187513 0.121318005 0.18160728 0.12587094 0.20093168 -0.15982312 0.10100983 0.33104113
-0.08456937 0.15391618 -0.16232696 0.07737198 -0.13533041 0.022849007 -0.05247493 0.033422258
-0.04727922 -0.21583839 -0.059607815 0.1783437 -0.06818504 -0.09704295 -0.08340872 -0.09363533
-0.043207705 0.07399215 0.17320189 0.20479625 0.28900924 0.051403753 0.05641642 0.12148295
0.2844117 0.1287704 -0.0100537995 0.28864744 -0.04304787 0.06513278 0.041921034 -0.03312144
0.13291799 0.0904551 -0.051950555 0.49489492 -0.30959776 0.084541835 -0.36587006 -0.22328392
-0.09779173 -0.079570904 -0.13446414 0.24827468 -0.36351466 -0.23292075 0.16085683 -0.31937146
-0.39791423 -0.2761375 0.12473298 0.11400869 0.1991345 -0.15094139 -0.3052421 -0.05015745
0.2640486 -0.16946954 0.0046614944 0.111361966 0.11250049 -0.011603785 -0.0888008 0.0008171108
0.04697769 0.101789966 -0.0437802 0.008809945 -0.1428744 0.11364462 -0.032495413 0.12332417
0.16111486 0.07291151 -0.3405597 -0.23523016 0.17897318 -0.030260714 0.05068326 -0.14532585
0.24122939 -0.0012953305 0.1920485 0.33764794 0.07227021 0.2955697 -0.2646547 0.25770134
-0.11915342 0.23652622 0.123841025 -0.05880291 -0.23223712 0.11993048 -0.070390545 -0.23534729
-0.32884622 -0.17246307 -0.061191007 -0.19325751 0.22595216 0.010441553 -0.18502581 0.049376205
0.14868502 0.2983606 0.003793387 -0.16584103 -0.080086 0.16118065 0.21251808 -0.24076112
0.07760184 0.2246234 -0.36337918 0.040408634 0.17392871 0.36597908 0.40739062 0.083829984
0.13031016 0.17061602 -0.05431508 0.12460874 0.032992907 0.1469087 0.029794121 0.42098612
-0.05394715 -0.21572568 0.16587317 -0.030298894 -0.26851386 -0.1689781 -0.040245295 0.18196626
0.09100916 -0.14613645 0.06210389 -0.15764928 -0.21847032 -0.1315256 0.2559847 0.026107319
0.04423711 -0.18983775 -0.2086153 -0.13815847 0.25294062 -0.2751333 0.2392687 0.29592076
0.5191359 0.3609618 0.05025231 0.23216105 0.1496008 0.050945684 0.48414665 -0.029683286

fc2.bias f4 [64]
00000000: f338 a13d 2cba 8a3d 2fec 32bd 9b78 323e
00000010: 9915 df3c b364 913c 5e59 4d3b 1c8f ea3d
00000020: e650 acbc 2960 9abd 32aa 53bc 344b 213e
00000030: 2cd9 d63d fbc6 623e bc0b ac3b 372d a3bd
00000040: 553b d93b cfd4 5fbd ab66 133e 2f7e 353d
00000050: 4acb 193c dfa4 113d 6a6e 47be 66bf 8a3d
00000060: c1ca 133e 4bfd f5bc 2a59 b03c 31de 8e3d
00000070: fd09 173e 7f75 263c cad4 52be 09bf 1b3e
00000080: 6db4 0239 bf67 91bb dbae b43d 65b2 cb3d
00000090: 465d f53c 3156 a23c 0eb6 313d f955 433d
000000a0: 2904 103e b82d 2e3d 8770 8dbd 2bc1 e03d
000000b0: 4187 1d3e 5750 25bc 9778 f33d 9189 77bd
000000c0: 9b8e 553e c85b 4a3e a465 2f3e 0934 8b3e
000000d0: 8ef8 2c3e 161d 0ebe be1f 033e 3959 c5bb
000000e0: 1c7b 2b3e 9d34 8a3d 3d16 c03d b428 533d
000000f0: 797b 213d e504 553d 8927 163e b0bd ed3d
0.0787219 0.06773791 -0.043682273 0.1742882 0.027231978 0.017748212 0.0031333785 0.11453077
-0.02103467 -0.07537872 -0.012918996 0.15751344 0.10490641 0.22146218 0.0052504223 -0.079676084
0.0066293874 -0.05464631 0.14394633 0.04430979 0.009386847 0.035557624 -0.19475713 0.067747876
0.14432813 -0.030028006 0.021526892 0.069759734 0.14749904 0.010159849 -0.20588985 0.15209593
0.0001246498 -0.0044374163 0.088224135 0.099461354 0.029951703 0.01981649 0.04338651 0.04768941
0.14064087 0.04252407 -0.069062285 0.10974344 0.15383627 -0.010089955 0.11888235 -0.060433928
0.20855181 0.19761574 0.17128617 0.27188137 0.16891691 -0.13878283 0.12805077 -0.006022599
0.16746181 0.067483164 0.093792416 0.05155249 0.039424393 0.05200662 0.14663519 0.11608446

fc3.weight f4 [64, 64]
00000000: ca53 19bd b46c 15bb 5c45 a13c 8701 cabd
00000010: 71ca d23c d770 f0bd 1522 353c 0699 913d
00000020: 801d 57bd 72c2 67bd eaa9 2fbd 6744 c23d
00000030: 22db 55bd 287a f83c a377 d3bd abed 6a3d
00000040: 3cb0 d73c cfc2 36bc 37c4 6ebd 5599 dabd
00000050: 0067 42bc 822d bcbd 36c6 4bbd c88f ccbd
00000060: 3e58 e03d b465 07bd 4f73 593d d089 b2bd
00000070: 36cf 53bd 58fd 96bd 61bc ee3d 7d07 c3bc
00000080: 8052 743b 354c 78bc f6ad f6bd 0aa9 edbd
00000090: 62cd 863c 9fec a93c a9f3 703b c80f c33d
000000a0: 3e9f c8bd 525a adbd 800a 6f3d 5644 63bd
000000b0: 780d d13d 5665 7ebd f263 81bd dd11 ccbb
000000c0: ad99 8c3c 7665 cbbd c090 e6bd 6eb3 e53d
000000d0: d672 cbbd 4862 09bd 3c50 64bd 131d e43d
000000e0: e0e8 273c b823 d2bc 3822 b03d 40b9 27bc
000000f0: eb99 df3c afb8 1ebd cc88 b5bd 9895 eb3d
00000100: a013 ba3c 5805 0b3c 4e17 a83e 2ee3 64bd
00000110: d42d 213e 179f 46be 76f9 3e3e 81fa 753e
00000120: 1a03 ad3d 365e 053e 8fab d93c 9cd6 9d3e
00000130: f44c 533e 8abf 01bd 3563 053e ad19 b7bd
00000140: 06d1 133f be68 553e 9a2e e5bc 765b 31be
00000150: a9c0 fe3d 6c3e 95be 5ef0 b33d b5f0 b83e
00000160: 0646 05be bd6a 2e3d 25d0 c13e 2a76 84bd
00000170: fa47 363c 4686 bcbe 8404 8e3e efbc e4be
00000180: 45e7 2cbc 2a0a acbe 6423 8fbd c709 b23e
00000190: 4fa5 4e3d 456c 82bd ae2d 273e a174 ebbc
000001a0: 9278 42bb c16c d9bd 32a4 e8bd 7b81 aebc
000001b0: a0ef 483e bb9a da3e dbec ce3e 89e9 1e3e
000001c0: f19e 9f3e a312 9b3d b2ff d53d bfff 943e
000001d0: e9bc f43e c6d4 653e 51d7 913c 0468 80be
000001e0: cebe 5c3e d00c b53e 40f5 31bd 0136 c5be
000001f0: b609 acbb c610 273d 3f7b 603d bc43 ffbb
00000200: 0051 e73d e993 9a3d b162 abbd 9d96 df3c
00000210: 537e 00be 6fd5 273e 0da8 f23e d92c 2f3e
00000220: 82d3 96be 24c8 43be 5aab a5be b51b 38be
00000230: 024f a8bd 04e5 5abd 8f9c 123d f66a c03d
00000240: 275b 55bd 84d3 39bd 204a 113e 28fb a43e
00000250: b203 8e3d 627e d7bd 3e2e a43e 04e5 f5be
00000260: 2e38 283e f57d 343e 40ff 18be 8f70 25bc
00000270: c990 88bd b4d3 7cbb 6e98 ba3e 4429 bbbe
00000280: b1c5 18be 5ad3 983e 8de4 6c3e c6c0 4fbd
00000290: 7386 163e a122 e93c 6110 00be 369a c73d
000002a0: 52f0 9f3c 9d73 1dbe 3125 acbd 304e 1a3d
000002b0: 039f 3e3e a118 8b3e 0b32 d73c 5801 f1bd
000002c0: 1b51 f3bd eedc 0fbc 8cff aa3d 7fee b6bd
000002d0: bc9a 4ebe 3f1a 0f3e ce35 f13a 3250 2abe
000002e0: 1815 84be cec3 b13c 7a1c 263e 300d d9be
000002f0: 2f1d 293e 3ec8 c63d 4185 4f3d d80a 53be
00000300: 8e8d 2dbe 01a1 b4be c63f 3fba a8cd fbbc
00000310: e634 9fbe 591b adbe 0a02 b2bd a115 853b
00000320: 639a 833d d423 17be 7fc1 2bbd 565c 99bd
00000330: 8b35 a23c f6d8 153e 5841 a43e f15c b3be
00000340: bcbd cabb d200 91bd 8eec 613d ef6a 1b3e
00000350: 7a31 92be d047 873d 5a54 09bf 8104 013f
00000360: ba7d b33e b5c4 a3be f634 d3be 9f43 ac3d
00000370: cd64 64bc cd81 de3e 90a9 133b 9e30 c2bd
00000380: 95f3 c33d 9bd0 4a3d e1c3 46bd 4d44 68be
00000390: c577 2abc 3cb6 b7be a8b7 d73d e5e7 5dbe
000003a0: 12f1 a5b9 99e5 2f3e d139 ca3d 1c25 ffbb
000003b0: 39f3 58be fb8a 0cbe 885c 93bd f9d4 ddbd
000003c0: 3946 8dbd b903 013e 6fd9 f03d dd1d 853e
000003d0: a0e6 df3e 64f0 a4be 31cd 5a3e c15a 50be
000003e0: 38c1 353e 3e51 97be 9295 843a 5570 3e3f
000003f0: 56ff eabd 07d3 89be 33b9 4e3e 8c66 123e
-0.037433423 -0.0022800388 0.019686393 -0.098635726 0.025731297 -0.117402725 0.011055489 0.07109265
-0.052518368 -0.056581922 -0.042886652 0.09485703 -0.052210934 0.030331686 -0.10325553 0.057355564
0.026329152 -0.011154844 -0.058292594 -0.10673777 -0.011865377 -0.091883674 -0.049749576 -0.099883616
0.10954331 -0.033055976 0.053088482 -0.08717692 -0.051711284 -0.0737254 0.11657024 -0.023807282
0.003728062 -0.015154888 -0.12044899 -0.11604507 0.016455356 0.020742713 0.0036766327 0.095244944
-0.09795998 -0.08464493 0.058359623 -0.055485092 0.10207647 -0.06210836 -0.06317891 -0.0062277154
0.017163122 -0.099314615 -0.112580776 0.11215864 -0.099340126 -0.033540994 -0.05574058 0.11138358
0.010248393 -0.025651798 0.08600277 -0.010237038 0.027295073 -0.038750347 -0.088639826 0.11503142
0.022714436 0.008485161 0.3283028 -0.055880718 0.15740138 -0.19396625 0.1864985 0.24021341
0.08447857 0.1302422 0.026571063 0.30827796 0.20634824 -0.031676807 0.13026126 -0.08940444
0.5774082 0.20840737 -0.027976323 -0.17320046 0.12439091 -0.29149187 0.08786081 0.36121145
-0.13014993 0.042582262 0.37854114 -0.064678505 0.011125559 -0.36821193 0.2773782 -0.44675395
-0.010553186 -0.33601505 -0.06989172 0.34773085 0.05045062 -0.06368307 0.16326019 -0.028742136
-0.0029673916 -0.10616446 -0.11359443 -0.021301975 0.1962266 0.42696175 0.4041508 0.15518774
0.3117595 0.07571914 0.10449161 0.2910137 0.47800377 0.22444448 0.017802866 -0.25079358
0.21557161 0.35361338 -0.04344678 -0.38517764 -0.005250181 0.04078748 0.054805037 -0.007790057
0.112947464 0.07547743 -0.08368433 0.027293498 -0.12548189 0.16390012 0.47393838 0.17106952
-0.29458243 -0.19119316 -0.32357293 -0.1797932 -0.082181945 -0.053441063 0.035793837 0.09395401
-0.052088883 -0.045367733 0.14188433 0.32222867 0.069342986 -0.105221525 0.3206653 -0.48026288
0.16427681 0.17626174 -0.1494112 -0.010097637 -0.066682406 -0.0038578333 0.3644442 -0.3655492
-0.14919163 0.29848748 0.2313406 -0.050720952 0.14699726 0.028458895 -0.12506248 0.0974621
0.019523773 -0.15376134 -0.08405531 0.03767222 0.18615346 0.27167228 0.02626898 -0.117678344
-0.11880704 -0.008780701 0.08349523 -0.08932208 -0.20176214 0.13974856 0.0018402876 -0.16632155
-0.25797343 0.021699812 0.162218 -0.42392874 0.16515039 0.09706162 0.05066419 -0.20609605
-0.1694853 -0.35279086 -0.0007295575 -0.030737713 -0.31095046 -0.33809927 -0.08691795 0.0040614163
0.06425931 -0.14759761 -0.04193258 -0.07488315 0.019800922 0.14633545 0.32081103 -0.35031846
-0.006187169 -0.070802346 0.055157237 0.1517751 -0.28553373 0.06605494 -0.53644335 0.503975
0.3505686 -0.31986013 -0.41251343 0.08411335 -0.013940048 0.43458405 0.0022531487 -0.09481929
0.09567944 0.049515348 -0.04852665 -0.22682305 -0.010404532 -0.3588122 0.105330765 -0.21670492
-0.00031650864 0.17177428 0.09874309 -0.007786406 -0.21186532 -0.13724892 -0.07195383 -0.10831637
-0.068981595 0.12599076 0.11760222 0.25999346 0.4373064 -0.32214653 0.21367337 -0.2034712
0.17749488 -0.2955417 0.0010115376 0.74390155 -0.11474483 -0.26918814 0.20187835 0.14296931

fc3.bias f4 [64]
00000000: 5d17 43bd ccbf 17be d48b b1bd fd74 a53d
00000010: c019 1dbd b38c 073b ccaf 2d3d 8656 6c3e
00000020: 105a 79be 7012 01be e35b 0c3e 2ea4 e9bd
00000030: 6dee 283e 44f1 3dbe 6ada c43d 22e5 baba
00000040: c819 053e 7550 9cbc 3e87 3dbd 89f1 84bd
00000050: bbb8 1e3e cc90 423d 6fdc 183e eec8 37bd
00000060: efb3 f1bd c47a 283e 2e28 073d 1441 b7bd
00000070: 3272 ddbd 6b02 ecbd b0ef 033e b1e2 f13d
00000080: cc4b d1bd c5ed 1d3e 1650 55bc 5284 a93d
00000090: 9954 fb3d eb44 90b9 fee6 7f3e 02c4 65bd
000000a0: bdee 07be c02a 073e 78b3 bdbd 0da7 143e
000000b0: 4ecc 803d 9c64 07be a824 3c3e f364 8cbd
000000c0: 0fb1 30bd 7bed 853d 8a58 e93b a9dd 15bc
000000d0: 511b 2c3e 808a ae3d 90c1 72be 1d31 c23d
000000e0: 7f24 d2bd 1c9e 863d 1bcd d9bd 17d0 bf3d
000000f0: fac8 d5bc c144 a8be 5876 24be c8b7 db3d
-0.047629703 -0.14819258 -0.08669248 0.08078954 -0.038354635 0.0020683229 0.04240398 0.23079881
-0.24350762 -0.1260469 0.13706927 -0.11408268 0.16497202 -0.18549067 0.09611972 -0.0014258961
0.12998116 -0.019081334 -0.046271555 -0.06491382 0.15500157 0.04750137 0.14927839 -0.044869356
-0.11801898 0.16453081 0.032997303 -0.089479595 -0.10812797 -0.11523899 0.12884402 0.11810816
-0.10219535 0.15422733 -0.013019582 0.08277191 0.12271995 -0.00027517168 0.2499046 -0.05609513
-0.13274665 0.13199902 -0.092627466 0.1451685 0.06288968 -0.13221973 0.18373358 -0.06855192
-0.043137606 0.065394364 0.0071211504 -0.009147086 0.16807295 0.085225105 -0.2370665 0.09482024
-0.10260867 0.06573126 -0.10634824 0.09365862 -0.02609681 -0.32864955 -0.1606077 0.10728413

action_out.weight f4 [5, 64]
00000000: 903d ed3d 893c 8cbe f277 95bd 6c40 48be
00000010: b07d 0bbe 0761 683d 8617 2e3d 35d9 d1be
00000020: 240a debe 6e49 963d c55a ccbd 0df0 cf3e
00000030: 3336 fabd f543 383e df85 9cbd dd35 243f
00000040: 9d1b 643e 74b3 b23c 2ac6 253f af0b fb3e
00000050: 5758 923d 36a2 373d 8f7a 8ebd 773b fa3e
00000060: 37ae 913e a07b dabe e14c 3fbc c41d 223f
00000070: f5a3 bf3e e1b7 52be b498 393e 60fd 6f3e
00000080: 8d35 14bf ff41 02be 0d3b eb3e c16c c63e
00000090: 3781 6bbd eb6a 0cbd 6523 b7bd ad5c 1ebf
000000a0: c348 c5bd 9476 dc3e 2e90 543e 5264 a23e
000000b0: 756b 87bc c208 6abe 60c3 b83e 262b 993d
000000c0: 28c3 a5bd 5a31 ffbe da88 db3e 600f aa3d
000000d0: dda2 2ebe cbe1 b1be 1db3 b33e e38f 2fbe
000000e0: 6c2d ca3d 969e 9b3e 2275 32be 822f c53e
000000f0: 7c16 e6bd 3fd3 c83d 32b2 473e fe67 04bf
00000100: a0fa 68bc 5eb7 d13c 3e08 993e aa70 72bf
00000110: c9b2 373e b5cc 15bd 9682 b1bb 8739 aabd
00000120: 7a01 58bf 3079 10bc cc14 fbbd f2fa 07be
00000130: 6b3c 6bbd bfb4 3e3e b757 50be 6870 0e3d
00000140: ac35 0f3e c308 88be 2cb2 9b3d bbfc 08bd
00000150: 7b02 93be 227f 663e e4e8 17be 082f 993e
00000160: c936 aebc be95 49be 625d febd f9e9 d5bd
00000170: f8a0 2c3e 198f 3d3e 76b2 8abe 0de2 06be
00000180: 5289 19be 6c72 e2be f9a3 43be 9d1f 5f3e
00000190: 2c30 d4be b097 e73d 44f6 f1bd 4677 b4bd
000001a0: ddb2 a33e c942 fbbc 1ae9 89bd fe08 eb3d
000001b0: 812f 82bd a0e9 aa3e 9bdd 1fbf 8f7d e7bd
000001c0: 9b33 abbe 1484 1fbe 644b 213e 5d60 143e
000001d0: 17d1 453e d737 733e 3e09 693f 199d f2bd
000001e0: 3f8b 143c 5742 13bf adfd 8b3d e7b4 42be
000001f0: daf8 9abe 5421 113d 8207 bf3e e7bc 643e
00000200: 5640 f03d c5c4 1cbe 0949 71bd 6873 3c3f
00000210: 9036 beba 0802 b53d 5e12 923c 78ad 393e
00000220: 0b6a 8ebe d891 96bc 2afa 9e3e aec6 ce3e
00000230: b415 5ebb 354b 11bf fadf 693e 06a1 793e
00000240: 129f b43d 8f39 643e a28e 073e 9dbb 51be
00000250: 7cd5 9f3d 0f52 38be 272b 223e a28f 68be
00000260: 2a0f 33be b055 353e 3bfc 83be 8a9f 043f
00000270: 6a6d 0cbe 93ae f7bc b61b 023e 1671 623d
00000280: e791 8b3e df9a 893d b360 93be edc0 b13d
00000290: fb75 123f 1f8f 9dbd 9bc0 7b3e b5ac ca3d
000002a0: d9ad 64be 7943 cf3d 8372 ccbd 8790 953c
000002b0: c69f f43d 52b5 9b3c 7da1 bb3e 4715 6b3d
000002c0: 109f 98be 6187 a53c ce3f 553d 5787 69be
000002d0: 9bc4 fa3d 20c2 0ebd a160 7abf 842a 523e
000002e0: 2199 d33d 4d91 adbe 2c4a 64be f3af 613c
000002f0: 91cb de3d 233f 81bf f04c 3f3d bef1 a03d
00000300: b477 54bd 6739 b9be 5356 563e 7736 3a3e
00000310: e6c7 0bbe ea11 7bbe 0478 9d3d cfef 113e
00000320: f384 673d b065 5a3d c5ce 2abe 3aca e0be
00000330: 20ae e53e 3d3e a8be f24e 3fbe f1b7 33be
00000340: 3879 aa3e 0258 3b3d af0c 613e 9053 53bc
00000350: d013 713e 4826 5a3d 7d40 a43c 9e0c f6bd
00000360: 180c 78bd 3ca0 f83d 6ab4 473c 36ba 803e
00000370: 2562 1f3e c357 a53d 29d1 3bbe db20 343e
00000380: 3f88 5c3e e623 16be c758 9bbe 2170 f43e
00000390: 9f46 1fbe 3876 8f3e f1d7 31bd b6f2 c8be
000003a0: 4e1b 0cbd 8321 6fbe d7cc 1f3e e39f e53d
000003b0: 168c 56bc e0fe 90bc 8230 333d 0fc5 95bd
000003c0: 1543 e43e 6bc2 113e 29e3 1b3e 64ce a1be
000003d0: 274b b0be 6b1f 5e3e 5e2e 55be 18b6 003e
000003e0: 12cc b13d 2a24 84bc 4f48 25be 93d9 bebe
000003f0: 9429 6e3e 4e0b a9be ca2c ac3c f95b 3e3e
0.11584008 -0.27389935 -0.072982684 -0.19555825 -0.13622165 0.056733157 0.042502902 -0.40986028
-0.43367112 0.07338224 -0.099782504 0.40612832 -0.12217369 0.17994674 -0.076427214 0.6414469
0.22276159 0.021814086 0.647555 0.4903235 0.07145756 0.04483243 -0.0695697 0.48873493
0.28453228 -0.42672443 -0.011676044 0.6332667 0.37429777 -0.20577957 0.18124658 0.23436499
-0.5789421 -0.12720488 0.4594349 0.38754848 -0.057496276 -0.034281652 -0.08942298 -0.6186016
-0.09633019 0.43059218 0.20758125 0.31717163 -0.016530732 -0.22854903 0.3608656 0.07478933
-0.08093864 -0.4984234 0.42877847 0.08303714 -0.17054315 -0.3474258 0.3509759 -0.17144732
0.09871945 0.3039443 -0.17427495 0.38512808 -0.11234757 0.09805917 0.1950157 -0.5172118
-0.01421991 0.025600132 0.298891 -0.9470316 0.17939295 -0.036572177 -0.0054171784 -0.08311754
-0.84377253 -0.008817956 -0.12259826 -0.13279322 -0.057430666 0.18623637 -0.2034596 0.034775168
0.13985318 -0.26569185 0.07602343 -0.033444148 -0.2871283 0.22509435 -0.14834934 0.29918694
-0.021266358 -0.19686028 -0.12420155 -0.10445017 0.1685828 0.18511619 -0.2708928 -0.13172169
-0.1499379 -0.44227922 -0.1910552 0.21789403 -0.41443002 0.11308229 -0.118145496 -0.08811812
0.319724 -0.030671494 -0.06733914 0.114763245 -0.06356717 0.33381367 -0.6244752 -0.11303245
-0.3343781 -0.15577728 0.15751415 0.14489885 0.19318043 0.2375177 0.9102973 -0.1184637
0.009066402 -0.575231 0.06835494 -0.19014321 -0.30267984 0.035432175 0.37310416 0.22337686
0.11731021 -0.15309437 -0.058907542 0.73613596 -0.001451211 0.08838278 0.017831024 0.1813258
-0.2781528 -0.01838009 0.31050235 0.40385956 -0.0033887448 -0.5675538 0.22839347 0.24377832
0.08819403 0.22287582 0.13238004 -0.20481725 0.07804391 -0.18000053 0.15836774 -0.22711042
-0.17486253 0.17708468 -0.25778374 0.5180594 -0.13713613 -0.03023461 0.12705883 0.05528363
0.27259752 0.067189924 -0.28784713 0.08679376 0.57211274 -0.07693314 0.24585192 0.098962225
-0.22331943 0.10120291 -0.09982779 0.018257393 0.11944537 0.019007359 0.36646643 0.05739334
-0.29808855 0.020206155 0.052062802 -0.22805534 0.12244531 -0.0348531 -0.97803694 0.20524031
0.103319414 -0.33899918 -0.2229392 0.01377486 0.10878671 -1.0097393 0.046704233 0.07858609
-0.05187197 -0.36176607 0.20931368 0.18184839 -0.13650474 -0.24518552 0.07688907 0.14251636
0.056523275 0.053319633 -0.16680439 -0.43904287 0.4485941 -0.32859984 -0.18682459 -0.17550637
0.33295608 0.045738228 0.21977495 -0.012898341 0.23542714 0.053259164 0.020050282 -0.12014125
-0.06055841 0.12139937 0.01218901 0.25142068 0.15564783 0.0807338 -0.18341507 0.17590658
0.21536349 -0.14662132 -0.3034117 0.47741798 -0.15554284 0.2801988 -0.04341883 -0.39247674
-0.034205727 -0.23352627 0.15605484 0.112121366 -0.0130949225 -0.017699659 0.043747433 -0.073129766
0.4458243 0.14234321 0.15223373 -0.31602776 -0.34432337 0.21691673 -0.20818469 0.12569463
0.086815014 -0.016130526 -0.16140865 -0.3727537 0.23258048 -0.33016437 0.02101745 0.18589772

action_out.bias f4 [5]
00000000: 3918 babc b3a7 c2bd b764 923d 3973 8e3d
00000010: f707 763d
-0.022716628 -0.09504642 0.07148116 0.06955571 0.06006619
