Coop Navi/MADDPG-master/model/simple_tag/agent_0/1_actor_params.pkl (torch, 41167 bytes, 8 tensors)

fc1.weight f4 [64, 16]
000000 b5 72 e0 3e 84 d0 3f bf dc 73 74 be 0b e3 8c 3e
       0.43837515 -0.74927545 -0.23872322 0.2751697
000010 18 b2 54 3e f8 7d 0f 3f 6e 19 bc be 32 9f 70 be
       0.20771062 0.5605159 -0.3673815 -0.23498228
000020 be 28 4d c0 f9 fd 01 c0 4f f3 92 bd 61 1d e7 3f
       -3.2056117 -2.0311263 -0.07175314 1.8055841
000030 96 fb 83 3d 44 59 c2 bf 53 7a c4 bf 8a 89 75 3f
       0.064444706 -1.5183492 -1.534983 0.9591299
000040 ed 13 da 3e 2e f1 72 3c 90 0d f1 bc 0d f7 9d 3e
       0.42593327 0.0148280095 -0.029425412 0.30852547
000050 f7 12 e1 3e b1 df 66 3d 32 76 da be 7b da 85 3e
       0.43959782 0.056365672 -0.426683 0.2614325
000060 7b b5 88 3d f2 84 5c be a9 17 21 3f e2 6d 49 3d
       0.0667524 -0.2153509 0.6292673 0.049177058
000070 1d 00 14 40 ac 20 ec c0 7b 3e 19 bf 05 7b 80 bd
       2.312507 -7.3789883 -0.5986096 -0.06273464
000080 e4 b2 a6 bf 2a 6e 48 bf 62 d8 a4 3e 1f 4d 46 bf
       -1.3023343 -0.78293097 0.32196337 -0.7746143
000090 6b 63 2d 3f a6 c4 43 3e 1e 48 b9 be 70 87 7b bf
       0.67729825 0.19117984 -0.36187834 -0.98253536
0000a0 16 49 e3 be 22 5d 1b 3e 9a 84 1d be 3e 23 20 bf
       -0.44391698 0.15172246 -0.15382615 -0.62553775
0000b0 28 88 f9 bf b1 47 8e c0 a4 2b ff 3e ec 9a db 3e
       -1.9494677 -4.4462514 0.49837983 0.42891634
0000c0 50 e2 cd 3f 0d 9f 27 bf 18 44 ab 3e 6e c0 8d be
       1.608469 -0.6547707 0.3345039 -0.27685875
0000d0 06 d3 9f 3e b0 ad ed 3d b4 f5 39 3d 8b 14 e7 be
       0.31215686 0.11605394 0.045400336 -0.4513286
0000e0 fc 26 0e bf ba 58 54 3f 5a 5e 0b bf 7b 7f 3e 3d
       -0.55528235 0.82947886 -0.54440844 0.046508294
0000f0 f3 1a 55 c0 98 32 75 3f 06 6f 6c bf 3d b9 04 bf
       -3.3297698 0.95780325 -0.9235691 -0.5184515
000100 84 d9 94 be 8f 60 11 3e db de d7 be a1 d9 df be
       -0.290722 0.1419699 -0.42162213 -0.43720725
000110 58 a8 1b be 70 bf 90 3f 75 93 94 be 6b ca bb bf
       -0.15200937 1.1308422 -0.2901875 -1.4671148
000120 61 31 16 3f b1 22 61 bd 19 90 22 bf 06 ee 5f 3f
       0.58669096 -0.054964725 -0.63501126 0.8747257
000130 9a a3 b8 3e 5e 62 8d c0 71 01 a7 3e 3a d7 0f bf
       0.36062318 -4.4182577 0.32618287 -0.56187785
000140 86 1f e3 3e b9 f2 15 3f 14 9d 6b bf dd 85 a1 3e
       0.44359988 0.5857349 -0.9203656 0.31547442
000150 87 7c 80 bf ff dc 6e 3e 32 87 aa 3d ea d4 11 3c
       -1.0038003 0.23326491 0.08326568 0.00890086
000160 b8 27 a6 bf 0d d3 60 3f b4 8b 14 bf b1 7c c2 3f
       -1.2980871 0.8782204 -0.5802567 1.5194303
000170 1a e0 51 c0 00 e5 95 40 f2 1c 8b 3c 0e bc 96 bf
       -3.279303 4.684204 0.016981576 -1.177614
000180 c9 52 98 be 10 34 ae bd 1d 52 05 3d 4c cc 92 be
       -0.2975066 -0.08506024 0.032549012 -0.2867149
000190 11 e7 42 bf 10 09 c5 3d e4 18 4a 3f ae a5 c4 be
       -0.7613383 0.09620869 0.7894423 -0.38407654
0001a0 c9 34 27 3f 92 56 52 3f 53 76 d1 3e 5b eb ff be
       0.6531492 0.82163346 0.40910587 -0.4998425
0001b0 09 80 08 be d1 4a c7 3f 14 67 21 bf 54 53 5d 3f
       -0.13330092 1.5569707 -0.6304791 0.86455274
0001c0 0d b0 95 bf f4 7a c7 bf a6 ac d1 be 52 57 38 bf
       -1.1694351 -1.5584397 -0.40952033 -0.7200824
0001d0 b6 92 12 bf 0f 79 30 be 49 79 63 3e 64 16 16 bf
       -0.57255113 -0.1723368 0.22214235 -0.58627915
0001e0 9c 62 cb 3d 5d 04 c7 3f 68 d2 bb 3f fd f6 ff 3f
       0.099309176 1.5548207 1.4673586 1.999725
0001f0 3d 3b f4 bf 36 e9 07 c0 e3 b1 a9 3d 5d ee 87 3c
       -1.9080578 -2.123609 0.08285882 0.016593153
000200 3b b4 e5 be b1 d9 2a 3c e9 84 1e be 4d 6a 96 be
       -0.44864067 0.010427878 -0.15480389 -0.29377976
000210 37 66 78 be 76 b0 65 be 82 ca 35 3e 7c 96 0c bd
       -0.24257742 -0.22430596 0.17753032 -0.0343232
000220 6b e9 08 bf 8d 40 b3 3e b0 6d c7 3f 54 5e 0b 40
       -0.5348117 0.35010186 1.5580349 2.1776323
000230 4b 11 d8 40 65 ae ac 3f 4b 4b ac 3e 19 16 c3 3e
       6.752111 1.3490721 0.33651194 0.38102797
000240 0a e6 eb 3e ce d6 d6 bb c5 c3 ba 3e 23 3a 86 be
       0.46073943 -0.0065563684 0.36477485 -0.2621623
000250 3a e6 4f 3e d7 9f 78 bf 53 b0 64 3e 97 24 22 3f
       0.20302668 -0.97118896 0.22332887 0.6333708
000260 aa 60 c8 be b5 fe 11 3f c2 a0 90 3e d8 e4 5a 3f
       -0.3913625 0.5702928 0.28247648 0.8550544
000270 9a 2e b8 c0 96 b6 24 40 c3 e5 d2 bd b6 b3 91 bd
       -5.7556887 2.5736442 -0.1029773 -0.07114355
000280 33 ba b1 3e 7c 37 95 bc 72 a8 11 3e 5c 81 96 be
       0.3471237 -0.018214934 0.14224413 -0.29395568
000290 fb 8d 33 3e 7c ff dd be 50 78 77 bd a8 01 a1 3d
       0.1753463 -0.43358982 -0.060417473 0.07861644
0002a0 f7 5f e0 3f de e7 5d 3f c8 33 35 c0 27 10 1e 3e
       1.7529286 0.86681926 -2.8312855 0.15435849
0002b0 04 34 3b c0 7e ad 54 c0 53 95 ab 3f 00 fb 33 3f
       -2.9250498 -3.3230891 1.3404945 0.7030487
0002c0 11 89 3a be 0e 61 9e be fc 90 f7 3c 73 9b 10 3e
       -0.18216349 -0.30933422 0.030220501 0.14121799
0002d0 d1 0a b7 3e 99 55 16 be 1a ab a3 be 77 28 7b 3e
       0.3575044 -0.1468109 -0.31966478 0.24527155
0002e0 42 c5 04 40 5b 6c c6 3f 13 e5 62 3f 20 fb 12 3f
       2.0745397 1.5501817 0.8863079 0.57414436
0002f0 cf c1 2a c0 e0 46 5e bf 82 f6 6c bf 32 ec de 3d
       -2.6680791 -0.86826897 -0.9256364 0.108848944
000300 23 a3 c1 3e 03 1a 1a bf 39 1a 4e be 86 ff a5 bc
       0.37819776 -0.6019594 -0.2012719 -0.020263445
000310 e5 b1 17 3e 37 f5 39 3f 44 35 c6 be f7 18 28 bf
       0.14813955 0.72639793 -0.38712513 -0.65663093
000320 60 3d 88 3f b5 db 62 bf 36 2d 69 3f c1 dd 73 bf
       1.064373 -0.88616496 0.9108461 -0.95260245
000330 84 b6 cc 40 d1 45 35 c0 df b3 8e bf 8b e8 e0 3e
       6.3972797 -2.8323863 -1.1148642 0.43927416
000340 64 95 85 3f 38 a9 43 bf ce 30 fc be a8 7f 89 be
       1.0436215 -0.7643008 -0.49255985 -0.26855206
000350 0b 78 54 3d bc 07 00 bf 32 4a 11 bf 17 67 78 3e
       0.051872294 -0.500118 -0.5675384 0.24258076
000360 10 43 a5 be 4a b7 4a 3d 5c 5c 8c bd f7 b4 2d 3f
       -0.32277727 0.049491204 -0.06853554 0.67854255
000370 ab eb dc 40 44 98 34 c0 df 1a c9 3e ad 35 9d bf
       6.903768 -2.8217936 0.39278314 -1.2282006
000380 c0 7a 7b 3f ed 54 32 3f 0a 1f 90 bd ff 7f 62 3f
       0.98234177 0.69660836 -0.0703717 0.88476557
000390 d4 60 dc 3e ab d9 fa 3d 1a be 08 bf 9a e8 42 3f
       0.43042624 0.12248548 -0.5341507 0.7613617
0003a0 df c2 ba 3f 54 b8 25 bf 47 8b 2d 3f 8e 8a 37 bf
       1.459072 -0.6473439 0.67790645 -0.7169579
0003b0 29 24 05 40 2b 75 79 c0 1f 9c 87 3d 52 65 21 bf
       2.080332 -3.8977764 0.066215746 -0.6304523
0003c0 8f 15 0c bf b4 08 a3 be 1b 69 49 3f f6 69 21 3f
       -0.54720396 -0.31842577 0.78676003 0.6305231
0003d0 20 1a 86 3e e8 7f 8f 3e fc 9f 08 3f 23 80 93 3e
       0.26191807 0.28027272 0.53369117 0.28808698
0003e0 ed 6b 16 3f 24 dd 36 3f be 38 18 bf 6e ff e4 3e
       0.5875843 0.71431184 -0.5946158 0.44726127
0003f0 04 7c 8f bf c8 29 06 41 6a ca c5 3e 94 f3 c3 bd
       -1.1209722 8.3852005 0.38630992 -0.09567943

fc1.bias f4 [64]
000000 0a 5d 84 bc b1 96 ca 3f 39 fd 98 3f c1 a2 b9 be
       -0.016157646 1.5827237 1.1952277 -0.36256984
000010 ec 43 34 bf 95 43 5e 3f 6a a4 9e 3f 06 ac 83 be
       -0.7041614 0.8682187 1.2393925 -0.2571718
000020 88 e4 2c be 92 86 16 3e 5e 1b 7e 3e 69 28 b5 be
       -0.16884053 0.14699772 0.24815127 -0.35382393
000030 fb 28 8b 3f ca 70 af 3f 52 81 06 3f 8e ba 2b 3f
       1.0871881 1.3706295 0.5254108 0.67081535
000040 2a 2d bb 3f d8 49 b2 3f c3 28 88 3f 74 ec 99 3e
       1.4623158 1.3928785 1.063744 0.30063212
000050 c3 a1 30 3f 8c c9 6b 3f 8f ab 35 3f 90 77 26 3f
       0.6899683 0.9210441 0.709649 0.6502619
000060 40 36 14 3f 7b 39 f2 3f e7 87 07 bf 89 6c 77 3f
       0.5789528 1.8923792 -0.52941746 0.96649987
000070 c1 3c 4b 3f 45 b8 b5 3f f4 02 e0 3f e5 43 7a bf
       0.7938958 1.419686 1.7500901 -0.9775985
000080 61 49 a9 3f f2 e3 b5 3f fe 1d 9e 3f fd 60 3e 3f
       1.3225518 1.4210188 1.2352903 0.7436674
000090 89 da 38 3f ec 8a b2 3f 84 c4 57 3f 20 52 42 3f
       0.7220846 1.3948646 0.84284234 0.7590656
0000a0 89 c2 84 be 25 4c dd bd 81 23 b3 3f 28 e2 cc 3e
       -0.2592967 -0.10805539 1.399521 0.40016294
0000b0 35 a9 82 bf 1e 07 ba be 09 2a 2c 3f 46 4b 07 bf
       -1.0207888 -0.36333555 0.6725164 -0.52849233
0000c0 b2 20 ca 3f 3d 2e 91 3e 09 14 80 3f d6 5c e4 bc
       1.5791228 0.2835559 1.0006114 -0.027876299
0000d0 f0 2d 42 3f ed b1 d4 3e 11 78 4f 3f a2 1f 89 3e
       0.75851345 0.41541997 0.8104258 0.26781946
0000e0 3d 81 8d 3f f1 b6 f7 3e 72 55 79 bc d1 21 a1 bf
       1.1055065 0.4838176 -0.015218126 -1.2588445
0000f0 d5 bf fd 3e dd 50 11 3f 4f 74 17 3f 50 06 84 3f
       0.4956042 0.5676401 0.5916185 1.0314426

fc2.weight f4 [64, 64]
000000 49 5b ff 3e cd 00 76 3f b2 91 f1 3e ce ef ef be
       0.49874333 0.9609497 0.4718147 -0.46862644
000010 96 70 28 3f fe e2 1f bf e1 62 9a 3f ee 84 e0 be
       0.6579679 -0.6245574 1.2061425 -0.43851417
000020 c6 fd f5 be 09 7f be be 6a 9e b8 3e c2 56 d0 3e
       -0.48045176 -0.37206295 0.3605836 0.4069119
000030 14 66 68 3f 5b 57 92 3e 9f 04 3e 3e 0e 5e 6a bf
       0.9078076 0.28582272 0.1855645 -0.91549766
000040 a3 82 4c 3f 0d e8 0c 3f 83 d4 0a bf dd 5b cd 3d
       0.79886836 0.5504158 -0.5423052 0.10027287
000050 26 a3 5c be ac 24 c2 be 3d cd c3 bd 16 d9 85 bf
       -0.21546611 -0.37918603 -0.095606305 -1.0456874
000060 49 e1 79 bf 8b 32 24 bd 34 f9 09 3f 4a 1e 8f 3f
       -0.9760938 -0.040087264 0.5389588 1.1181118
000070 06 d3 28 be a1 34 88 3c c1 d0 ec 3e 6a 9a ec be
       -0.16486749 0.016626658 0.46253017 -0.4621156
000080 d8 fc 06 3f 53 e7 a2 be 77 df 19 3f 9a a7 c1 be
       0.5272956 -0.3181711 0.60106605 -0.37823182
000090 c0 72 0a be 08 24 5e 3e 56 21 11 3f 32 0a 18 3f
       -0.13520336 0.21693432 0.5669149 0.59390557
0000a0 85 a0 59 be 10 80 b5 3e b9 6c be 3d de e4 9c 3e
       -0.2125264 0.35449266 0.09298081 0.30643362
0000b0 5b d1 03 bf ca 34 97 be 49 84 89 be 32 e5 2d 3e
       -0.51491326 -0.29532462 -0.26858738 0.16981962
0000c0 d7 7a cf be ac d0 0c 3f 09 4c d0 bd d2 d7 07 3d
       -0.40523407 0.5500591 -0.101707526 0.033164807
0000d0 e6 a0 cf 3e 75 74 17 3e 28 26 b8 be 80 d8 3b bf
       0.40552443 0.14790519 -0.3596661 -0.7337723
0000e0 fc 56 39 3f e6 18 e0 3c 71 e2 a2 be 56 a0 c6 be
       0.7239835 0.027355623 -0.31813386 -0.38794202
0000f0 52 dd 6b 3e 48 78 38 be b0 e0 d9 3d 7b 48 98 3d
       0.23033646 -0.18014634 0.10638559 0.074356996
000100 c0 1c fa bf 05 67 3c 3f 1e ef fd be 67 83 85 be
       -1.9540024 0.73594695 -0.49596494 -0.26076815
000110 93 2b 7a be c0 56 8b bf 90 8c f4 bd ac 10 04 bf
       -0.24430685 -1.0885849 -0.11940873 -0.5158794
000120 a2 31 69 be a2 e1 5e bf 07 9a 63 3f 51 6a 2a 3f
       -0.2277284 -0.8706304 0.889069 0.66568476
000130 34 33 f8 be b7 24 b1 3d bf a5 06 bd 02 ca 11 3e
       -0.48476565 0.08649581 -0.03287291 0.14237216
000140 28 aa 84 3e 65 6d 24 bf 06 c1 69 3f 5c 20 76 3e
       0.2591107 -0.6422942 0.91310155 0.24035782
000150 07 24 59 3f b2 a8 8d 3e b3 ce 27 3e 35 02 6c be
       0.848206 0.27667767 0.16387443 -0.23047717
000160 19 bc 4b ba e9 5c d9 be 05 cc 74 bf 66 12 ca 3e
       -0.0007771864 -0.42453697 -0.9562381 0.39467162
000170 d5 8a bb be 93 75 b8 3d 6d dc 47 be e9 36 92 bf
       -0.36629358 0.090068005 -0.1951768 -1.1423007
000180 92 b9 f1 3e 19 7d c0 bd e6 8a ed 3e 8f 40 53 3d
       0.4721189 -0.093988605 0.46395034 0.05157524
000190 67 c8 b2 3d 06 6d eb 3e 3c 82 d3 bd 6f 84 7b bf
       0.0872963 0.45981616 -0.103275746 -0.9824895
0001a0 2a 9a 1c 3e 5a 3e fb be ec c5 18 3f bc e2 b4 be
       0.15293184 -0.49071008 0.59677005 -0.35329235
0001b0 1d e0 93 3c ce e7 27 bf 3b 50 12 3f 9b 99 a4 bd
       0.018051201 -0.6558808 0.5715367 -0.080371104
0001c0 44 16 b2 bf a4 1a 8b 3e 86 bb 82 bf 08 aa 09 3e
       -1.3913045 0.27168763 -1.0213478 0.13443768
0001d0 3c af 89 be 06 58 b5 be 82 10 e8 be c6 16 9e be
       -0.26891506 -0.3541872 -0.45325094 -0.3087675
0001e0 2d fd 3a 3f 4a f2 1c 3f 96 d2 ce bd d1 ad 01 be
       0.73042566 0.61307204 -0.1009876 -0.12663962
0001f0 c2 87 82 be ec c3 ad 3e 03 2f fa 3e ef 35 9f 3e
       -0.254942 0.3393854 0.48863992 0.31095836
000200 88 dc 23 3f 73 3b 00 bf 15 5d 8a 3d 09 a4 1a be
       0.6400838 -0.5009071 0.06756035 -0.15101637
000210 be b5 c8 3e 17 6e e5 3d f4 2f de 3e a1 7b db 3e
       0.39201158 0.112026386 0.4339596 0.4286776
000220 59 33 af 3e 43 ca 90 bf 39 1a a9 3e 25 6a 48 be
       0.34218863 -1.1311725 0.3302782 -0.19571741
000230 93 4d 5f 3d c3 01 fd 3e 48 99 2b bd 44 7e 92 3f
       0.05451734 0.49415407 -0.041894227 1.1444783
000240 30 e5 8b be d1 c2 bd 3e 68 35 b7 3e cf 3e c9 3d
       -0.27323294 0.37062696 0.35782933 0.09826433
000250 d8 cb 2a bf b9 1e 2a bf 29 ce 04 3f 50 17 0f 3f
       -0.6671729 -0.6645313 0.51877075 0.5589495
000260 5a d9 d7 3e 55 a8 70 3f 84 2e 34 bf 6c 6d 99 be
       0.42158014 0.94006854 -0.7038348 -0.29966295
000270 f9 1a 41 bf 56 39 ad bf 3b 98 9b 3e 05 6e b3 3e
       -0.7543178 -1.3533123 0.3038958 0.35044876
000280 df 98 97 3f ee 3e 8d 3f af 65 1a be 64 de c2 3e
       1.1843528 1.103483 -0.15077852 0.38060296
000290 aa ac 61 be 02 b6 36 3f ac 5e 5e be 88 fe 44 be
       -0.22038522 0.7137147 -0.21715802 -0.19237721
0002a0 50 42 d5 3d 5e 16 8b be cf 13 d8 bc bb 18 f0 bc
       0.10413039 -0.27165502 -0.026376633 -0.029308667
0002b0 be 9e 0f 3f 3c 2a 81 3e 1c b9 45 3e da b1 48 bf
       0.56101596 0.25227535 0.19308895 -0.7839638
0002c0 12 d7 b2 be 22 c8 56 3e 44 af 47 ba 54 f2 3d 3f
       -0.3492971 0.20974782 -0.0007617364 0.7419789
0002d0 ff 3d 4a 3d 84 f9 c3 bd 4a c9 90 be 7f c0 01 bf
       0.04937553 -0.09569076 -0.2827857 -0.5068435
0002e0 db 6a b8 3e dd 31 df 3e 5d 76 5b 3f 4f 09 15 3e
       0.36019024 0.4359273 0.85727483 0.14554332
0002f0 a8 03 83 3e 33 30 cb 3e 3f d9 98 3d bc 9f 57 3d
       0.25588727 0.3968521 0.074633114 0.05264257
000300 57 44 ba bf ae 71 49 3f 6a 23 10 3e 12 aa ef be
       -1.4552106 0.78689086 0.1407601 -0.4680944
000310 87 2d 59 3e eb ab f1 be c2 ee 51 bd 18 1d b8 3e
       0.21208774 -0.47201476 -0.051253088 0.35959697
000320 6c 81 00 bf 02 e9 4f be ca 1f 5a 3e 17 12 4a 3f
       -0.5019748 -0.20303729 0.21301189 0.7893385
000330 9d c7 0d 3f 7b 58 03 3e b6 fa 31 3f 9b f7 d3 be
       0.5538271 0.12826721 0.6952318 -0.41399845
000340 97 a5 14 bf 89 53 4a 3f 7f c8 5e 3f 51 8d 9f be
       -0.5806517 0.79033715 0.8702468 -0.31162503
000350 aa d3 b4 ba 0e 3c 4c 3f c3 91 44 be 84 fa 36 3f
       -0.0013795991 0.79779136 -0.19196229 0.71476007
000360 5a 4a 1e bf 54 81 26 bf 6b 4b 56 3e 73 78 14 3f
       -0.618322 -0.6504109 0.20927207 0.5799629
000370 ff 3d 3f be e2 7c 6f bd 8e 82 03 3f 97 d0 ee be
       -0.18675993 -0.058468707 0.51371086 -0.46643516
000380 39 b5 ff 3e 11 78 42 3e 15 5a 10 bf 8c f6 99 3e
       0.4994295 0.18991114 -0.56387454 0.30070913
000390 bc 13 af bf 5b e9 93 3f 92 3c ca be 65 c7 64 bf
       -1.3677897 1.155559 -0.39499336 -0.8936675
0003a0 08 84 95 3d 2d 83 37 3f d1 fe 79 3d 01 36 e6 be
       0.073005736 0.71684533 0.061034027 -0.44963077
0003b0 ab c6 78 bd 79 93 cf be f9 29 cb bd af 7f 58 bf
       -0.06073634 -0.405422 -0.09920115 -0.8456983
0003c0 2d 5f 73 bf 04 5c b1 3f f1 57 14 3f 50 7b 3d 3f
       -0.950671 1.3856206 0.5794669 0.74016285
0003d0 82 d0 3e bf fc c3 19 3f f2 7a f0 3d f7 18 f8 be
       -0.7453691 0.60064673 0.117422 -0.48456547
0003e0 30 3b a5 3f bd ba 8d 3d 37 f1 17 bd 3f 1d 2b 3e
       1.2908688 0.06920383 -0.037095275 0.16710375
0003f0 54 49 b0 bf 36 e5 05 3f 94 45 0b 3f c6 c4 be 3e
       -1.3772378 0.52302873 0.5440304 0.372595

fc2.bias f4 [64]
000000 3d f9 53 3f 1e 12 b7 3d 18 ca a3 3e 8a 4d fc 3e
       0.8280218 0.089390025 0.31990123 0.49277908
000010 e3 bf 48 3e 44 0b 8b bf 27 99 12 bf 63 7c c0 3e
       0.19604449 -1.0862813 -0.5726494 0.375949
000020 d4 88 30 3f 42 85 02 bc 80 10 37 be b6 60 8f 3e
       0.68958783 -0.007966341 -0.17877388 0.28003472
000030 f3 bb c6 3e 22 d1 a1 bd 69 89 99 be 45 8b 3b 3f
       0.3881527 -0.07901217 -0.29987648 0.73259383
000040 bc 97 4e 3c 6b 1a 4f bf 18 a7 15 bf c2 c9 85 be
       0.0126094185 -0.80899686 -0.5845809 -0.26130491
000050 5e 2e f7 3d 3a 69 57 bf 8e 45 19 3d 52 77 9a be
       0.12069391 -0.8414494 0.03741985 -0.3016916
000060 d8 e6 10 3f b5 62 97 be 5d db 3c be 4e a6 2c bf
       0.5660224 -0.29567495 -0.18443055 -0.6744126
000070 b7 4d 22 bf 1e 3a 9e 3e 60 6f 55 bf a5 69 4d be
       -0.63399833 0.30903715 -0.8337307 -0.20059831
000080 3e 40 5b 3e aa 4a e3 3e 59 50 03 3f 17 45 b3 be
       0.21411225 0.44392902 0.51294476 -0.3501365
000090 df a6 c6 bd 7f 34 11 3f c2 ba 88 bf 36 94 d1 3e
       -0.09699797 0.5672073 -1.0681994 0.40933388
0000a0 a0 16 c6 3e 80 10 6d 3f 8b b1 e1 bc e5 54 8c 3e
       0.38689137 0.926033 -0.02755048 0.2740852
0000b0 49 ca c6 bb d9 e2 ae be 19 dd ba be 3a e6 84 be
       -0.0060665947 -0.34157446 -0.3649681 -0.259569
0000c0 c2 ce f8 3c 7f b2 37 be 57 9a e5 bc fe ea 36 bf
       0.030372027 -0.17939185 -0.028027697 -0.7145232
0000d0 35 f0 57 be 1b 5b 33 3e 01 31 86 be 8c 7d 50 3f
       -0.21087725 0.17515223 -0.26209262 0.8144157
0000e0 cc 2d 19 3c fa 38 73 be 1b 04 16 3f d5 84 11 be
       0.009349298 -0.23752204 0.58600014 -0.14210828
0000f0 0c e3 1e 3f a5 97 72 3e 4c ed ac be fa f2 75 3e
       0.62065196 0.2369066 -0.33774793 0.2401847

fc3.weight f4 [64, 64]
000000 78 a1 63 3f c7 c8 59 3e ae f8 af 3e 54 2f 07 bf
       0.88918257 0.21267997 0.34369415 -0.5280659
000010 07 6e 08 40 f9 26 9c bf ab ba f6 bf 74 29 13 bf
       2.1317155 -1.2199394 -1.9275717 -0.5748513
000020 dc 5b a5 3f 8b f2 09 3f e3 82 ec 3e b4 9f 7d bf
       1.2918658 0.53885716 0.4619361 -0.9907181
000030 ec 13 c0 39 07 70 c1 3e 76 2f 63 3f 50 f2 ca 3e
       0.00036635937 0.37780783 0.88744295 0.39637995
000040 d7 eb f5 3e 55 1e ba bc 34 08 26 bf c5 95 9f be
       0.48031494 -0.022719542 -0.64856267 -0.31168953
000050 02 21 f6 3e 34 00 12 bf 96 45 1f 3e 30 41 55 3f
       0.48072058 -0.5703156 0.15553889 0.83302593
000060 56 19 41 3e 86 e3 8e bf d3 a9 4d 3e f0 a0 b7 3e
       0.18857321 -1.1163185 0.20084314 0.35864973
000070 ca 03 ab bf 6a c1 89 be 60 0a 37 be fe 90 b3 bf
       -1.3360531 -0.26905376 -0.17875051 -1.4028623
000080 14 19 6b 3e 33 0e 23 bf c2 17 8a be 38 e6 0c bd
       0.22958785 -0.6369354 -0.2697125 -0.03439924
000090 5d d3 b4 bf 15 9b 3f 3e 3b 60 12 3e 9d 2b c1 3e
       -1.4127003 0.18711503 0.14294522 0.37728587
0000a0 32 2c bf 3e 71 5c 05 3f c5 18 ef bd e9 f3 63 bf
       0.37338406 0.5209418 -0.11674646 -0.8904405
0000b0 2b e7 f9 bb cc 09 b2 be 91 50 b6 be 8f eb 93 bf
       -0.0076264343 -0.347731 -0.35608342 -1.1556262
0000c0 6f c6 e8 3e 67 cb a9 3e 9a 1e 05 3f 30 fc c0 be
       0.45463893 0.33162996 0.5199982 -0.37692404
0000d0 e6 dd 97 3e 99 97 1c 3e 7d ba 21 bf 2a ad 17 bd
       0.29661483 0.15292205 -0.63175184 -0.037030376
0000e0 7e 98 71 bf 0a c9 48 be 8c cb 31 be 40 84 ae bc
       -0.9437331 -0.1960794 -0.17362803 -0.021303296
0000f0 c5 8b fb be b6 de 64 3f 32 74 3b 3d 0c 68 a2 3f
       -0.49130073 0.8940233 0.04576511 1.2688003
000100 29 fd a2 bd c3 43 69 3c 0b 2c 02 3c dd c9 1a be
       -0.07958443 0.014237347 0.007945071 -0.15116067
000110 8c 8c 3f 3c ce 8a 02 be f0 44 c3 bc c7 d1 25 be
       0.011691224 -0.12748262 -0.023836583 -0.16193305
000120 f6 e2 19 be 17 3b 89 bd 9c 97 1f bd fc 8f 7d bd
       -0.15027985 -0.067007236 -0.038962945 -0.061904892
000130 e7 6f ff bd ef ae c2 bc 4e 6b 86 bc 54 ec fc bc
       -0.124725156 -0.023765055 -0.016408589 -0.030874409
000140 d6 79 ea ba d6 21 9d bd 8c ee f7 bc e6 9f 01 be
       -0.0017889093 -0.07672469 -0.030265115 -0.12658653
000150 ee 9b 39 bd dd 69 0b be 37 7a e7 bd 8e 2a fa bd
       -0.04531472 -0.13614602 -0.113026075 -0.12215148
000160 13 ae b1 bd bf f0 f6 bd f0 3b 77 bc e5 76 17 bd
       -0.0867578 -0.120576374 -0.015089974 -0.03697862
000170 2e 40 c4 bd c4 d1 30 be 74 f4 69 3c 8d f8 d4 bd
       -0.09582554 -0.17267519 0.014279474 -0.1039897
000180 f9 a1 33 3d ea a2 fd bd a1 db 3e be d7 7c 5e bd
       0.04385564 -0.12384589 -0.1863847 -0.054318275
000190 a1 c4 9e bd 3f fc 8c bd c1 89 31 bd f3 97 36 3c
       -0.07752348 -0.068840496 -0.043344263 0.011144626
0001a0 58 d1 33 be 3b 0c f1 bc 4e d9 b9 bd 08 73 15 be
       -0.17560327 -0.029424777 -0.09074651 -0.14594662
0001b0 5d 8f 9a bb 80 a3 30 3d fc b0 a7 bd 3e 4a 87 bd
       -0.0047167973 0.043124676 -0.08188054 -0.066059574
0001c0 03 5a 7d 3d 6a d1 c2 3d a8 82 79 3d fd 74 98 bd
       0.06185342 0.09512599 0.06091562 -0.07444189
0001d0 16 67 0c bd 03 34 cf bd 9d b9 f6 3c b3 ef 1b 3b
       -0.034277998 -0.10117342 0.030117804 0.0023793995
0001e0 58 be f3 bd 69 6c 7e 3c 1d 2c 25 bd e5 0d d2 3b
       -0.119015396 0.015528777 -0.040325273 0.0064103478
0001f0 3f fe f1 3c 05 02 70 bd 3f 76 23 be 91 b3 7b bc
       0.02954018 -0.058595676 -0.15963076 -0.015362636
000200 4b 0f 7a be 69 b0 82 3f 41 95 15 3f b3 5e de 3e
       -0.24419896 1.0210086 0.5843087 0.43431625
000210 1d 39 fc bd 14 73 85 bf df 53 aa be 24 21 77 3e
       -0.12315581 -1.0425744 -0.33267114 0.24133736
000220 07 df ef be 38 c3 ce 3f 51 28 eb bd 75 dc 69 3e
       -0.46849844 1.6153326 -0.11482299 0.22838004
000230 cb ea b4 3e b5 9b 4c 3f 01 f2 14 3e 22 45 d1 3e
       0.35335383 0.7992509 0.14545442 0.40873057
000240 67 b3 48 3f 84 80 a8 3d 6c 1d 5a bf 0b 62 13 3f
       0.78398746 0.082276374 -0.85201144 0.57571477
000250 54 e4 8b 3f 5c 28 89 3e 7b 4f a7 be ac 50 a2 3f
       1.0929055 0.26788604 -0.32677826 1.2680869
000260 6d 93 79 bf c2 41 64 bf d6 96 e3 bc 8e 9c 46 bf
       -0.9749058 -0.8916284 -0.027781885 -0.77582633
000270 03 d3 98 bf ec ce b5 3c 0b 30 60 bf 06 95 e0 be
       -1.1939396 0.022193395 -0.8757331 -0.43863696
000280 b8 1a e4 be 86 f6 c5 be f3 20 13 bf eb 34 d1 be
       -0.44551635 -0.38664645 -0.5747215 -0.40860686
000290 7a a2 46 bf 9b 3e f3 3e 17 c5 b9 be 5c 5f be 3e
       -0.7759167 0.47508702 -0.3628318 0.37182128
0002a0 9b 8d d0 3e e5 6a 94 3e ce ff d4 bf 34 89 4e bf
       0.40733036 0.28987804 -1.6640565 -0.80678105
0002b0 24 64 9e be a2 42 cc 3e df 34 1d bf f9 d0 08 3e
       -0.30935776 0.39894587 -0.614088 0.13360967
0002c0 57 e9 7d be 90 0f 0c bf af 19 13 3c 69 7c 85 bf
       -0.24796043 -0.54711246 0.008978291 -1.0428592
0002d0 f9 6d 87 bf ea 86 7d 3f 76 5d c4 3e 90 1c ba bf
       -1.0580436 0.9903399 0.38352555 -1.4539967
0002e0 9f 6b 18 bf 28 41 75 bf 0a e1 ca bd 6e 46 3b bf
       -0.59539217 -0.95802546 -0.09906204 -0.7315434
0002f0 79 bd c6 bd 4c b9 ee 3e 4b aa 63 3f e9 53 03 bf
       -0.09704108 0.46625745 0.8893172 -0.5129991
000300 27 28 0f 3f ea f8 63 3f 70 44 35 bf 6d 68 8e 3f
       0.5592064 0.8905169 -0.7080755 1.1125618
000310 c3 1e 9f bf 6e 2a 69 3e d8 0a e4 3e e0 2a 1c 3e
       -1.2431263 0.22770092 0.44539523 0.1525073
000320 3c bb 21 3d 59 1b c6 bf 4b 6e 87 bd e7 cb 57 bf
       0.0394852 -1.5477096 -0.066128336 -0.84295505
000330 63 4e 36 3f 9f 99 62 bf 27 91 a0 3e 99 a9 82 3e
       0.7121336 -0.8851566 0.31360742 0.25520018
000340 c0 d3 bb bf fc d0 b6 bf fb 44 b8 be c9 01 c4 bf
       -1.4673996 -1.4282527 -0.35990128 -1.5313045
000350 f6 16 fe 3e c4 1f 05 be 44 37 fd be b3 e1 df 3e
       0.49626893 -0.13000399 -0.49456227 0.43726882
000360 dd ff e6 be 2d 73 00 bc de 8b 27 c0 eb 69 8b 3f
       -0.45117083 -0.00783996 -2.6179118 1.0891699
000370 8e 9d 87 be dd 38 9c bf 9a ac 8b bf c8 7a 01 3f
       -0.26487392 -1.2204853 -1.0912049 0.50577974
000380 61 ed c0 bf 18 6d d5 bf c4 8d 03 3f ac 4f 0d bf
       -1.5072442 -1.6673918 0.5138819 -0.55199695
000390 8a 19 2a 3f b4 a5 8f 3d 0c dd 48 3f 4f 6b d2 3e
       0.6644522 0.07014027 0.7846229 0.41097495
0003a0 5a 9f 96 3f 48 b9 37 3f 97 2d 2c bf 8e 5b 41 be
       1.176738 0.7176709 -0.67257065 -0.18882582
0003b0 f2 7e 85 3e 27 df 13 bf 86 e5 ed bd d3 4f 76 3d
       0.26073414 -0.5776238 -0.11616044 0.06013472
0003c0 4c 32 d6 bf 89 77 e4 be 01 f7 60 3c e7 5f 55 3e
       -1.6734099 -0.44622448 0.013730765 0.20837365
0003d0 25 98 72 3f 77 54 1f 3e e3 cb ad bc 9d a2 a2 be
       0.94763404 0.15559565 -0.021215385 -0.3176469
0003e0 84 bc 84 bf 10 0e 10 bf 84 0f 73 3d b3 05 64 3f
       -1.037003 -0.5627146 0.05934097 0.89071196
0003f0 03 03 b6 3e 15 13 9b be 10 bf e7 3e 4d de 1f bf
       0.35549173 -0.30287996 0.45262957 -0.6244858

fc3.bias f4 [64]
000000 8a 54 ff 3d 8a 03 55 be c4 79 b1 bd 4a 8b 5a bf
       0.124672964 -0.20802131 -0.08665803 -0.8536879
000010 d1 ea d4 3e 38 d1 01 bf 0d 7d ee 3d 2c 6c f1 bd
       0.415854 -0.5070987 0.11644945 -0.1178821
000020 4f c1 d0 bd e1 a6 e7 3e 55 a6 7f bd ce 56 f6 3e
       -0.10193121 0.45244506 -0.062414486 0.48113102
000030 8c e7 9a 3e 8b ec 87 3c a0 1c e2 3e f8 f4 cf 3c
       0.3025478 0.016592285 0.44162464 0.025385365
000040 85 39 5a 3e a7 02 91 be fd ca ff bb af 31 92 be
       0.21311004 -0.28322336 -0.0078061805 -0.2855353
000050 62 86 60 bd 7e 64 cf 3e 91 34 d5 bf d2 3f 0e 3f
       -0.054815657 0.40506357 -1.6656667 0.5556613
000060 b6 e6 a3 3e 41 0a c5 3e 51 c8 22 3f 84 da 3e bc
       0.32011956 0.38484386 0.6358691 -0.011648778
000070 38 f1 9f 3e 8a 79 bc 3e 6d 2d 25 3d 59 c0 83 bf
       0.31238723 0.36811477 0.040326525 -1.0293075
000080 12 58 cc be d9 1a 3b bf 9a 3f 58 bf 85 d3 d0 3e
       -0.39910942 -0.7308784 -0.8447205 0.40786377
000090 c3 94 7d be 2a 3f 24 bd 0a 5a 48 bd c7 e0 8b be
       -0.2476378 -0.0400993 -0.048913993 -0.2731993
0000a0 12 98 c5 bb b8 b9 10 bf a7 fb 11 bf 88 58 bb bf
       -0.006030091 -0.56533384 -0.57024616 -1.4636393
0000b0 39 09 c0 3e 9a c9 dc 3d 1c 86 a5 be b7 1f 37 bf
       0.37507036 0.1078064 -0.3232888 -0.7153277
0000c0 33 11 af be 6d 02 ae bf fd 4e ba 3d 9d b3 60 bf
       -0.3419281 -1.359449 0.09097097 -0.8777407
0000d0 8c 73 43 bf 02 6c 2d bf dd 19 27 3f c9 e3 2a be
       -0.76348186 -0.6774293 0.6527384 -0.16688456
0000e0 83 e1 62 bf 51 a3 25 bf da 47 5f be 0f 17 8b bf
       -0.88625354 -0.64702326 -0.21804753 -1.0866412
0000f0 40 09 74 3e dc ee f0 be 56 70 5a be 90 fc c1 3e
       0.23831654 -0.47057235 -0.21331915 0.37888002

action_out.weight f4 [5, 64]
000000 a6 bc 84 3e a5 a3 de 3d d3 d7 4d be de 46 29 bd
       0.25925177 0.108710565 -0.20101862 -0.04132735
000010 ae 9c 41 c0 1f 8d 2b 3f 71 f2 f8 3f e2 9f 0c be
       -3.025188 0.6701221 1.9448987 -0.13732865
000020 52 4b 1a 3f 54 51 1a bf 09 b3 b6 be 40 8e 6e 3e
       0.6027118 -0.60280347 -0.35683468 0.23296452
000030 ca 2f 4f bf f2 10 a9 be 2f 9f 75 bf ff 8c 62 be
       -0.80932295 -0.3302074 -0.9594602 -0.22124098
000040 a7 15 b9 3d a3 d4 27 40 70 69 4b 3f 1f 24 9f 3e
       0.09037333 2.6223533 0.7945776 0.31082246
000050 3f 5d e3 bd df d5 74 bf de d8 48 be 62 d7 05 bf
       -0.1110177 -0.9563884 -0.19613978 -0.52281773
000060 35 1d af be 8a fc 30 bf b5 f3 f8 bf 02 ad e8 3c
       -0.3420197 -0.69135344 -1.9449373 0.028402809
000070 5b cc f8 bf db 58 e4 3f 4d 78 a7 bf 42 a3 b3 3e
       -1.9437364 1.7839617 -1.3083588 0.35085493
000080 1d 35 cc 3d b0 dd dd bf 13 c5 a7 3f e4 a4 15 bf
       0.09971068 -1.7333279 1.3107017 -0.5845473
000090 64 9f 9e bf 4e 98 5f bf 1a 03 2f 3e 33 84 05 bf
       -1.2392392 -0.87341774 0.17091027 -0.52154845
0000a0 7b 3f 6b 3f ce 88 8e 3f 5c 91 95 3f 6f a5 6e 3f
       0.9189374 1.11355 1.1684985 0.9322118
0000b0 b2 d1 23 3f 08 36 81 bd ca 50 23 3f f9 ba 24 3f
       0.63991845 -0.06309134 0.6379515 0.643478
0000c0 c4 d7 fc 3d 29 de 2c 3f 5f c7 d4 3e ef b9 8f 3f
       0.123458415 0.6752649 0.41558358 1.1228617
0000d0 58 72 52 be 13 82 26 3f 6b 3c 4c 3f f1 45 e4 3e
       -0.20551431 0.6504223 0.7977969 0.4458461
0000e0 f9 eb 9a bf 6c 3a 8e be f3 50 3b bf bb c4 1b 3f
       -1.2103263 -0.27778947 -0.73170394 0.6084706
0000f0 59 de 80 bf 56 11 26 bd 8c 4f a7 bf 16 55 21 3e
       -1.0067855 -0.040543877 -1.3071151 0.15755114
000100 22 24 a1 bf e5 c1 49 bc e3 21 c2 3f 4e e9 82 3e
       -1.2589152 -0.012314294 1.5166591 0.25568622
000110 37 9e 04 bf 4d 37 a1 bf 61 88 8e be f6 04 66 3e
       -0.51803917 -1.2595001 -0.27838424 0.2246283
000120 7f 1b 01 bf 10 95 47 bf 21 a6 55 3e 8e 06 d4 bc
       -0.5043258 -0.77961826 0.20864154 -0.025882032
000130 d6 bb 8b bf 44 f2 00 3f 0a 9e 1e 3f 6e 85 96 3e
       -1.0916698 0.5036967 0.619599 0.29398674
000140 a1 63 10 bf 2f 26 a2 3e a1 63 d7 bf c6 55 cb 3f
       -0.5640202 0.31669757 -1.6827279 1.5885551
000150 ff 7a 2d 3d 7b f6 33 3e 7a b1 8f 3e 88 dc 27 3f
       0.042353626 0.17574494 0.2806509 0.6557088
000160 a8 88 35 be 96 87 42 bf 50 ad 29 3e f9 84 b5 bc
       -0.17727911 -0.7598814 0.1657002 -0.022158133
000170 05 d9 9a 3c 02 85 b6 3f 85 7b f4 be 81 46 80 bf
       0.018902311 1.4259341 -0.47750488 -1.0021516
000180 f5 cf e0 3e d0 a5 af bf 0b 8c 98 3e 33 e3 7c 3e
       0.4390866 -1.3722477 0.29794344 0.24696045
000190 ca e7 0b bf 01 23 af 3f 23 8c 7a 3e 55 17 4d 3f
       -0.5465056 1.3682557 0.2446752 0.80113727
0001a0 f1 ed 89 3f 57 c2 a9 bf 98 84 f8 3f 23 a6 85 bf
       1.0775739 -1.3262433 1.9415464 -1.0441326
0001b0 85 75 0d 3f 60 51 3b bf 54 c2 ce bf c3 65 0e c0
       0.55257446 -0.73171043 -1.6153054 -2.224961
0001c0 bd 31 7e 3e 3d d7 f2 3f 21 d4 af 3f ae cc 34 3e
       0.24823661 1.8971936 1.3736612 0.17656204
0001d0 b9 9f f0 bd 85 e6 ab be 6d 39 ec 3e 5f 21 27 3f
       -0.11749215 -0.3357431 0.46137562 0.65285295
0001e0 d2 f7 be 3f 23 f3 fd 3f 6d 15 82 3f 0e 19 b5 3f
       1.4919379 1.9839824 1.0162789 1.4148271
0001f0 a8 c3 31 bf dd d7 ca 3d 78 a5 21 3f 3d dd 00 3e
       -0.6943917 0.09904454 0.6314311 0.12584396
000200 2d 12 04 3f af a9 a8 3c ab ac ca bf 7f e6 83 3f
       0.51590234 0.020588724 -1.5833944 1.0304717
000210 7c df c3 bd 61 95 0a 3f d2 ef b4 bd 00 aa 4e bf
       -0.09564111 0.54134184 -0.088348046 -0.8072815
000220 6c fc 2e be ee 47 de 3e 56 cc e6 bd 03 29 d2 3f
       -0.17088479 0.43414253 -0.11269443 1.6418766
000230 a3 f2 88 3f ba eb d3 bf 32 4c 1c bf 31 1d a5 be
       1.0699047 -1.6556313 -0.61053765 -0.32248834
000240 8f 3d 80 3f 8f 0d a5 be c7 a3 3a 3f 6a 85 a8 bf
       1.0018786 -0.32236907 0.72906154 -1.3165715
000250 bb bd 42 bd 6e e4 9c 3f 34 fa b0 3f 6c 13 c8 be
       -0.047544222 1.2257211 1.3826356 -0.39077318
000260 19 c5 54 3e b8 80 6e 3f 98 96 0e bf ce 3d 33 bf
       0.20778312 0.9316516 -0.5569854 -0.7001618
000270 3b 39 d9 3d 60 28 8d bf e7 df 0c 3e 75 06 7a be
       0.10606619 -1.1027946 0.13757287 -0.24416526
000280 ef f0 f2 3e ed e4 8d 3c 13 6e 00 c0 a8 50 aa 3e
       0.47449443 0.017321074 -2.0067184 0.3326466
000290 64 5d 92 bf 70 05 b0 bf d3 4c a5 3e aa 7a 6a bf
       -1.143475 -1.3751659 0.32285175 -0.9159342
0002a0 7c 9e 6d bf 60 b6 ac 3e 02 9b ba bf ad 0b 8b 3e
       -0.9281995 0.3373289 -1.4578555 0.27157345
0002b0 e4 12 1b bf 32 0f 3e 3f e9 01 02 40 b8 7d a4 3f
       -0.605757 0.74241936 2.0313666 1.2850866
0002c0 23 d1 20 bf f9 78 ef bf 13 17 bc bf 5d e1 b5 3f
       -0.6281912 -1.8708793 -1.4694542 1.42094
0002d0 b8 19 ba be 4e ab 99 3f e9 13 cf 3e 54 75 d4 3d
       -0.36347747 1.2005403 0.40444878 0.10373941
0002e0 03 bc 74 bf 12 0a 7d bf bb 3d 61 bf 0b 92 97 bf
       -0.95599383 -0.9884349 -0.8798482 -1.1841444
0002f0 ab d4 8a 3f 3f 7b 83 be 07 9e 9f bf 38 a8 42 bf
       1.0846151 -0.25679967 -1.2470101 -0.7603793
000300 73 b6 ec 3e 79 99 17 3d 31 a9 66 3f ab c6 a9 3f
       0.46232948 0.037011597 0.90101916 1.3263754
000310 2b 1e 7c be 33 52 44 bf 2a c9 52 bf 48 8d 9d 3f
       -0.24620883 -0.76687926 -0.823382 1.2308741
000320 a0 5c 00 3f 7a 30 b9 3f d7 89 17 3f 8e fa f7 3e
       0.50141335 1.4467919 0.591947 0.48433346
000330 16 79 be 3e b1 cb 55 3f fc 9c a1 3f f4 c9 83 3f
       0.37201756 0.83513933 1.2626033 1.0296006
000340 bb 9d 38 3f 3f 40 f3 be d8 63 5f 3f 8c d5 1d 3f
       0.7211568 -0.47509953 0.87261724 0.6165397
000350 95 ff 8a bd f0 7f 02 c0 2b 8f ac be 61 9b 1e 3f
       -0.0678703 -2.0390587 -0.33702978 0.6195584
000360 d3 db ca bf a4 8a 84 bd e6 05 9f 3f 5e 6b 1d bf
       -1.5848335 -0.06471756 1.2423675 -0.61491954
000370 2f 27 34 bd 13 5e 90 bf 92 c1 8f bf fd 7a bb 3d
       -0.04398268 -1.1278709 -1.1230948 0.091543175
000380 7b 50 02 40 cf bd a5 bf 09 03 66 3f a3 67 16 3f
       2.0361621 -1.294855 0.8984838 0.5875189
000390 f8 5b cd 3e c1 a8 7e 3e 98 5e e5 bf a4 a6 28 3f
       0.4010923 0.24869062 -1.7919493 0.65879273
0003a0 01 b0 47 3e a0 b9 08 bf 4c 2f 85 3f 00 a5 15 bf
       0.19500734 -0.5340824 1.0405059 -0.58454895
0003b0 00 fa 55 bf a0 d5 65 3f 7c 47 3f 3f 85 22 20 bf
       -0.83584595 0.8977909 0.7471845 -0.6255267
0003c0 a3 fa 8f bf 89 04 39 bf 93 36 5b 3f a4 df 0a 40
       -1.1248363 -0.72272545 0.8563015 2.1699
0003d0 39 1b aa bf dd 6b e8 bf c4 d8 d3 bf 31 34 62 be
       -1.3289558 -1.8157917 -1.6550527 -0.22090222
0003e0 4d 7a c1 be 2e bb 8d 3f c2 a7 07 3f cb 9a 06 bf
       -0.3778862 1.1072748 0.52990353 -0.52579945
0003f0 bf dc 9c bf 55 72 d1 be 1e 9c 17 3f 46 a0 d9 3f
       -1.2254866 -0.4090754 0.5922259 1.7002037

action_out.bias f4 [5]
000000 ff 98 c9 be fa 5d 96 3d 19 ef 6c 3e cd cb 97 3e
       -0.3937454 0.07342143 0.23138084 0.29647675
000010 72 9c 82 be
       -0.25509983
