Coop Navi/MADDPG-master/model/simple_tag/agent_0/1_critic_params.pkl (torch, 52175 bytes, 7 tensors)

fc1.weight f4 [64, 63]
00000000: c392 a7bf c0fb 853e e69c d2bd f18a 41be
00000010: 2b5c 1ebe 26bd 6f3e 1e51 93bd 568c 003f
00000020: 3c97 9a3f 4bd9 c73d 80e1 303f 9174 0d40
00000030: 2951 55c0 5d5a 7840 8d87 1cc0 8905 1740
00000040: b39a 343f 8ee2 263f a9f4 0ebe 5a59 ab3e
00000050: 748f f6bb 897a 30be 7396 61be 0c35 4d3e
00000060: 192b 81bf a0aa 86be 3e3d 033e 0a0b 2b40
00000070: 8353 55c0 4a96 9f40 cb12 0fc0 7b4c 1f40
00000080: 9314 a7be c288 a63f 48e6 c1bc 1e64 ba3e
00000090: 4621 50be 63de 00bf 1c31 56be 2a37 9dbe
000000a0: 4606 2bbf 118a 14c0 e144 adbb baeb 1fc0
000000b0: 1c40 81c0 debb 5140 71c1 18c0 735e 1440
000000c0: fcf2 b4bd fd17 54bf 44db 31be c74c e03d
000000d0: 5a50 85be c3db 0cbe 65fd 203f 4230 0d3f
000000e0: de14 a43d 48d9 e8be e281 f9bd 9af0 06bf
000000f0: c439 083f de76 943e 4ec8 24bf e8bc 293f
00000100: e9ee f23d e325 c5be 5bf9 3d3f a8aa 133f
00000110: 2d34 6b40 4085 f7be 0c1f 47c0 8d85 1e3f
00000120: 84a8 b33d 8cfb efbf 6000 22bf 6944 0f3f
00000130: d803 0e40 ceaa cb3e c596 09bf 520c 363e
00000140: 622a 9abe 850b a4be 24de 963f 8ccd 643f
00000150: 9ed5 6140 868a 35bf 2413 54c0 99f8 26bf
00000160: 8157 dbbd 6a24 23c0 89e8 8bbf bc7f 1ebf
00000170: 957c cfbe d65e 9f3e d87d b5be b44a 00bf
00000180: ac9d 1cbf fc14 933d a33d b23e 2228 903e
00000190: 94de 9340 edb6 b9be 13ad 2dc0 30b9 db3f
000001a0: 41cd 273f b2a1 2740 df79 a03f d8b8 973e
000001b0: 3a5a ab3f 4e9c 9c3e eedc e4be b1e0 25be
000001c0: 831c b83d 42d4 16be bbb8 75be 3e2e 0dbc
000001d0: bef7 a03e 11d9 133e 3a5c 73be 2197 05be
000001e0: 6c88 523e 579e 393e 34a2 1abe f760 81be
000001f0: 7820 893e 1682 b3bd a60e 24bf 54d2 943d
00000200: 16c4 aebd 765c 373f 315e 97be f4e1 12bf
00000210: 1289 983e dfbd b8be 309a 04bf acdc 753e
00000220: 4f3c b740 289f 3ac0 1384 27c1 b33d ba40
00000230: aa6d cd3d ee06 7b3e 45e3 8abe 17d3 a5be
00000240: 530c 69be 6b06 283e 65f3 c13e 2fb5 82be
00000250: 002f c5bd 7d67 b0bc 8636 243f 9d43 c6be
00000260: 4773 8440 aeef 50c0 83b0 03c1 6757 ae40
00000270: d76d e6ba 536d ce3d ab11 123e 041d f1be
00000280: 33c2 0e3e 84dc cabe db16 88bd 86ea b83e
00000290: 0358 2e3c c488 653d bb74 bac0 107b 4140
000002a0: 1f69 8ac0 389c 5d40 2488 a0c1 f606 3141
000002b0: e9e0 093e c8d5 fc3d 4889 78bd 0afc 1abe
000002c0: 9e0a 8b3e a160 00bd 073d 4e3e 3e86 833d
000002d0: 61d3 bdbd 103a 113e 5c67 643d 8f27 803d
000002e0: a622 db3c 36f6 36bd da75 0e3d 90aa e4bc
000002f0: 97d1 a83e 3224 dd3e 9a4e 3d40 06d8 ad3d
00000300: 3842 003f 97d2 e2be 9691 cbbe 61a4 ca3d
00000310: 83c2 53bd 3c42 263f 5850 873e affd 80bf
00000320: 485b 59bf 63e7 babe 6c80 ff3f f9f7 27be
00000330: 0e4c 073f c3e7 62bf dbad cf3f ebf2 c4bd
00000340: 1ddb 69bd cf07 573e c280 c93c 967a 5abe
00000350: 3dc5 753e 609f ecbe d4f8 7ebe 89e5 c63d
00000360: 64b2 863e 187f 34bd 8c51 cb40 7942 c2bd
00000370: 34ed 2a3f bdb1 dfbf b87e 06c1 f35b 71be
00000380: 6c38 96bd 76b0 43be 4f1e 2a3f 308a 643e
00000390: 1d72 aa3c 4195 9f3f e4ff 3e3f 30d2 4ebe
000003a0: 9871 a7be ab3c 24bf ef1d cc40 4591 1e3d
000003b0: 6219 223f 7faf 903e 0bea b03d 4bc0 15bf
000003c0: 585f f33f 2e98 b1bf 3d88 80be f048 b7bd
000003d0: 6938 1ebe 8940 df3d ca34 613d d6a1 143d
000003e0: a623 a7bf ea15 6b3f 73c5 31c0 89cb 5740
000003f0: cbf5 d7bd 383b dabe c19c aabe 7480 8c3d
-1.3091663 0.26168633 -0.10283832 -0.18900658 -0.15464847 0.23411998 -0.07193206 0.50214136
1.2077403 0.09758242 0.69094086 2.2102396 -3.3330786 3.8805153 -2.4457734 2.3597128
0.7054855 0.65189445 -0.13960518 0.33466607 -0.007524425 -0.17234243 -0.22030048 0.20039767
-1.0091277 -0.26302052 0.12816331 2.6725488 -3.3332222 4.987096 -2.235522 2.489043
-0.32632884 1.3010485 -0.023669377 0.36404508 -0.20325193 -0.50339335 -0.20917171 -0.3070615
-0.6680645 -2.320927 -0.005287752 -2.4987626 -4.039076 3.2770915 -2.3868067 2.3182647
-0.08835408 -0.82849103 -0.173688 0.10952144 -0.26037866 -0.13755707 0.6288665 0.5515176
0.080117926 -0.45478272 -0.12182976 -0.5271088 0.53213143 0.28996938 -0.6436814 0.66303873
0.11861975 -0.38505468 0.7420861 0.57682276 3.6750596 -0.4834385 -3.11127 0.6192253
0.08772376 -1.8748641 -0.6328182 0.5596376 2.2189846 0.3977875 -0.5374568 0.17778137
-0.3011046 -0.3204004 1.1786542 0.8937614 3.5286632 -0.70914495 -3.3136683 -0.6522308
-0.107100494 -2.5490975 -1.0930339 -0.6191366 -0.40524736 0.31127042 -0.35447574 -0.5011399
-0.6117809 0.07181737 0.3481265 0.2815562 4.62092 -0.36272374 -2.7136886 1.716589
0.6554757 2.619244 1.2537192 0.29633212 1.338691 0.30588 -0.44699806 -0.16198994
0.08989813 -0.14729407 -0.2399625 -0.008616982 0.31439012 0.14438273 -0.2376565 -0.13045932
0.20559853 0.18126808 -0.15100938 -0.2526929 0.26782584 -0.08765046 -0.6408485 0.072666794
-0.08533494 0.7162546 -0.2956405 -0.5737603 0.29792076 -0.3608236 -0.5179777 0.24009961
5.726112 -2.9159641 -10.469745 5.8200316 0.100306824 0.24514362 -0.27126518 -0.3238761
-0.22758608 0.16408698 0.37881008 -0.25528857 -0.09628105 -0.021533722 0.64145696 -0.3872346
4.139072 -3.264629 -8.230594 5.448169 -0.0017580342 0.10079446 0.14264552 -0.4709245
0.13941269 -0.39621365 -0.06644984 0.36116427 0.010641101 0.056038633 -5.8267493 3.0231361
-4.325332 3.4626598 -20.066475 11.064199 0.13464703 0.12345463 -0.060677797 -0.15135208
0.27156538 -0.031342153 0.20140468 0.06422089 -0.09268833 0.14182305 0.055762634 0.06257545
0.02674992 -0.0446684 0.03478036 -0.027913362 0.32972404 0.43191677 2.9579225 0.08488469
0.5010104 -0.44301292 -0.3975951 0.09894634 -0.051699173 0.64944816 0.26428485 -1.0077418
-0.8490491 -0.3650466 1.9961066 -0.16403188 0.52850425 -0.8863489 1.6224931 -0.096166454
-0.05709373 0.20999072 0.02459753 -0.21335825 0.24001022 -0.46215343 -0.24899608 0.09711749
0.26307976 -0.04406652 6.3537045 -0.09485335 0.66768193 -1.7476116 -8.405937 -0.23570232
-0.0733498 -0.19110283 0.664525 0.2231834 0.020806367 1.2467424 0.7460921 -0.20197368
-0.32703853 -0.6415507 6.378654 0.03871276 0.6331998 0.28258893 0.0863839 -0.5849654
1.9013472 -1.3874567 -0.25103942 -0.089494586 -0.15451206 0.10900981 0.054981984 0.03628715
-1.3057754 0.91830313 -2.7776763 3.3717978 -0.10544928 -0.42623305 -0.3332272 0.06860438

fc1.bias f4 [64]
00000000: abaf dcc0 2da6 00c1 d214 923f 5d0d 0ac0
00000010: 837b 173e 88ac 7041 6ef7 e3bf 69d3 f3be
00000020: 1acc b73e 09fb 6b3f 56bc b4bf dfb2 3740
00000030: d4de 6e3f 46ca 44c0 9f76 c53e b41b 5041
00000040: b950 c03e 97c8 67bf 49c5 803d 9797 23c1
00000050: c699 253e 12a3 1fbf dbed ab3d 3159 7fc0
00000060: f254 2cc0 6a89 513f 5679 02c1 57ca 3941
00000070: 2dd5 58c1 ee80 a9bf 6521 e03e 44a1 bbbf
00000080: b941 4fc0 0eb0 8941 5717 4bbd 9535 1640
00000090: 2342 fdc0 9205 933e 421e 07bf bfec 333e
000000a0: 3886 14bf fc57 e2be eac0 01c1 519f 7c41
000000b0: fb16 29c1 fbfa ae3e 45d5 14c1 3360 223f
000000c0: d677 32c0 5458 dcc0 82d2 d9c0 3107 b7c0
000000d0: dfc6 bfbe 2396 d7c0 592a 28c1 baf2 b1be
000000e0: 65ca 93bf 9f8d e5c0 63c7 5740 330c 5cbe
000000f0: 9617 c5c0 2ee6 5bc1 34bc 02c0 bada 8cbf
-6.896444 -8.04057 1.1412604 -2.1570656 0.1479321 15.042122 -1.7809885 -0.4762223
0.35897905 0.92179924 -1.4119976 2.8702924 0.9330876 -3.0748458 0.38567063 13.006763
0.37561586 -0.9054045 0.06287629 -10.224509 0.16171941 -0.623582 0.08394977 -3.9898188
-2.6926847 0.818503 -8.154623 11.611899 -13.552045 -1.3242471 0.43775478 -1.4658589
-3.2383864 17.210964 -0.049582805 2.3470204 -7.9143233 0.28715187 -0.52780545 0.1757078
-0.580173 -0.44207752 -8.109598 15.788896 -10.56811 0.34175858 -9.302068 0.6342804
-2.7885642 -6.8857822 -6.8069468 -5.719628 -0.37456414 -6.737077 -10.510339 -0.34755498
-1.1546141 -7.1735377 3.3715446 -0.21489029 -6.159129 -13.743696 -2.042737 -1.100425

fc2.weight f4 [64, 64]
00000000: 2553 b3bf 351b 9a3e 5967 49c0 a81f 58bf
00000010: 3e3a 1d3f 73c3 253f ae2f cebf 22fb 42bf
00000020: 174b b83f 3409 963f b275 cb3f 7a06 e73e
00000030: e066 f4bf 26ea cdbe cc63 80bd 0cd2 a43f
00000040: 6844 9d3e 6c46 923e 627a 88bf 1932 d8be
00000050: 0403 793f 99a2 5540 fc32 613f 19d0 75bf
00000060: 291a a6bd c847 abbf a23b d1bf 9a64 0d3f
00000070: f918 5440 3819 783f 3f00 0e3f 905c 16c0
00000080: 3380 a23e 64b5 ae3e 3a5f 383f 6fe9 69be
00000090: 97a9 e4c0 94ba 0ec0 f31f e53f 01d6 c23e
000000a0: ef61 1f40 c68b 8b3f 9f87 873e b45b 5abe
000000b0: b825 56c0 2689 ffbe c917 0f40 4030 35bf
000000c0: b771 a23f 2974 e93e 82a0 94bf d8fc ad3f
000000d0: 9005 28c0 6650 d83f 4639 27c0 689c b03f
000000e0: f8fc bbbf 2907 403f c622 43c0 b50b 3c3e
000000f0: de1f 873d c20f 9d3d b2a7 fabf 0c62 58bf
00000100: 188d 6fbe 50a3 5d3f 157a 163f c84e 213f
00000110: cb5c 7ebe a9ec 09c0 cbd8 9dbe 4a05 0d3f
00000120: 7e47 133e bbb6 7ebf 28d2 263d 4e53 1cc0
00000130: 6030 91bd 5cb3 8d3f 5f7c 2fbf 593f 2bc0
00000140: 177f 123f 6b6f 9fbe 5fab d43e e3ef 64bf
00000150: b72c 9bbe 4ca4 66bf 3909 c23c cc12 1dc0
00000160: e67f 89bf b732 4a3f 3472 4bbf 96db cabf
00000170: 4c96 4bbf c19e 173f 05c5 da3e 6b85 cebe
00000180: 2865 98bd 4c2d a1c0 3f7a 093d a022 fdbf
00000190: 73a1 91bf 8841 283f 80bc 713f aadf d93e
000001a0: 1227 9e3d 77a7 d8be 4af3 30bf 36c8 8dc0
000001b0: 0795 c83e 55e2 cebf 4054 31bf a41e 98bf
000001c0: 5cbc 40bf d1a7 68bf 8593 e03e b418 e2be
000001d0: ada1 293f 6bf2 bfbe dc01 a4bc a50d 9fbe
000001e0: 097c 233f 1c32 ef3e afc5 1dbf b30d 63be
000001f0: b720 b8bf 4397 893f d805 77bf c873 adbe
00000200: b6d7 23bf 4690 ebbe 8828 81be ab56 0cbf
00000210: d50c 493f 8cc5 4a40 bd97 c1bd defb 80be
00000220: 4eb1 783d 5301 aebe 6041 22bd 449a 1f3e
00000230: 80e7 b4be 2f4a 88bf fe2c 3d3e 6b2c 953f
00000240: 779e 16be 2fdf a4bd 8d03 4fbf 8db7 17bf
00000250: dc23 233e 5926 62be dc1c 393f 6f5b 95bf
00000260: 9786 5a3e da8e bc3e 4af3 56bd 8996 a43e
00000270: 4702 4540 8f4a 273f 302a 9bbe 5620 3abf
00000280: 37b4 84bf 61a7 ed3f 0657 bbbe 3750 4c3e
00000290: 310e 533f e9b5 0d3c a2b1 81bf 24eb 98be
000002a0: d526 1f3f 87dc 8d3f b16e a4bd 7acc e93f
000002b0: b6e8 c13f a109 89be 06b0 3fbe 8ee0 92bf
000002c0: 6436 9fbe d4ad b3be a979 05c0 ff97 a3be
000002d0: 2cea 17bf 0621 8dbf fee2 583f 90e5 1b3f
000002e0: 4e70 eebe 7845 203f 6cf0 9dbe b6ac 843d
000002f0: 440f b9bc 2643 e93f e050 1fbf 0a6b e33e
00000300: a23a b2c0 5cb9 09bf 22e6 8e3f 7677 b9c0
00000310: 7206 303f e50f 9fbf 2602 32c0 92cb 37c0
00000320: 2fc3 13c0 2288 dabf cffa aabf 23e3 dabf
00000330: d98f b7bf ea34 823f e809 bebf 3275 dcc0
00000340: fde4 c23e 271f 6bc0 9c63 bb3e 0a51 263f
00000350: 0b0f e53e da5b 6bbf 4df7 cb3f a901 14bf
00000360: 9a27 c5c0 097f 77c0 7b19 ca3f 4d3a bcbf
00000370: 2a27 c93f 90d8 28bf 25f4 90be 9a5f 9abf
00000380: 15ca 58c0 cf09 84bf 897a 10bf 1760 c2bf
00000390: 076d 20c0 46e0 bdbf 52b8 2f3f c595 883f
000003a0: d4d1 98c0 7d55 c5be 69b4 a93e b992 e9bf
000003b0: 22bb edbf 3752 943e 857c 99be fd6e d6be
000003c0: 09b6 60bf 2671 4ebf 2ffe 843f 35ed d3c0
000003d0: 2111 1d40 8226 9c3f dc6f afbf f0e5 06bf
000003e0: a496 21bf 8eaf 07c0 1c98 8f3e ad9e 653f
000003f0: 5c66 71c0 0dc3 ecbf 4300 38c0 5eaa 82c0
-1.4009749 0.30098882 -3.1469328 -0.84423304 0.61416996 0.64751357 -1.6108301 -0.7616445
1.4397916 1.1721559 1.5895293 0.4512213 -1.9093895 -0.40217704 -0.06269035 1.2876601
0.30716252 0.28569353 -1.0662348 -0.4222572 0.97270226 3.3380492 0.8796842 -0.96020657
-0.081104584 -1.3381281 -1.6346323 0.5523163 3.3140242 0.9691348 0.55469126 -2.3493996
0.31738433 0.34122765 0.72020304 -0.22842954 -7.145702 -2.2301378 1.7900375 0.38053897
2.4903524 1.090203 0.26470658 -0.21324044 -3.3460522 -0.49909323 2.2358267 -0.7077675
1.2690953 0.45596436 -1.1611483 1.3592787 -2.6253395 1.6899536 -2.6128707 1.3797731
-1.4686575 0.75010926 -3.0489974 0.18363841 0.06597875 0.07669021 -1.9582427 -0.8452461
-0.23393667 0.8657732 0.5878003 0.63010836 -0.24840085 -2.1550696 -0.30829462 0.55086195
0.14382741 -0.99497575 0.040727764 -2.4425845 -0.07089305 1.1070361 -0.6854915 -2.6757414
0.57225174 -0.31139693 0.41536996 -0.8942854 -0.30307552 -0.9009445 0.023686038 -2.4542723
-1.0742157 0.78983635 -0.79471135 -1.5848262 -0.7952621 0.59226614 0.4272844 -0.40336165
-0.07441169 -5.0367794 0.03356385 -1.9776192 -1.1377395 0.6572499 0.94428253 0.42553455
0.07722296 -0.42315266 -0.6912123 -4.43069 0.391762 -1.6162821 -0.6926918 -1.1884351
-0.75287414 -0.9088107 0.43862548 -0.44159472 0.6626232 -0.37489638 -0.020020418 -0.31065097
0.6386114 0.46717918 -0.61629766 -0.22173195 -1.4384984 1.0749286 -0.9649329 -0.33877397
-0.64001024 -0.4600851 -0.25226235 -0.54819745 0.78535205 3.1683073 -0.0945277 -0.2519216
0.060715966 -0.33985385 -0.039613128 0.15586191 -0.3533287 -1.0647639 0.18474194 1.165418
-0.14708887 -0.080503814 -0.80864793 -0.5926445 0.15931648 -0.22084941 0.7230966 -1.1668528
0.21340404 0.36827737 -0.052478112 0.321461 3.078264 0.6534814 -0.30305624 -0.7270559
-1.0367497 1.8566705 -0.3658983 0.19952475 0.8244353 0.008649328 -1.0132334 -0.29866898
0.6216863 1.1082925 -0.08028925 1.8265526 1.5149143 -0.2676516 -0.18719491 -1.1474779
-0.31096184 -0.35093558 -2.0855505 -0.319519 -0.5934169 -1.1025703 0.8472136 0.6089716
-0.46570057 0.62606 -0.3084749 0.064782545 -0.022590287 1.8223617 -0.6223278 0.44417602
-5.5696573 -0.5379846 1.1163981 -5.7958326 0.68759835 -1.2426726 -2.7813811 -2.8718
-2.308788 -1.7072794 -1.3357791 -1.7100567 -1.4340774 1.0172398 -1.4846773 -6.889306
0.3806533 -3.6737764 0.36599433 0.64967406 0.4473804 -0.9193703 1.5934845 -0.57815033
-6.161084 -3.8671286 1.5789026 -1.4705292 1.5715077 -0.6595545 -0.28311267 -1.2060425
-3.387334 -1.0315493 -0.56436974 -1.5185574 -2.5066545 -1.4834068 0.68640625 1.0670706
-4.775614 -0.38541785 0.33145455 -1.8247901 -1.8572733 0.28968975 -0.29977813 -0.41881552
-0.87777764 -0.806414 1.0390071 -6.622706 2.4541705 1.2199252 -1.3706012 -0.52694607
-0.63120484 -2.12009 0.28045738 0.89695245 -3.7718725 -1.8497025 -2.875016 -4.083297

fc2.bias f4 [64]
00000000: 968f 6bbf 948c a4c0 724f 3a41 8cc1 9540
00000010: a627 32be 058e aac0 dc63 dc3f 5648 94c0
00000020: 4028 73c0 9965 7ac0 5fb8 e640 db0a 7cc0
00000030: 7ea3 8541 2856 72c0 ab87 9ebf 1e4a 093f
00000040: 1a44 05c0 c52e ed3b 50a1 94bf 506b 03c0
00000050: cc96 9cc0 a6b8 b7be 49aa 1c41 db0b f8bf
00000060: 387e c43f 6f30 88c0 2cc0 a740 5919 8bc0
00000070: 854d 25c0 93f4 fd3e 49a9 85c0 3691 c540
00000080: f4f3 2ec1 30fd b140 5361 563e 8b88 6940
00000090: f119 c940 a430 4d40 4991 ddbf 7c11 e23f
000000a0: 661b b8c0 c024 e940 891a 8f3e cb97 20c0
000000b0: d087 b840 dcf4 8bc0 62af b0c0 ac15 b740
000000c0: 86db 4cbf 151f 3840 f6f3 6540 a7ad 36be
000000d0: 73dc 39c0 9aca 47c0 8a9b ed40 adb8 913f
000000e0: 0d4d b8bf c7f1 c340 ee70 d33e 89ed 3e3d
000000f0: 9b3a 7fc0 c5c6 53c0 a2f3 00be 4c8f d1bf
-0.9201597 -5.1421604 11.644396 4.6798763 -0.17397937 -5.3298364 1.7217975 -4.63383
-3.7993317 -3.912451 7.210006 -3.9381626 16.70483 -3.7865086 -1.2385153 0.5362872
-2.0822816 0.0072382414 -1.1611729 -2.0534248 -4.893408 -0.35883063 9.791574 -1.9378618
1.5351019 -4.2559123 5.2422085 -4.346844 -2.5828564 0.49600658 -4.1769147 6.173976
-10.934559 5.5621567 0.20935564 3.648959 6.2844167 3.2060938 -1.7309963 1.7661586
-5.7533445 7.285736 0.27949932 -2.5092647 5.7665787 -4.37364 -5.521409 5.7213955
-0.80022466 2.876897 3.5930152 -0.1783968 -2.9040802 -3.1217408 7.4252367 1.1384484
-1.4398514 6.123264 0.41297096 0.04661325 -3.987952 -3.309007 -0.12592939 -1.6371856

fc3.weight f4 [64, 64]
00000000: d184 1f3f 4f0c cdbd b4ae 66bf 7d3b 48c0
00000010: 10ae 53bd 492f 3ac0 97e6 54bf 34d2 04bf
00000020: 4f6d 143f ced4 a2bf 6254 6fbf b4b7 4a3f
00000030: f6f4 94bf 19a9 753f 94d0 9240 3934 f1be
00000040: 4dde 5b40 6bab 46bf 2c49 1c40 3f03 6c40
00000050: ac84 043f 8e79 4cbe bed4 c2be 8f22 8e3f
00000060: ed4d 4ec0 9299 17bf f0d0 8b3e eeda 05be
00000070: 2c83 2c3f 1fde a03f 4fff 983f 0c8c 0740
00000080: 582f 48be 6d8c b43f 6ce4 b43d 681a b6bf
00000090: bc14 993f 3005 5ebf f5e3 23be a31b 753f
000000a0: 928f c3bf 3bc8 bfbe 8874 9fbf 0751 9ebf
000000b0: 6979 423f 643c 14c0 039b c4bd 6972 2ec0
000000c0: 9791 133e d8d0 80be 2124 97bf 5ba2 4bc0
000000d0: dc7c e63f 1e40 6a3f aec4 3840 6cf9 cc3e
000000e0: 6be5 e3bf 110b 4bc0 a41c 163f 7f1b a440
000000f0: 133e 1abe 9769 fc3d b0f5 883e 1e1b ab3f
00000100: ab99 d5be 843a af3f 6d2f 96bf 6dd1 d8bf
00000110: 11db dcbd e8f4 9b3d b70e 173e b3fc 0ec0
00000120: aee7 8dbf 34e6 403f f564 24c0 3b34 aebe
00000130: 8e8f 46c0 3a9c 0ac0 c747 6cbf eb1e 7cbf
00000140: 8a90 2a3f a952 3d3d d608 503f d9d6 a03f
00000150: 93c3 0bc0 e15f 39be e464 853f cae8 f9bf
00000160: ed15 d2bf a970 20c0 c130 e5bf f9db 8f3f
00000170: cda5 193f 428e 82be 7d49 c8be 1575 d6bf
00000180: 107b 31c0 8ae5 efbf 1a06 98bf 81b6 2ebf
00000190: abb4 c43f 7f55 51bf f4ef 43be aecb 99bf
000001a0: d2e4 493f e171 d6bf 3dfc 06c0 442e f1be
000001b0: aefb eebf c513 fabf 4229 0fbf a942 1bbe
000001c0: 007b 1ec0 c6cf 04bd c775 17c0 f5e6 5fbf
000001d0: 1c3d d13e 2564 4bbf 2796 8fc0 1bad 6dbf
000001e0: 580f 503f 2468 0ec0 0da5 a33e 1a25 56bf
000001f0: 3ae1 aabe 1ebd 9bbf a7c6 423f 3b93 0bbf
00000200: 76ed 13c0 beec 7b3f a0c7 a6bf d7d3 91bf
00000210: 513f 153e 65fd a53f 2c33 35c0 03f0 443f
00000220: 3464 56bf fe62 233f 8149 f5bf 41b8 74bf
00000230: bee6 65bf 1f9e ed3e 01f0 433e c7dd a23c
00000240: d0da 813f f8d2 f4be b9e5 8fbe b356 c43d
00000250: 03bc b3be 9b5d 493d 41db e5bf a8cb ad3c
00000260: 27c5 cebf 4082 28bf 8d8e 70bf 31e2 753e
00000270: 184c 37bd 2e45 98bf 6b37 963e 41e8 8abf
00000280: 3307 58bf 8d02 6e3f 5747 9ebf c56a b83f
00000290: 542a 743f 0da0 ab3c 97fa 0dbf 4f6f d9bf
000002a0: e620 8f3e a92b c8bf a96d d8be 5964 b3bf
000002b0: ba00 05bd a60a 9bbe 5895 36bd c814 343f
000002c0: 67f6 96bf 28f9 543f 5b7f 40bf deff bc3e
000002d0: 733a 3ebf 795d 503f a96a babf 8591 81be
000002e0: 25f5 c7be fdd1 3fbf 55ab 30be 0a8d 0fc0
000002f0: 2de0 23c0 280c a73d 48d8 c23d 43ea dfbd
00000300: ce1a 99be 1497 44be 0b05 7c3f 34c0 4040
00000310: 4f5e 893e 174a ce40 f88e 443e 11ff 2bc0
00000320: 7dd5 23bf 95e5 16bf 8348 233e 1d5c febe
00000330: e7d9 383f 5a31 24bf e1b7 c23e 0d08 223f
00000340: e9e8 9cbf 030e 83be 25ea 0abf 2bfe 0e3f
00000350: f471 c4bd 06b7 b33e 9540 c53e e02f 71be
00000360: f01d 18bd 25bd d440 b9c4 bc3f 5670 c3be
00000370: a2a3 783f 3ffd c93f cc87 1e3e 7d47 743e
00000380: 902f f2bb 0a99 c940 6f9c 1b3f de56 11bf
00000390: 325b 633b a4d9 08bf d6da 0a3d 6efd c73e
000003a0: d41c 4e3e 2a9d 843e 0603 583e 601f 7a40
000003b0: 6c06 403f 93b4 92bc 0be0 7a3c b72b 863e
000003c0: 0aea 5b40 9a76 0bbf f100 d8be 65f8 2a3d
000003d0: 5bce 4cbf 0612 9e3f f7dd 8340 2c55 243e
000003e0: fc2b 7b40 fd3d 0540 047b 673f c255 a03f
000003f0: 893b c6be 1b2b 143e 55ea e13e 3c79 1abe
0.62312037 -0.10012113 -0.90110326 -3.1286309 -0.05167967 -2.909136 -0.8316435 -0.51883245
0.5797929 -1.2721193 -0.9348813 0.7918656 -1.1637256 0.9596115 4.587961 -0.47110155
3.4354432 -0.77605313 2.441966 3.6876981 0.5176494 -0.19968244 -0.38052934 1.1104296
-3.2235062 -0.59218705 0.27307844 -0.13071796 0.6738765 1.2567786 1.1952914 2.1179228
-0.1954931 1.4105355 0.088326305 -1.4226809 1.1959453 -0.86726665 -0.16004927 0.95745295
-1.5278189 -0.3745745 -1.2457438 -1.2368478 0.7596651 -2.316186 -0.09599879 -2.725733
0.14411007 -0.25159335 -1.1807901 -3.1817844 1.8006854 0.91504085 2.8870044 0.40034044
-1.7804388 -3.1725504 0.5863745 5.1283565 -0.15062742 0.12324827 0.26749945 1.336765
-0.41718802 1.3689733 -1.1733223 -1.6938912 -0.10783971 0.076150715 0.14751707 -2.2341735
-1.1086328 0.7535126 -2.568662 -0.34024224 -3.102512 -2.1657853 -0.92297024 -0.9848468
0.666268 0.04622141 0.8126348 1.2565566 -2.183812 -0.18102981 1.0421414 -1.9524167
-1.6412941 -2.5068762 -1.7905504 1.1239005 0.60018617 -0.2549916 -0.39118567 -1.6754481
-2.7731361 -1.8741925 -1.1876862 -0.6824723 1.5367635 -0.8177108 -0.19134504 -1.2015283
0.7886478 -1.6753503 -2.1091454 -0.4710561 -1.8670557 -1.9537283 -0.5592233 -0.15162148
-2.4762573 -0.03242471 -2.3665636 -0.8746179 0.40866935 -0.79449683 -4.487079 -0.92842263
0.8127341 -2.2251062 0.3196186 -0.8365036 -0.3337496 -1.2167089 0.7608437 -0.5452153
-2.3113685 0.98408115 -1.3029671 -1.1392773 0.14574935 1.2967955 -2.8312483 0.7692873
-0.8374665 0.63822925 -1.9163057 -0.9559365 -0.8980521 0.464097 0.19134523 0.019881142
1.0144901 -0.47817206 -0.28104952 0.09586849 -0.3510438 0.049161535 -1.7957536 0.021215275
-1.6153916 -0.65823746 -0.93967515 0.24012066 -0.044750303 -1.1896112 0.29339156 -1.0852128
-0.84385985 0.9297264 -1.2365521 1.4407583 0.9537709 0.020950342 -0.55460495 -1.6987094
0.27954787 -1.5638324 -0.42271164 -1.4014999 -0.032471396 -0.30281562 -0.04457602 0.7034421
-1.1793946 0.8319268 -0.7519433 0.3691396 -0.74307936 0.8139263 -1.45638 -0.25306335
-0.39054218 -0.7492979 -0.17252858 -2.2429833 -2.5605576 0.081566155 0.095139086 -0.10933354
-0.29903263 -0.19198257 0.98445195 3.0117311 0.26829764 6.446544 0.19195163 -2.687443
-0.6399763 -0.58944064 0.1594563 -0.49679652 0.7220749 -0.64137805 0.38030913 0.63293535
-1.2258579 -0.25596628 -0.54263526 0.5585658 -0.09592047 0.35100573 0.38525835 -0.23553419
-0.037137926 6.648089 1.4747535 -0.38171643 0.97124684 1.578041 0.1548149 0.23855396
-0.007390924 6.2999315 0.60785574 -0.56773174 0.0034691808 -0.53457093 0.033900104 0.3906054
0.20128185 0.25901157 0.21094903 3.908165 0.750098 -0.01790837 0.015312205 0.26205227
3.4361596 -0.54477847 -0.42188218 0.041740794 -0.80002373 1.234925 4.1208453 0.16048115
3.9245596 2.0819085 0.9042208 1.2526171 -0.38717297 0.14469568 0.44124094 -0.1508531

fc3.bias f4 [64]
00000000: ab36 f2bf 7177 e5be 1915 4dc0 4106 9941
00000010: 6818 fc3f 9660 4d40 4010 7840 ec66 2bbf
00000020: 5c58 5a3e ed40 ab40 e116 19c0 283a f13f
00000030: 9047 2541 a9ac 2d3f 0a4d 84c0 9abb 26c0
00000040: 9067 eb3f 0d70 eb3f ae6b 3941 0e89 90bf
00000050: 8dc4 f5c0 040b 82c1 380d 2d41 d3a1 9abf
00000060: 7b55 3840 a688 a53d d8b4 22c0 785f b5c0
00000070: 4b6a 66c1 00a7 9fbe 2718 edbf a8b9 0d40
00000080: 6e7c e5bf 926f ef3f 9286 28c0 38e6 32c0
00000090: 95a7 14bf 94fd 84c0 9f35 e9c0 1eb7 fc3f
000000a0: bc7e 2940 80d4 f13f 95d0 6ebf c2e0 b33e
000000b0: f03d 3a3f bace cdbf 8c29 9640 3dba 0ebf
000000c0: 757f 08bf b7fb d73f fdd6 c2bf c14f 5ac0
000000d0: aef2 7d40 6185 da3e 905a a2bf cc8c 29c0
000000e0: 10ed 58bf 5188 8041 703a 5bbf 429d 4fbf
000000f0: 660b 59c0 462f a2c0 9079 c440 7c42 6b3e
-1.8922933 -0.4481769 -3.2044127 19.128054 1.9694948 3.2090201 3.8759918 -0.6695392
0.21322769 5.3516755 -2.3920214 1.8845873 10.329971 0.67841583 -4.134404 -2.6052003
1.839098 1.839357 11.588789 -1.1291826 -7.680243 -16.255379 10.815727 -1.2080635
2.8802173 0.08082704 -2.5422878 -5.667904 -14.40095 -0.31182098 -1.8522996 2.2144566
-1.7928598 1.8705924 -2.6332135 -2.7953014 -0.5806821 -4.1559544 -7.2877955 1.9743383
2.6483603 1.8892975 -0.9328702 0.35132414 0.7275076 -1.6078713 4.6925716 -0.5575293
-0.53319484 1.6873692 -1.5221859 -3.4111178 3.967937 0.42679885 -1.2683887 -2.6492186
-0.8473673 16.06656 -0.85636044 -0.8109933 -3.3913207 -5.0682707 6.139839 0.2297458

q_out.weight f4 [1, 64]
00000000: 49b9 acbd fca2 0d3f fba0 d9bc 9df2 c33e
00000010: 25bb 053d 5c1d 913d 1536 6dbd 175f d43c
00000020: 6032 e1be 9c00 ed3c 2bfe f4bd 3fef c0bb
00000030: c52d 053d 3337 353f 123c d53e e581 ce3d
00000040: bc04 b7bc 3b63 7fbf 0488 b93f fc78 2f3f
00000050: 6d0b 87be e30b 01be 4df5 bf3d 2e69 b6bd
00000060: 8c69 253d eb11 4c3e 3c2e 053e bddd 99bd
00000070: ee6f c3bd 5886 173d 7223 21be a9df 803c
00000080: d2a4 a53d 684b c2be 8953 08bd fb9c 5fbe
00000090: daf9 16be ebae 2b3f 9ca5 18be 328e 9e3b
000000a0: 46aa a83e 1f69 70be 99c8 793c 78a9 763c
000000b0: 191b 17bc d23a e03b a202 39bc 1255 423e
000000c0: 4941 013d 31fb 773d 369f 903e ab9f f13c
000000d0: d843 f03e 1b56 bc3e 73da cf3e d43e 96bd
000000e0: 0425 4ebc 9030 c13d ff2e 263d a9a8 fb3d
000000f0: fa2b f1bd a968 bdbd 1cea b73d 0967 383f
-0.08433778 0.5532682 -0.02656602 0.38271037 0.032649178 0.07085678 -0.057912905 0.025924249
-0.43983746 0.028930955 -0.11962541 -0.0058878954 0.032514352 0.7078735 0.41647393 0.10083369
-0.022341125 -0.9976079 1.4494634 0.6854398 -0.26375905 -0.1260219 0.09372959 -0.0890678
0.04038386 0.1992871 0.13005918 -0.07512996 -0.09542833 0.036993355 -0.15736178 0.01573165
0.080880776 -0.37948155 -0.03328279 -0.21837227 -0.14743748 0.6706378 -0.14906925 0.0048387283
0.32942408 -0.234776 0.01524558 0.015055053 -0.009222769 0.0068429494 -0.011292132 0.18977764
0.0315564 0.06054229 0.28246468 0.029495081 0.4692676 0.36784443 0.4059635 -0.07336202
-0.012582067 0.09433091 0.040572163 0.12288029 -0.11775966 -0.09248478 0.089802 0.7203222
