Coop Navi/MADDPG-master/model/simple_tag/agent_0/2_actor_params.pkl (torch, 41167 bytes, 8 tensors)

fc1.weight f4 [64, 16]
00000000: a8fa df3e 15fd 3fbf 4c40 7bbe 0674 913e
00000010: 022b 573e 3c7f 0d3f 2603 b8be 99b9 70be
00000020: 680d 4dc0 7e15 02c0 84d4 83bd 7ad0 e63f
00000030: 3683 693d be96 c1bf 6743 c4bf 5e57 743f
00000040: d252 db3e 31c5 7e3c 6959 fdbc 731d a13e
00000050: 63af e23e 0553 4f3d ce98 d8be 64f3 823e
00000060: c99b 783d 2b73 58be 9b21 1e3f 8b69 423d
00000070: dcda 1340 8e2e ecc0 81e5 18bf f1b3 8fbd
00000080: b54d a6bf 8b19 47bf 5de0 a23e aae3 47bf
00000090: e829 2e3f 03df 493e 666d b9be 2f42 7bbf
000000a0: b786 e8be 66c8 223e cc7a 28be 37c6 21bf
000000b0: 9caf f8bf 6b38 8ec0 7317 013f 9441 e33e
000000c0: b864 cd3f d8f2 28bf 0e9a a93e 8a51 91be
000000d0: ac22 a03e 4dcd fd3d 6c75 423d a921 e2be
000000e0: f3c9 09bf c379 513f 9d0c 0dbf 7cf7 183d
000000f0: 2fa5 54c0 4163 743f 3b31 6fbf dad5 03bf
00000100: 30cc 93be 4f7d 0f3e b9cf debe ddb1 e3be
00000110: 2c73 11be 237b 923f fc17 8cbe e70b bbbf
00000120: c047 173f a0d1 4fbd 42be 20bf a87e 5e3f
00000130: 212b b73e c640 8dc0 eb6b a73e 3ccf 0fbf
00000140: ea21 e33e eee8 153f 94bc 6abf 6a07 9f3e
00000150: dd3f 81bf 9893 703e 25e6 a33d 0ea0 5d3c
00000160: a1c7 a6bf 6ec1 5f3f da13 12bf cf2d c23f
00000170: d031 51c0 07da 9540 f574 763c 4aa2 94bf
00000180: 0127 97be c11e 9fbd 3b7d f43c 3780 8bbe
00000190: 0979 42bf d118 a73d 15ad 4b3f 8d14 cbbe
000001a0: ff6d 243f 2ac9 503f 5ae3 c83e 1310 00bf
000001b0: 69ec 08be 228a c63f 19a2 1fbf 94b4 5a3f
000001c0: 1494 96bf bac8 c8bf b392 d6be 8cbc 3abf
000001d0: 55c5 10bf 9a72 22be cf24 673e 166c 13bf
000001e0: 034c bf3d 0013 c73f 02f3 bb3f 66b7 ff3f
000001f0: 7bc9 f4bf 4aae 07c0 8a3d 9f3d 6a63 513c
00000200: 1948 e3be 48bd 0a3c aa39 23be a5bd 92be
00000210: ae13 6fbe f8a0 70be dee5 3d3e d9bd 23bd
00000220: f20c 0abf 7824 b33e b331 c93f 32c3 0b40
00000230: e8e1 d740 d552 ad3f 56f3 aa3e cf35 c23e
00000240: 3856 ef3e aefb 8bbb ee92 bd3e 9c32 8abe
00000250: 5a87 473e 723a 77bf bcc3 5e3e f3f2 243f
00000260: 926e c9be a0dc 113f 91b9 8e3e 4e18 5c3f
00000270: 98f9 b7c0 71ee 2440 362e d5bd 70c1 80bd
00000280: 1967 a93e b1d7 2abc bb18 fd3d 1598 97be
00000290: 1ac5 473e 1350 ddbe feb1 21bd aaf0 a43d
000002a0: 0fab e03f 3cb2 5c3f cb72 35c0 9287 183e
000002b0: 89a4 3bc0 4602 55c0 00e8 ab3f 6d01 313f
000002c0: 476f 36be b574 99be be95 d33c bb9f 1f3e
000002d0: cc65 b73e 5487 26be fc51 a2be 436c 653e
000002e0: ffd4 0440 c6d7 c63f 85b4 653f c8ad 103f
000002f0: 322b 2ac0 867c 5fbf 3ba0 6dbf 8616 053e
00000300: 97b5 bd3e 34f0 1dbf 8ea2 50be 07e6 98bc
00000310: eaf8 1d3e 56d1 383f a297 c7be 9396 28bf
00000320: 2766 873f 4d9e 5fbf 01c3 673f 3549 73bf
00000330: 40c0 cc40 bfd4 34c0 d910 8fbf 663b d53e
00000340: 27d9 853f 82c2 41bf 7745 fcbe 8109 83be
00000350: 80c6 603d 624c 03bf a443 11bf c505 6f3e
00000360: 971f a4be d997 3b3d 0e7c 82bd 78ac 2c3f
00000370: d63a dd40 f8d4 34c0 fda6 cb3e d7b5 9dbf
00000380: a37f 7a3f c27b 303f caaa 8cbd c61e 673f
00000390: a4b1 d83e f4af dd3d 97cb 0abf 5b2c 3f3f
000003a0: fc0b bb3f bbf6 26bf 059e 2e3f e7da 38bf
000003b0: 17fc 0440 a2c6 79c0 3710 6a3d 8296 1dbf
000003c0: 2e5a 0bbf 47dc 9fbe 83ee 483f 6782 223f
000003d0: 1929 883e 2617 8d3e 90d0 0a3f 608c 923e
000003e0: d73a 173f 2d8c 333f c640 16bf 31a7 e53e
000003f0: 749b 8fbf e224 0641 2ebc cb3e 8a65 d1bd
0.43745923 -0.7499555 -0.24536246 0.2840883 0.210125 0.5527227 -0.35939902 -0.235083
-3.2039433 -2.0325618 -0.064370185 1.8032372 0.057009898 -1.5124128 -1.533307 0.9544581
0.42836624 0.015549944 -0.030926423 0.3146778 0.44274434 0.050616283 -0.4230408 0.25576317
0.060695443 -0.21137683 0.6177003 0.047463935 2.310233 -7.380683 -0.59725195 -0.07016743
-1.2992464 -0.7777335 0.318118 -0.7808176 0.68032694 0.19713978 -0.36216277 -0.98147863
-0.4541528 0.15896758 -0.16453093 -0.63193077 -1.9428592 -4.444387 0.50426406 0.4438597
1.6046362 -0.6599555 0.33125347 -0.28382522 0.31276453 0.12392674 0.047475263 -0.44166306
-0.53823775 0.8182642 -0.5509737 0.037345394 -3.322582 0.9546395 -0.93434495 -0.51498187
-0.2886672 0.14012645 -0.43517855 -0.44471636 -0.14204091 1.1443828 -0.2736205 -1.4613007
0.59093857 -0.050737023 -0.6279031 0.8691201 0.35775092 -4.414157 0.32699522 -0.5617559
0.44361812 0.5855855 -0.91694 0.31060344 -1.0097615 0.23493803 0.08002881 0.01352693
-1.3029672 0.87404525 -0.5706154 1.517023 -3.2686653 4.6828647 0.015042533 -1.1612027
-0.29521945 -0.07769538 0.02984487 -0.27246258 -0.75965935 0.0815903 0.7956098 -0.39664117
0.6423034 0.8155695 0.39235955 -0.5002453 -0.13371433 1.5510905 -0.62356716 0.8543179
-1.176394 -1.5686257 -0.41908798 -0.7294395 -0.56551105 -0.1586403 0.22572635 -0.575868
0.0934067 1.5552673 1.4683535 1.9977844 -1.9123987 -2.1200128 0.077754095 0.01278005
-0.44390944 0.00846798 -0.15939966 -0.28660312 -0.23347351 -0.23498905 0.18544719 -0.039975975
-0.53926 0.3498876 1.5718292 2.1837888 6.7463264 1.3540903 0.33388776 0.37931678
0.46745467 -0.004271946 0.3702616 -0.26991737 0.19485226 -0.96573555 0.21754354 0.6443321
-0.3934217 0.5697727 0.2787595 0.85974586 -5.749218 2.5770533 -0.10409205 -0.06286895
0.3308647 -0.010427401 0.123582326 -0.29608217 0.19508782 -0.43225154 -0.039476387 0.080537155
1.7552203 0.86209464 -2.8351314 0.14895466 -2.9319174 -3.3282638 1.3430176 0.691428
-0.17815886 -0.29971853 0.025828239 0.15588276 0.35819852 -0.16262561 -0.31703174 0.2240458
2.0755002 1.5534599 0.89728576 0.5651517 -2.6588864 -0.8729938 -0.9282262 0.12996873
0.37052605 -0.61694646 -0.2037451 -0.018664373 0.15426984 0.7219442 -0.38982874 -0.6585476
1.057805 -0.8735092 0.9053193 -0.9503358 6.398468 -2.825485 -1.1177016 0.4164688
1.0456895 -0.7568742 -0.49271747 -0.25593188 0.054876804 -0.51288426 -0.56743836 0.23342045
-0.3205535 0.04579911 -0.06371318 0.67450666 6.913432 -2.8254986 0.3977584 -1.2321118
0.9785101 0.6893884 -0.06868513 0.9028133 0.4232303 0.10824576 -0.54216903 0.74677056
1.4613032 -0.6522023 0.6820987 -0.7220902 2.0778863 -3.9027486 0.05714437 -0.6155778
-0.5443448 -0.31222746 0.7848894 0.6348023 0.26593855 0.27556723 0.5422449 0.28622723
0.5907416 0.70135766 -0.58692586 0.4485412 -1.1219316 8.384005 0.39792007 -0.10224445

fc1.bias f4 [64]
00000000: 9727 8cbc 01de ca3f 1737 993f 0f6e c1be
00000010: 6bfa 33bf d7eb 5d3f 5d69 9e3f 708d 83be
00000020: 68a5 29be 33f9 183e 9b40 7c3e 508c b5be
00000030: 25e7 8b3f c044 af3f a313 063f d293 2a3f
00000040: ac03 bc3f 6ea0 b23f 39ed 883f 422e 9b3e
00000050: 1ceb 323f 2102 6b3f aca4 353f ec8f 263f
00000060: 7d1f 133f 8363 f23f 190b 09bf 5fb0 753f
00000070: 4cc1 4a3f 6007 b63f 37d9 df3f cfbb 77bf
00000080: c625 a83f fa26 b63f 0f1e 9f3f 7172 3f3f
00000090: d53d 393f 8b39 b23f 74ad 563f 2ba5 413f
000000a0: 9d44 89be d58f e9bd 3016 b43f 1f62 cb3e
000000b0: dcf4 83bf 4395 b5be 2884 2c3f e089 07bf
000000c0: 3f25 ca3f 3398 8f3e beff 7f3f ad32 27bc
000000d0: 07cc 423f 1649 d33e 0c47 4f3f e419 883e
000000e0: 59da 8b3f f36d f93e dcbd bfbb 8422 a1bf
000000f0: 84b7 fa3e e023 103f 671e 173f 0e99 843f
-0.017108722 1.5849 1.1969937 -0.3777928 -0.7030398 0.8668799 1.2375904 -0.25693846
-0.16567004 0.14938812 0.2463402 -0.35458612 1.0929915 1.3692856 0.52373713 0.66631806
1.468862 1.3955209 1.0697395 0.3030873 0.6989 0.91800123 0.70954394 0.6506336
0.5746992 1.8936619 -0.5353256 0.95972246 0.792012 1.4221001 1.7488164 -0.9677095
1.3136528 1.4230645 1.2431048 0.74784 0.72359973 1.3923811 0.8385842 0.7564265
-0.2681016 -0.11404387 1.4069271 0.39723298 -1.03091 -0.3546544 0.67389154 -0.52944756
1.5792617 0.28045806 0.99999607 -0.010204953 0.7609257 0.41266698 0.80967784 0.26582253
1.092601 0.48716697 -0.0058514904 -1.2588658 0.48968136 0.5630474 0.59030765 1.0359209

fc2.weight f4 [64, 64]
00000000: 5408 013f 0804 743f e4d9 f13e 37f9 e7be
00000010: 3615 2a3f 1948 20bf e2f5 993f 9349 e1be
00000020: 7d5d f7be b98c c1be 7e3e b93e 3b5d c63e
00000030: 9a73 693f f3ba 913e 19ef 383e 2b49 6bbf
00000040: 81d9 4c3f 51ec 0b3f 6830 0bbf 7d10 d53d
00000050: 4f48 61be ea70 c4be f100 cfbd 3021 86bf
00000060: e374 7cbf b344 38bd a348 0a3f f559 8f3f
00000070: c20e 27be 273a 473c edc0 e93e 2f88 f8be
00000080: bba4 063f 54ba a8be 1e3c 193f 9f23 c2be
00000090: e1e5 0ebe 4b64 5a3e 36e3 113f 82e7 163f
000000a0: 5ad3 5ebe c14e b33e 8bfe c93d a7ef 9c3e
000000b0: 2cdd 03bf 9162 93be 00aa 87be 1b72 2d3e
000000c0: abaf d1be 571d 093f cdff c7bd 36d2 a93c
000000d0: d4ce cc3e 1e3e 0f3e 8287 bbbe aecb 3abf
000000e0: 7408 393f fcad 563c 4d5f aabe 60e2 c9be
000000f0: e5b1 723e f3f3 35be d523 d03d ae20 813d
00000100: bde0 f8bf 95ff 3d3f 6531 fabe e200 87be
00000110: 9e07 74be edf7 8cbf 9c73 f3bd 5daf 03bf
00000120: 0477 6bbe f1c4 5ebf 90ff 653f d557 2c3f
00000130: 19cc f4be 1e5b b83d 351c d6bc a4cd 153e
00000140: 57b5 863e ee05 23bf 975a 6a3f d892 7a3e
00000150: df8d 5a3f e6e2 923e 3bf0 303e 27da 6dbe
00000160: ccf0 6bbc af37 dbbe a40c 75bf d3a3 cc3e
00000170: 6802 b6be 4be7 c93d 3289 3fbe 3d7d 91bf
00000180: 715a f83e 882c bdbd aef1 ef3e c342 253d
00000190: 3def bb3d dcf1 eb3e ef9e d4bd 8715 7bbf
000001a0: 6430 1f3e 3af8 f8be 6314 1a3f be76 b4be
000001b0: 58c3 9b3c 497a 27bf bd5b 133f f425 99bd
000001c0: 2231 b1bf c9b9 8d3e 187d 81bf 05e3 193e
000001d0: 2a86 89be cabf b1be ec78 e4be fb01 a4be
000001e0: f532 3c3f e018 1e3f ad3d c1bd 3096 07be
000001f0: 1aad 7ebe e9c2 b13e 6725 fe3e 2bb6 a13e
00000200: 3b38 233f ccfa 01bf 4611 8d3d db96 15be
00000210: e87f c73e 413f eb3d acfb db3e d7c9 dd3e
00000220: cc2a ae3e c4f6 8fbf 530b ab3e 2f38 48be
00000230: d5d7 1d3d 2c1c fc3e aab1 2fbd a50d 933f
00000240: 76d9 8dbe f846 bc3e 8472 b33e 6bbe e03d
00000250: d0dc 29bf 31de 28bf 8695 053f d438 0f3f
00000260: 85c7 d83e 9336 703f 0f29 35bf c85b 98be
00000270: 3867 3fbf a113 adbf afc0 9c3e e252 b33e
00000280: acd0 983f 0d0c 8d3f f99f 17be a185 c43e
00000290: 9470 68be 0301 363f 20fc 5fbe d6fd 3fbe
000002a0: 82d5 d33d 5e01 89be 5ac8 c4bc 138a edbc
000002b0: 2172 103f c895 843e 3055 403e c5c3 46bf
000002c0: 242d b1be 8e33 4f3e 8a34 b13b d1ca 3f3f
000002d0: f010 5b3d d3a5 c1bd 5933 92be 522c 02bf
000002e0: 3cc1 b93e bc1d db3e 8a3a 5b3f af19 133e
000002f0: 9b8f 873e 9842 ce3e da36 993d 69e7 503d
00000300: 9bef b6bf 26bf 483f 9467 123e 5742 e7be
00000310: 152b 5f3e ab3d f4be 21cd 51bd fb5a b83e
00000320: 4bba 01bf ee12 57be dc08 583e 3542 483f
00000330: d438 103f 11fe ee3d 8f33 323f eab1 d5be
00000340: 13c6 15bf 55b7 493f 23e4 5d3f 8f58 a5be
00000350: f093 5cbc 89d3 4c3f 5fda 46be 082e 373f
00000360: 66b9 20bf 74ca 26bf bf3f 533e 6c6f 143f
00000370: 622d 40be 7124 6bbd 21f8 ff3e a36a f4be
00000380: 4694 f93e 0eb4 403e bccf 12bf 0063 963e
00000390: 6d33 afbf 4b5c 923f cd8b c8be ed56 66bf
000003a0: a853 993d c4fb 353f 5beb 873d e578 e5be
000003b0: 3fbe 8ebd 50e2 d1be eb60 d0bd cbbc 5abf
000003c0: af4b 75bf d1cf b03f 4335 143f 4488 393f
000003d0: 51ee 43bf f7af 183f 40b3 f23d bc86 f5be
000003e0: b6a6 a43f 73bf 913d 78ba 13bd 376d 263e
000003f0: f06c aebf bbcf 063f 4681 0b3f ddb4 b73e
0.5040333 0.9531865 0.4723655 -0.45307323 0.66438615 -0.6261001 1.2028162 -0.44001445
-0.48313513 -0.37802675 0.3618049 0.38743004 0.9119202 0.28462943 0.18059959 -0.9190852
0.80019385 0.54657465 -0.5437074 0.104035355 -0.2200024 -0.38367397 -0.101076014 -1.0478878
-0.98615855 -0.04498739 0.54017085 1.1199328 -0.16314223 0.012159861 0.45655003 -0.485414
0.5259511 -0.32954657 0.59857357 -0.37917802 -0.1395488 0.21327321 0.5698732 0.58947
-0.21760312 0.35021022 0.09863003 0.3065159 -0.51509356 -0.28786138 -0.26496887 0.16938059
-0.40954337 0.53560394 -0.09765587 0.02073012 0.40001547 0.1398854 -0.36626822 -0.7296704
0.72278523 0.013103005 -0.33275834 -0.39430523 0.23700674 -0.1776884 0.101630844 0.06305061
-1.9443585 0.7421811 -0.4886581 -0.2636786 -0.2383103 -1.1013161 -0.11887285 -0.5143946
-0.2299462 -0.8701926 0.8984308 0.6732152 -0.47811964 0.09001754 -0.026136497 0.14629227
0.26310226 -0.63680923 0.9154448 0.24470079 0.8537273 0.28688735 0.1727914 -0.2322775
-0.014400672 -0.4281592 -0.95722413 0.39968738 -0.3554871 0.09858569 -0.1870468 -1.1366345
0.485065 -0.09237009 0.46864074 0.040346872 0.091764905 0.46082962 -0.10381877 -0.98079723
0.15545803 -0.48626882 0.6018736 -0.35246843 0.019014046 -0.6542097 0.57561857 -0.07477942
-1.3843119 0.27680805 -1.01163 0.15028007 -0.26860172 -0.34716636 -0.44623506 -0.3203276
0.73515254 0.61756706 -0.09435592 -0.13240886 -0.2487072 0.34719017 0.4963791 0.31584296
0.63757676 -0.5077331 0.0688806 -0.14608328 0.38964772 0.11486674 0.42965448 0.43318054
0.34017026 -1.1247182 0.33407077 -0.19552682 0.03853591 0.49240243 -0.042894043 1.1488539
-0.27704972 0.36772895 0.35048306 0.10973819 -0.6635256 -0.6596404 0.5218128 0.5594609
0.4233972 0.93833274 -0.70765775 -0.29757524 -0.74766874 -1.3521615 0.30615756 0.35024172
1.1938682 1.1019303 -0.14807118 0.383832 -0.22699195 0.71095294 -0.21873522 -0.18749174
0.10343458 -0.26758856 -0.024021316 -0.028996503 0.56424147 0.25895524 0.18782496 -0.7764247
-0.34604752 0.2023451 0.0054078745 0.7491885 0.05348295 -0.094554566 -0.285548 -0.5084888
0.3628024 0.42796123 0.856362 0.14365266 0.2647675 0.40285182 0.07481165 0.05100194
-1.4291872 0.7841667 0.14297324 -0.451678 0.21793778 -0.477033 -0.051221017 0.36006913
-0.50674886 -0.21003315 0.2109713 0.78226024 0.5633671 0.11669553 0.6960992 -0.417373
-0.5850536 0.7879537 0.86676234 -0.32294127 -0.013463005 0.8001028 -0.1941924 0.71554613
-0.62782896 -0.6515267 0.20629786 0.57982516 -0.18767312 -0.0574078 0.49993995 -0.47737607
0.48745936 0.18818685 -0.5734823 0.29372406 -1.3687569 1.1434416 -0.3916916 -0.8997639
0.07486659 0.7108729 0.06636687 -0.44818798 -0.0696988 -0.40992975 -0.10174736 -0.85444325
-0.9581861 1.381342 0.5789377 0.7247355 -0.76535517 0.596435 0.118505955 -0.47954357
1.2863376 0.07116594 -0.036066502 0.162526 -1.3626995 0.5266072 0.5449413 0.35880175

fc2.bias f4 [64]
00000000: e8dd 523f 5316 c93d 7b50 a33e 76c6 fa3e
00000010: 1a97 503e e951 8bbf 5f7e 11bf b44e c03e
00000020: b97b 2f3f 4cdd e6bb 8010 37be c09e 8d3e
00000030: 43e6 c73e c1c9 99bd 925b 97be 0807 3d3f
00000040: fd68 5a3c 2dd0 50bf 18a7 15bf 5fb7 84be
00000050: ca0b f63d bb58 5abf dbc5 0e3d bc45 9cbe
00000060: c903 103f cda4 9bbe ceb9 42be 1624 2abf
00000070: e497 22bf a333 9d3e 9026 55bf 67ee 47be
00000080: 1f71 5c3e 617b e63e 2787 023f 1745 b3be
00000090: dfce bcbd 1246 123f 690e 88bf aaf6 d33e
000000a0: 98b6 c73e b584 6c3f 08e0 d1bc 024f 923e
000000b0: 5ce6 eabb c228 b8be 3303 bfbe 5abf 87be
000000c0: c215 e13c ba0c 35be 4a80 f2bc c010 38bf
000000d0: 3186 5bbe f897 333e ecb8 8abe b466 513f
000000e0: 401b fd3b 2fe9 6cbe 5658 163f e5e5 10be
000000f0: d782 1e3f baa4 713e 863e acbe 56a2 763e
0.8236985 0.09818711 0.3189734 0.4897954 0.2037014 -1.0884372 -0.5683345 0.37560046
0.6854816 -0.0070454236 -0.17877388 0.2766018 0.39042863 -0.07509185 -0.2956205 0.73838854
0.013330695 -0.8156765 -0.5845809 -0.2592115 0.12013967 -0.8529164 0.03485666 -0.30521953
0.56255776 -0.3039917 -0.19016191 -0.6646131 -0.63513017 0.30703458 -0.83261967 -0.19524537
0.21527527 0.45016006 0.50987476 -0.3501365 -0.09219145 0.5713817 -1.0629398 0.41399127
0.39006495 0.92389995 -0.025619522 0.28575903 -0.0071685743 -0.35968596 -0.37307128 -0.26513177
0.027476195 -0.17680636 -0.029602189 -0.7190056 -0.21437909 0.1753844 -0.2709421 0.8179734
0.0077241957 -0.23135827 0.5872854 -0.14150198 0.61918396 0.23597994 -0.33641452 0.24085364

fc3.weight f4 [64, 64]
00000000: 774d 633f b18f 663e f438 b23e b28a 07bf
00000010: 0f7a 0840 3f15 9dbf aafa f6bf c648 13bf
00000020: df97 a53f b796 0b3f e382 ec3e 857a 7dbf
00000030: 04c0 f53a 39aa c23e 5471 633f 1046 ca3e
00000040: 3408 f73e ec0d 87bc 3408 26bf 8c65 9dbe
00000050: 3124 f83e fc7e 11bf 637a 1f3e 68f2 513f
00000060: c01d 443e 9317 8ebf 6032 513e 85df bb3e
00000070: ccd5 acbf bb1b 86be 38aa 36be 79ec b2bf
00000080: ec74 6a3e ebd9 23bf 45f3 87be 38e6 0cbd
00000090: f126 b4bf 58df 423e 9011 1c3e 5c8d c33e
000000a0: 82b6 bf3e 99f1 053f eee7 f6bd 7aef 64bf
000000b0: 1d23 c7bb 1397 b0be f0c7 babe cb6b 94bf
000000c0: ebad ee3e cc18 aa3e 22f1 053f 4e69 c5be
000000d0: c772 993e 9e7c 243e 4b5f 24bf 49cb 04bd
000000e0: f6d4 6fbf 1eb5 47be 2f98 34be 3161 66bc
000000f0: 6132 fbbe 1ba5 653f de16 533d 11df a23f
00000100: 29fd a2bd c343 693c 0b2c 023c ddc9 1abe
00000110: 8c8c 3f3c ce8a 02be f044 c3bc c7d1 25be
00000120: f6e2 19be 173b 89bd 9c97 1fbd fc8f 7dbd
00000130: e76f ffbd efae c2bc 4e6b 86bc 54ec fcbc
00000140: d679 eaba d621 9dbd 8cee f7bc e69f 01be
00000150: ee9b 39bd dd69 0bbe 377a e7bd 8e2a fabd
00000160: 13ae b1bd bff0 f6bd f03b 77bc e576 17bd
00000170: 2e40 c4bd c4d1 30be 74f4 693c 8df8 d4bd
00000180: f9a1 333d eaa2 fdbd a1db 3ebe d77c 5ebd
00000190: a1c4 9ebd 3ffc 8cbd c189 31bd f397 363c
000001a0: 58d1 33be 3b0c f1bc 4ed9 b9bd 0873 15be
000001b0: 5d8f 9abb 80a3 303d fcb0 a7bd 3e4a 87bd
000001c0: 035a 7d3d 6ad1 c23d a882 793d fd74 98bd
000001d0: 1667 0cbd 0334 cfbd 9db9 f63c b3ef 1b3b
000001e0: 58be f3bd 696c 7e3c 1d2c 25bd e50d d23b
000001f0: 3ffe f13c 0502 70bd 3f76 23be 91b3 7bbc
00000200: 2eba 7ebe 2f8d 813f f519 153f 1e84 d53e
00000210: a626 07be 1c47 85bf f6ca a3be c041 773e
00000220: c7de f0be 9d89 ce3f 5128 ebbd 6457 6a3e
00000230: e9a3 b63e 6c67 4c3f 50ec 1a3e ceee d13e
00000240: 940d 473f 3822 ad3d 6c1d 5abf f528 133f
00000250: e9b5 8b3f 74ba 893e 6261 a8be 0ec4 a23f
00000260: 488c 79bf 2fc3 61bf a0b1 02bd fc0d 49bf
00000270: 8e7c 99bf 62ba c63c 272c 62bf 0113 e2be
00000280: 79e8 e1be 5aad c7be 6043 12bf eb34 d1be
00000290: 92a6 46bf eaf5 f13e db8a b8be 86e4 ba3e
000002a0: f4b0 cf3e 3d94 923e 6924 d5bf 2a74 52bf
000002b0: 910b 9dbe 333d c43e df34 1dbf 747e 093e
000002c0: 295b 7fbe bd73 0dbf 0392 253c f416 85bf
000002d0: 872a 88bf 41de 7c3f 703d c43e ac21 babf
000002e0: 980f 19bf 2c64 76bf 44d1 bcbd 58b1 3cbf
000002f0: 61df d1bd f210 ee3e 80cd 633f d0c6 03bf
00000300: 8e34 103f abcb 643f d223 35bf c4ee 8e3f
00000310: 6b8c 9ebf d115 6d3e 6210 e63e 4645 1f3e
00000320: be44 2a3d 591b c6bf 4b6e 87bd e716 57bf
00000330: 72eb 363f a80f 60bf 71c2 9d3e f3b0 833e
00000340: d8a5 bbbf fcd0 b6bf fb44 b8be 26cd c3bf
00000350: f616 fe3e 4719 dabd 2c21 fdbe 999a e13e
00000360: d28e e5be ac79 44bb ef69 27c0 bf07 8c3f
00000370: c591 85be d033 9cbf ebc9 8cbf ce79 023f
00000380: 85e9 c1bf eaf1 d4bf 5350 013f ac4f 0dbf
00000390: 9b6c 2a3f df17 973d 0cdd 483f 2541 d53e
000003a0: 6bf9 963f 60f4 373f aba6 2ebf 02e9 3cbe
000003b0: 726b 803e 27df 13bf 86e5 edbd 1b1c 853d
000003c0: 4c32 d6bf e317 e8be 8f9e 623c 9f22 5a3e
000003d0: 9141 723f dbe7 1e3e 98b2 60bc 0c41 a0be
000003e0: d378 85bf fdf8 0ebf 337d 813d 46ba 653f
000003f0: e107 b83e aaff 98be 1277 e53e d01a 21bf
0.88790077 0.22515751 0.34809077 -0.5294601 2.1324499 -1.2272109 -1.9295247 -0.5753292
1.2936972 0.5452685 0.4619361 -0.99015075 0.0018749242 0.38020495 0.888448 0.39506578
0.48248446 -0.01648613 -0.64856267 -0.30741537 0.48465112 -0.5683439 0.1557403 0.8201051
0.19151974 -1.1100944 0.20429373 0.3669397 -1.3502746 -0.26193032 -0.17838371 -1.3978416
0.22896165 -0.6400439 -0.26552787 -0.03439924 -1.4074384 0.19030511 0.15241075 0.38193786
0.3744393 0.52321774 -0.12055956 -0.8942791 -0.006077184 -0.3449026 -0.36480665 -1.1595396
0.46617064 0.33222044 0.52321064 -0.38556904 0.2997038 0.16063163 -0.64207906 -0.03242043
-0.9368433 -0.19502684 -0.17636178 -0.014061258 -0.49061874 0.89705056 0.05153548 1.2724324
-0.07958443 0.014237347 0.007945071 -0.15116067 0.011691224 -0.12748262 -0.023836583 -0.16193305
-0.15027985 -0.067007236 -0.038962945 -0.061904892 -0.124725156 -0.023765055 -0.016408589 -0.030874409
-0.0017889093 -0.07672469 -0.030265115 -0.12658653 -0.04531472 -0.13614602 -0.113026075 -0.12215148
-0.0867578 -0.120576374 -0.015089974 -0.03697862 -0.09582554 -0.17267519 0.014279474 -0.1039897
0.04385564 -0.12384589 -0.1863847 -0.054318275 -0.07752348 -0.068840496 -0.043344263 0.011144626
-0.17560327 -0.029424777 -0.09074651 -0.14594662 -0.0047167973 0.043124676 -0.08188054 -0.066059574
0.06185342 0.09512599 0.06091562 -0.07444189 -0.034277998 -0.10117342 0.030117804 0.0023793995
-0.119015396 0.015528777 -0.040325273 0.0064103478 0.02954018 -0.058595676 -0.15963076 -0.015362636
-0.2487571 1.0121211 0.5824273 0.4170236 -0.13198337 -1.0412326 -0.31990784 0.24146175
-0.47044966 1.6135746 -0.11482299 0.228849 0.3567193 0.7984531 0.15129209 0.41002506
0.77755094 0.08453792 -0.85201144 0.5748437 1.091489 0.26900065 -0.32886797 1.2716081
-0.9747968 -0.8818845 -0.031907678 -0.78536963 -1.1991136 0.024258796 -0.8834862 -0.44155124
-0.44122675 -0.38999444 -0.57134056 -0.40860686 -0.77597916 0.4725793 -0.36043438 0.36502475
0.40564692 0.28628722 -1.6651736 -0.822085 -0.30672887 0.3832794 -0.614088 0.13427144
-0.24937119 -0.5525473 0.010105613 -1.039763 -1.0637978 0.9877663 0.38328123 -1.4541526
-0.5978942 -0.962466 -0.09219602 -0.73708105 -0.10247684 0.46497303 0.88985443 -0.5147524
0.5633019 0.8937327 -0.7075778 1.1166615 -1.2386602 0.23152854 0.44934374 0.1555377
0.041569464 -1.5477096 -0.066128336 -0.8401932 0.7145301 -0.8752389 0.3081241 0.2572094
-1.4659986 -1.4282527 -0.35990128 -1.5296981 0.49626893 -0.106493525 -0.4943937 0.4406326
-0.44835526 -0.0029979749 -2.6158407 1.0939864 -0.26087776 -1.2203312 -1.099912 0.5096711
-1.514939 -1.6636326 0.5051319 -0.55199695 0.6657197 0.073776 0.7846229 0.41651264
1.1794866 0.7185726 -0.68223065 -0.1844826 0.25081974 -0.5776238 -0.11616044 0.06499501
-1.6734099 -0.45330724 0.013831749 0.2130227 0.94631296 0.15518133 -0.013714455 -0.31299627
-1.0427498 -0.55848676 0.06322708 0.89737356 0.3594351 -0.29882556 0.44817406 -0.6293154

fc3.bias f4 [64]
00000000: d649 013e 8a03 55be 5a80 b2bd 3de9 59bf
00000010: 64db d43e c090 ffbe e60e ec3d 44f0 f3bd
00000020: f048 d6bd 433d e73e a872 7abd fb9e f63e
00000030: bb7f 9b3e 8bec 873c eef2 e13e 0a9b 0a3d
00000040: e191 5b3e fdd3 91be 7585 a5bb ded5 91be
00000050: 6286 60bd 5fca d03e 399d d5bf 7b35 0e3f
00000060: 6de7 a43e 0aa8 c43e 17c7 253f d39e 43bc
00000070: 1233 a03e 71f5 bd3e 08ac 263d 5d6f 82bf
00000080: 7199 c9be 2221 3abf 9a3f 58bf 91e3 d03e
00000090: c394 7dbe 83f1 20bd fb9c 5cbd d93d 89be
000000a0: e552 cfbb b921 0fbf a250 0ebf 8858 bbbf
000000b0: 844c c13e a3c4 e13d 5033 aabe 9c57 36bf
000000c0: f144 b0be 45a8 aebf 987a ba3d 3b8e 5dbf
000000d0: 735c 43bf 70a2 2cbf fc10 263f c02b 2dbe
000000e0: 83e1 62bf 11b9 26bf c93e 61be 4eed 8cbf
000000f0: 9dd6 5f3e dcee f0be 5670 5abe b39d c23e
0.12625822 -0.20802131 -0.08715887 -0.8512152 0.41573632 -0.49915123 0.11526279 -0.119110614
-0.104631305 0.45163926 -0.0611445 0.48168167 0.30370888 0.016592285 0.44130653 0.033839263
0.21442367 -0.28482047 -0.0050513097 -0.2848348 -0.054815657 0.40779397 -1.6688606 0.55550355
0.32207814 0.38409454 0.6475691 -0.011939722 0.31288964 0.3710132 0.040691406 -1.0190235
-0.3937488 -0.72706807 -0.8447205 0.4079862 -0.2476378 -0.039292824 -0.053860646 -0.26805
-0.0063270205 -0.5591083 -0.55591786 -1.4636393 0.3775369 0.110238336 -0.33242273 -0.7122743
-0.34427598 -1.3645102 0.09105414 -0.8654515 -0.7631294 -0.6743536 0.64869666 -0.1691122
-0.88625354 -0.6512614 -0.21996607 -1.100992 0.21859212 -0.47057235 -0.21331915 0.3801094

action_out.weight f4 [5, 64]
00000000: c058 873e a5a3 de3d 749f 49be 1058 56bd
00000010: 3728 41c0 d29f 2a3f a1bd f83f 13dd ebbd
00000020: c357 1a3f 7b97 1bbf 6a8f babe 5195 703e
00000030: facb 50bf f210 a9be 96ec 76bf 1f95 69be
00000040: a82a b73d 0fdf 2740 2d54 4b3f 8251 9b3e
00000050: 3f5d e3bd 9fc1 75bf 661f 4ebe 597f 05bf
00000060: bf17 aebe be62 30bf 8b7d fcbf cabe f43c
00000070: c560 f9bf b3cd e43f 41c6 a6bf 5ae9 b13e
00000080: 298d b63d 303c dfbf 13c5 a73f c279 12bf
00000090: 649f 9ebf 2ff7 5dbf a8d6 3c3e 2c42 05bf
000000a0: 30e1 683f 63f3 8e3f d609 963f 6fa5 6e3f
000000b0: 372c 233f e725 89bd db51 243f 2c48 253f
000000c0: 99cb fe3d 8672 303f 193a d23e 3cd5 8f3f
000000d0: 20fa 54be 81d1 253f 6039 4e3f 4d7c e53e
000000e0: f9eb 9abf 7a81 8ebe 81e8 37bf e664 1a3f
000000f0: d43a 7fbf 5611 26bd 8c4f a7bf 45ad 273e
00000100: 9434 a1bf e5c1 49bc 9d1b c23f 4ee9 823e
00000110: 146a 02bf 1f71 a0bf 50fe 90be 6203 653e
00000120: d09a febe c015 45bf e41e 513e 7439 ddbc
00000130: bc13 8cbf 44f2 003f ee81 1d3f 965c a33e
00000140: adaf 10bf 5c3a a03e 1928 d7bf dec3 cb3f
00000150: ff7a 2d3d 3738 393e 6c73 8d3e aabb 273f
00000160: 76cf 31be 2cbe 42bf c105 253e 655e 90bc
00000170: e583 9b3c d1bf b63f 8c46 ecbe bf60 7ebf
00000180: 32e6 ef3e ee76 afbf 0b8c 983e d6fe 813e
00000190: cae7 0bbf ff3d af3f 019a 833e b2b6 4d3f
000001a0: b38b 8a3f 9bd3 a9bf 6707 fa3f 23a6 85bf
000001b0: fe5d 0d3f 9717 3cbf eba9 cdbf e37a 0ec0
000001c0: c9c9 7d3e 7d33 f33f 8968 af3f 092e 453e
000001d0: 933c f8bd 8182 a4be aec3 ec3e 3eb9 273f
000001e0: d2f7 be3f 23f3 fd3f 6a9d 833f fbb9 b33f
000001f0: a193 2dbf ddd7 ca3d 78a5 213f 67f6 063e
00000200: 2b54 043f afa9 a83c d888 cbbf e392 843f
00000210: dd23 b6bd 7ff7 0c3f e2c6 b0bd 3c69 4ebf
00000220: fc96 24be e1a6 df3e f24f e7bd a636 d23f
00000230: b802 893f baeb d3bf 2c59 1cbf 43fc a4be
00000240: 5a9f 803f 2d65 a4be 3896 3b3f 5b0a a8bf
00000250: bbbd 42bd 0a70 9d3f b110 b13f 2eae c7be
00000260: a9c2 573e 7481 6e3f 1c85 0ebf f38a 32bf
00000270: 24c6 db3d 062a 8cbf 2891 023e 8df4 77be
00000280: cc5d f63e 9910 ce3c 136e 00c0 551e ad3e
00000290: 645d 92bf e1a4 afbf 7062 ad3e e9b0 69bf
000002a0: cd12 6cbf 5c67 aa3e 94cd babf ad0b 8b3e
000002b0: cc1b 1abf fb84 3e3f 6d6c 0240 1be1 a43f
000002c0: 26ed 20bf 9735 eebf 350b bcbf 5de1 b53f
000002d0: 344a babe 1bde 9a3f 6c3a d03e df57 d83d
000002e0: 03bc 74bf 633f 7bbf 2a75 60bf 8a9b 96bf
000002f0: 145e 8a3f 3f7b 83be 079e 9fbf 156b 41bf
00000300: 0518 ed3e 7999 173d e4cc 663f 7276 a83f
00000310: d49f 80be 8928 44bf fa2d 53bf 6fac 9d3f
00000320: d163 ff3e 960b ba3f 5e9a 183f 19c8 f83e
00000330: a006 be3e b1cb 553f 7b4d a33f 0401 843f
00000340: a049 383f 53f9 f1be f78e 5f3f faab 1c3f
00000350: 95ff 8abd 2ed2 02c0 5311 afbe 1d47 203f
00000360: 1e71 cabf 2d68 81bd db62 9f3f c904 1cbf
00000370: 93d2 17bd b5b1 8ebf af65 8fbf a7f7 b93d
00000380: 8576 0240 41f0 a5bf 0903 663f 5899 153f
00000390: f85b cd3e a241 7d3e c278 e5bf 75a4 293f
000003a0: 9bf3 4c3e 5fdf 08bf 4bbb 843f 00a5 15bf
000003b0: 2ace 56bf 0ea2 653f 142b 3e3f 6b39 21bf
000003c0: 7cef 8ebf ad7e 39bf d6cc 5b3f 6a41 0b40
000003d0: 712a a9bf 577a e8bf 998b d4bf af83 5fbe
000003e0: 4d7a c1be cd1e 8d3f cb8b 093f 6d41 08bf
000003f0: 345d 9cbf 5572 d1be 1e9c 173f 4c2c d93f
0.26434898 0.108710565 -0.19689733 -0.052330077 -3.0180795 0.66650116 1.943287 -0.11516776
0.60290164 -0.60778016 -0.3643754 0.2349446 -0.81561244 -0.3302074 -0.9645475 -0.22810791
0.08943683 2.6229894 0.7942532 0.30335623 -0.1110177 -0.9599857 -0.20129165 -0.5214744
-0.34002492 -0.6890067 -1.9725813 0.029876132 -1.9482657 1.7875274 -1.3029252 0.34748346
0.08913643 -1.7440243 1.3107017 -0.5721704 -1.2392392 -0.867053 0.1844126 -0.52054095
0.9096861 1.1168026 1.1721752 0.9322118 0.6373934 -0.066966824 0.641874 0.6456325
0.12441177 0.6892475 0.4105995 1.1236949 -0.2079854 0.647728 0.805563 0.44821396
-1.2103263 -0.27833158 -0.7183915 0.6031021 -0.9969914 -0.040543877 -1.3071151 0.16374691
-1.259417 -0.012314294 1.5164677 0.25568622 -0.5094311 -1.2534522 -0.28319025 0.22364572
-0.49727488 -0.7698631 0.2042194 -0.027004935 -1.0943522 0.5036967 0.6152638 0.31906575
-0.5651806 0.31294525 -1.6809112 1.5919149 0.042353626 0.1808785 0.27627122 0.6552073
-0.17364296 -0.7607143 0.16115476 -0.017623136 0.01898379 1.4277288 -0.46147573 -0.9936637
0.46855313 -1.370817 0.29794344 0.25389737 -0.5465056 1.3690795 0.25703433 0.80356896
1.0823883 -1.3267702 1.9533509 -1.0441326 0.55221546 -0.73473495 -1.606748 -2.2262504
0.24784006 1.9000088 1.3703777 0.19255842 -0.121209286 -0.32130817 0.46243042 0.6551703
1.4919379 1.9839824 1.0282414 1.4041132 -0.6780339 0.09904454 0.6314311 0.13179933
0.5169093 0.020588724 -1.5901136 1.0357326 -0.08893559 0.5506515 -0.08631684 -0.80629325
-0.16073221 0.43682006 -0.11294545 1.6422927 1.0703955 -1.6556313 -0.61073565 -0.3222371
1.004863 -0.3210844 0.7327609 -1.312816 -0.047544222 1.2299817 1.3833219 -0.39000076
0.2107035 0.9316628 -0.5567186 -0.6974327 0.10731152 -1.0950325 0.12750685 -0.24214382
0.48118436 0.025154399 -2.0067184 0.33812204 -1.143475 -1.3722192 0.33864164 -0.9128557
-0.9221619 0.33281982 -1.4593987 0.27157345 -0.60198665 0.7442166 2.0378678 1.2881197
-0.6286186 -1.8610104 -1.469092 1.42094 -0.36384737 1.2099031 0.40669572 0.10563635
-0.95599383 -0.98143595 -0.8767878 -1.1766217 1.080996 -0.25679967 -1.2470101 -0.7555402
0.46307388 0.037011597 0.9015639 1.3161147 -0.2512194 -0.7662435 -0.8249203 1.2318248
0.4988084 1.4534786 0.59610546 0.48590162 0.3711443 0.83513933 1.275802 1.031281
0.7198734 -0.47260532 0.8732752 0.61199915 -0.0678703 -2.0440784 -0.34192905 0.6260851
-1.5815771 -0.06318698 1.2452043 -0.609448 -0.037066054 -1.1147982 -1.1202906 0.09080439
2.0384839 -1.2963945 0.8984838 0.5843711 0.4010923 0.24732068 -1.7927477 0.66266567
0.20014803 -0.5346584 1.0369657 -0.58454895 -0.8390833 0.897004 0.7428448 -0.6297824
-1.1166835 -0.72458917 0.8585943 2.1758676 -1.3216077 -1.8162335 -1.6605102 -0.21827577
-0.3778862 1.1025025 0.5372893 -0.5322483 -1.2215943 -0.4090754 0.5922259 1.6966643

action_out.bias f4 [5]
00000000: ec65 cabe e0e6 943d 2ae9 6c3e 6fe4 983e
00000010: 8859 83be
-0.39530885 0.072705984 0.2313582 0.2986178 -0.25654244
