Coop Navi/MADDPG-master/model/simple_tag/agent_0/2_critic_params.pkl (torch, 52175 bytes, 7 tensors)

fc1.weight f4 [64, 63]
0	0xbf9191e8	-1.1372652
1	0x3dad5a5c	0.084645
2	0x3d0b5ede	0.03402602
3	0xbe2f8b77	-0.17143045
4	0xbe6dccab	-0.23222606
5	0x3e3131c3	0.17304139
6	0xbe0d7157	-0.13812767
7	0x3f01d648	0.5071759
8	0x3f891e1d	1.0712315
9	0x3eeaf9ca	0.458937
10	0x3f355804	0.70837426
11	0x401b7e26	2.4295745
12	0xc0632099	-3.5488646
13	0x407def43	3.9677284
14	0xc01c6434	-2.443616
15	0x4018ace0	2.3855515
16	0x3f81f6fb	1.0153497
17	0x3f3c43c9	0.7354093
18	0xbcd9858c	-0.026552938
19	0x3ed08545	0.40726677
20	0xbd89702c	-0.06710848
21	0xbe976c2b	-0.29574713
22	0xbe87b5b8	-0.26505828
23	0x3e214f0a	0.15752807
24	0xbf5f640f	-0.8726205
25	0xbf1fd70d	-0.62437516
26	0x3e804245	0.2505056
27	0x4022c24e	2.5431094
28	0xc059b982	-3.4019475
29	0x409578ee	4.671012
30	0xc00eef72	-2.2333646
31	0x4020f3d2	2.5148816
32	0xbd9108c4	-0.0708175
33	0x3fa22d17	1.267001
34	0x3df3700f	0.11886608
35	0x3ed2ef51	0.4119821
36	0xbe9178b6	-0.28412408
37	0xbf18ee32	-0.5973846
38	0xbe8e9baa	-0.27853137
39	0xbea8be72	-0.32957798
40	0xbf2f7cca	-0.6854979
41	0xc02293a6	-2.5402617
42	0xbe02b16d	-0.12762995
43	0xc017a2fe	-2.3693233
44	0xc088427e	-4.2581167
45	0x4044ab71	3.072964
46	0xc0189e18	-2.3846493
47	0x401605ca	2.3441033
48	0xbe77d89b	-0.24203722
49	0xbf42c12d	-0.7607601
50	0xbe78e9db	-0.24307959
51	0x3daaf2ba	0.08347078
52	0xbf2baa97	-0.67057174
53	0xbe308084	-0.17236525
54	0x3f38ab3a	0.7213627
55	0x3f1818fc	0.59413123
56	0xbe387667	-0.18013917
57	0xbde35c09	-0.11101539
58	0xbdd0bb22	-0.10191943
59	0xbec20134	-0.37891543
60	0x3f15aa79	0.58463246
61	0x3ecd9564	0.40153039
62	0xbf2f0124	-0.68361115
63	0x3f399df1	0.72506624
64	0x3e82aa87	0.25520727
65	0xbefbbdff	-0.49168393
66	0x3ee6c5bf	0.45072743
67	0x3f1b183a	0.6058384
68	0x4075eca5	3.8425686
69	0xbed719ba	-0.42011815
70	0xc03e8d47	-2.977373
71	0x3f1330be	0.5749625
72	0x3e1bc55a	0.15212002
73	0xbff4df0b	-1.9130567
74	0xbf77037d	-0.964897
75	0x3f0d8c20	0.5529194
76	0x400725ee	2.11169
77	0x3dae58e0	0.08513045
78	0xbeb100b1	-0.3457084
79	0x3e238495	0.15968545
80	0xbd502bd3	-0.050823044
81	0xbedb5220	-0.42836094
82	0x3f6a399b	0.9149415
83	0x3f6cf80f	0.9256601
84	0x406b0b37	3.6725595
85	0xbf24f0a5	-0.64429694
86	0xc04cd881	-3.2007143
87	0xbf1ba3ca	-0.607968
88	0xbe2f9cd4	-0.17149669
89	0xc023ed1a	-2.5613465
90	0xbfc00a25	-1.5003096
91	0xbf18501d	-0.59497243
92	0xbf33e0f5	-0.7026513
93	0xbab5b500	-0.0013863146
94	0xbe26a238	-0.16272819
95	0xbf3dbd3a	-0.7411686
96	0xbf4ec23a	-0.80765116
97	0xbd198376	-0.037478887
98	0x3cf81494	0.03028325
99	0x3ea0eb6b	0.3142961
100	0x409a8218	4.8283806
101	0xbe980953	-0.29694614
102	0xc022fff6	-2.5468726
103	0x3fe09caf	1.7547816
104	0x3f7cd05d	0.9875544
105	0x40286a62	2.631493
106	0x3fd49b7b	1.6609949
107	0x3ea05743	0.31316575
108	0x3fc6b6ea	1.5524571
109	0xbbde0f7f	-0.0067767496
110	0xbe82b029	-0.25525025
111	0x3df77288	0.12082392
112	0x3c6bf274	0.014401067
113	0xbe218c17	-0.15776096
114	0xbe9ac9bd	-0.3023204
115	0xbe023d6e	-0.12718746
116	0x3eed061a	0.46293718
117	0xbe1b83fa	-0.15187064
118	0xbe31d579	-0.1736659
119	0xbece8e1c	-0.40342796
120	0x3ea2fb3d	0.31832305
121	0x3e60c3f0	0.21949744
122	0x3d9da47e	0.0769739
123	0xbe52c5c7	-0.20583259
124	0x3f4c27ae	0.79748046
125	0xbefbc45e	-0.49173254
126	0xbf38faf7	-0.7225794
127	0x3d9c1f18	0.07623118
128	0xbde0d23e	-0.109776005
129	0x3f2ecc54	0.6828053
130	0xbea7e7d9	-0.32794073
131	0xbf0d3cb8	-0.55170774
132	0x3e9d5396	0.30727834
133	0xbe979316	-0.29604405
134	0xbef218ef	-0.47284648
135	0x3e94f16a	0.29090434
136	0x40b4d3a8	5.650837
137	0xc03c8075	-2.9453404
138	0xc12612ee	-10.3796215
139	0x40b9c152	5.8048487
140	0x3dbd4f44	0.09243634
141	0x3ecaa936	0.39582223
142	0xbeaa0fc9	-0.33215168
143	0xbe98f0cb	-0.2987121
144	0xbe77a438	-0.24183738
145	0x3e0f534f	0.13996623
146	0x3ead8510	0.3389058
147	0xbe7683be	-0.24073693
148	0xbdbf365f	-0.09336542
149	0x3d064a13	0.032785486
150	0x3f18a8ce	0.59632576
151	0xbee046af	-0.43803927
152	0x40824a52	4.0715723
153	0xc058ef8b	-3.3896205
154	0xc1034489	-8.204232
155	0x40ab708b	5.357488
156	0xbc1dbfec	-0.009628277
157	0x3e80c10d	0.25147286
158	0x3ec5629a	0.3855179
159	0xbeae0ecb	-0.3399566
160	0x3dd8a66f	0.1057862
161	0xbeded63a	-0.43522817
162	0xbdb873b5	-0.09006444
163	0x3ec8d613	0.39225826
164	0x3ce31fc7	0.027725114
165	0x3df6f040	0.12057543
166	0xc0b80c14	-5.7514744
167	0x40435c5d	3.0525124
168	0xc088402a	-4.2578325
169	0x40659c15	3.5876515
170	0xc19f9c4d	-19.951319
171	0x4131a124	11.101841
172	0x3e01d1c4	0.12677675
173	0x3e8c5b24	0.27413285
174	0xbe0257e7	-0.12728845
175	0xbe14f7e7	-0.14547692
176	0x3d875a74	0.066090494
177	0xbe1338bc	-0.14377111
178	0x3dd1163e	0.102093205
179	0x3c42a41e	0.011879949
180	0xbdab9fd7	-0.083800964
181	0x3e672585	0.22572906
182	0x3d8eaab3	0.06966152
183	0xba827f74	-0.0009956197
184	0x3dea1ff4	0.11431876
185	0xbcbad149	-0.022804873
186	0x3cbbce36	0.022925477
187	0xbdd2bf8f	-0.10290443
188	0x3ec2760c	0.37980688
189	0x3edc66b4	0.43047106
190	0x40361d3f	2.845535
191	0x3da1b919	0.07896633
192	0x3f04b780	0.518425
193	0xbedc37b9	-0.43011263
194	0xbeb674c1	-0.3563595
195	0x3dee5778	0.11637777
196	0xbd656b07	-0.056010272
197	0x3f2d11b0	0.67605114
198	0x3e8ef77e	0.27923197
199	0xbf861e97	-1.0478085
200	0xbf59942a	-0.84991705
201	0xbe94da6c	-0.29072893
202	0x3ffae421	1.960087
203	0xbe0f198d	-0.1397459
204	0x3edef436	0.43545693
205	0xbf601a27	-0.87539905
206	0x3fdae499	1.7101012
207	0xbdc678bc	-0.09690997
208	0xbd1368d6	-0.03598865
209	0x3e5c2869	0.2149979
210	0x3d8608f2	0.06544675
211	0xbe4f7702	-0.20260242
212	0x3e6d68b9	0.2318448
213	0xbefa3e27	-0.48875543
214	0xbe872394	-0.2639433
215	0x3d6d2a67	0.057901766
216	0x3e75560f	0.2395861
217	0xbcf959ee	-0.03043839
218	0x40c8d6eb	6.276235
219	0xbd9085c0	-0.07056761
220	0x3f131b59	0.57463604
221	0xbfdef83c	-1.7419505
222	0xc1064ffc	-8.394527
223	0xbe78d17c	-0.24298662
224	0xbd776a6b	-0.060404222
225	0xbe34d2f8	-0.17658603
226	0x3f35bc6a	0.7099062
227	0x3e777467	0.24165498
228	0x3c90738d	0.017633224
229	0x3fa4b629	1.2868091
230	0x3f3f38c6	0.74696004
231	0xbe26a9f0	-0.16275764
232	0xbe9b6a44	-0.30354512
233	0xbf055693	-0.52085227
234	0x40cb8a10	6.3606033
235	0x3d810554	0.062998444
236	0x3f0a4787	0.5401539
237	0x3ebda2c0	0.3703823
238	0x3cf0c0d0	0.029388815
239	0xbf1de4dd	-0.6167734
240	0x3ff5dee9	1.9208652
241	0xbf9ce4cc	-1.2257323
242	0xbe959035	-0.29211584
243	0xbe09e5fd	-0.1346664
244	0xbe6c6398	-0.23084867
245	0x3e242620	0.16030169
246	0xbd53f51b	-0.051747423
247	0x3d82e014	0.06390396
248	0xbfa2b6e1	-1.271206
249	0x3f556cba	0.8336903
250	0xc02943b8	-2.6447582
251	0x4059103f	3.3916166
252	0xbe73a450	-0.23793149
253	0xbebf83b3	-0.37405166
254	0xbebcbcec	-0.36862886
255	0x3da64d42	0.081202045

fc1.bias f4 [64]
0	0xc0d992dc	-6.799177
1	0xc1022d9b	-8.136134
2	0x3f8f1b77	1.1180257
3	0xc00c0fed	-2.188472
4	0x3e2d8907	0.16946803
5	0x4170eb64	15.057468
6	0xbfe23bdc	-1.7674518
7	0xbeef6a77	-0.46760914
8	0x3eab9cb1	0.33517984
9	0x3f6c4b6d	0.9230259
10	0xbfba0dfd	-1.4535519
11	0x403cf35f	2.9523542
12	0x3f6a0ef3	0.9142906
13	0xc0465563	-3.0989616
14	0x3ed67fc7	0.4189436
15	0x415078e1	13.029511
16	0x3eca5139	0.39515093
17	0xbf69afb5	-0.9128373
18	0x3d54e95c	0.05198036
19	0xc1255ae8	-10.334694
20	0x3e198af2	0.1499441
21	0xbf1409a4	-0.5782721
22	0x3dc094dd	0.094033934
23	0xc07acd5e	-3.9187846
24	0xc02be51d	-2.685859
25	0x3f440a20	0.7657795
26	0xc10570ff	-8.340087
27	0x4139d766	11.6150875
28	0xc1574be1	-13.456025
29	0xbfa7e014	-1.3115258
30	0x3ed08cde	0.40732473
31	0xbfbb0e3f	-1.4613723
32	0xc04e6fd7	-3.2255762
33	0x4189dafb	17.231924
34	0xbd59cfbe	-0.053176634
35	0x40196c0e	2.3972201
36	0xc1009f4c	-8.038891
37	0x3e9611a8	0.29310346
38	0xbf089a04	-0.5336001
39	0x3e0e5923	0.1390119
40	0xbf1b2827	-0.6060814
41	0xbec6f18f	-0.3885617
42	0xc10231a8	-8.137123
43	0x417cec60	15.807709
44	0xc1284695	-10.517232
45	0x3eab37c8	0.33440995
46	0xc116078f	-9.376845
47	0x3f26ecb6	0.6520494
48	0xc0341e02	-2.8143315
49	0xc0e07f3a	-7.0155306
50	0xc0d55e18	-6.667736
51	0xc0b9b752	-5.803628
52	0xbe908552	-0.28226715
53	0xc0db7c67	-6.858936
54	0xc1292546	-10.5716
55	0xbed380f8	-0.41309333
56	0xbf986c3a	-1.1908028
57	0xc0e7f36e	-7.2484655
58	0x405987d5	3.3989155
59	0xbe899c86	-0.2687723
60	0xc0c009c6	-6.001193
61	0xc15be62e	-13.743696
62	0xc0046c73	-2.0691192
63	0xbf8bfb20	-1.0936012

fc2.weight f4 [64, 64]
0	0xbfa3fc66	-1.2811401
1	0x3e436e96	0.19085154
2	0xc04817b2	-3.1264462
3	0xbf702fff	-0.93823236
4	0x3f20e54f	0.628499
5	0x3f1e4e85	0.6183856
6	0xbfd45393	-1.6588005
7	0xbf494e37	-0.7863497
8	0x3fbdfa60	1.4842033
9	0x3f85021b	1.0391268
10	0x3fc9e573	1.5773147
11	0x3ed936e8	0.42424703
12	0xbfe37ea3	-1.7773021
13	0xbee2594e	-0.4420876
14	0xbcf1f7fe	-0.029537197
15	0x3fa0d029	1.2563525
16	0x3e8e1bdc	0.2775563
17	0x3e8210b0	0.25403357
18	0xbf869955	-1.0515543
19	0xbf2f0153	-0.68361396
20	0x3f6b5545	0.91926986
21	0x4055621d	3.3341134
22	0x3f5cbdcb	0.862271
23	0xbf75ae61	-0.95969206
24	0xbd2e54e6	-0.042561434
25	0xbfad0987	-1.3518533
26	0xbfcba9ad	-1.5911156
27	0x3f04a45d	0.518133
28	0x405afa03	3.4215095
29	0x3f8017bd	1.0007244
30	0x3f0efc8a	0.55854094
31	0xc01ad7e4	-2.419427
32	0x3eb698a2	0.35663325
33	0x3ea171dd	0.31532183
34	0x3f3680fa	0.7129055
35	0xbe5f4af9	-0.21805944
36	0xc0e18286	-7.047183
37	0xc00c33c6	-2.19066
38	0x3feac959	1.8342696
39	0x3e9840fa	0.29737073
40	0x402276d7	2.5385034
41	0x3f5a1ca4	0.8519995
42	0xbe536f16	-0.20647845
43	0xbe7ee8e9	-0.24893536
44	0xc067645d	-3.6155007
45	0xbef9d8b6	-0.4879815
46	0x4006e98e	2.108005
47	0xbf3b54c6	-0.7317623
48	0x3faa81ff	1.3320922
49	0x3f849620	1.0358315
50	0xbf912339	-1.1338874
51	0x3fcb1fdc	1.5869098
52	0xc0399008	-2.899416
53	0x3fcfd612	1.6237204
54	0xc02a7359	-2.6632903
55	0x3faaa42c	1.3331351
56	0xbfb3c205	-1.4043585
57	0x3f65ab4b	0.897145
58	0xc0447fd1	-3.0703013
59	0x3e83a058	0.2570827
60	0xbeb54403	-0.3540345
61	0x3d9d0fc2	0.07669021
62	0xbfef2771	-1.8683912
63	0xbf64cae7	-0.89372104
64	0xbe6f8d18	-0.23393667
65	0x3f5da350	0.8657732
66	0x3f167a15	0.5878003
67	0x3f214ec8	0.63010836
68	0xbe7e5ccb	-0.24840085
69	0xc009eca9	-2.1550696
70	0xbe9dd8cb	-0.30829462
71	0x3f0d054a	0.55086195
72	0x3e13477e	0.14382741
73	0xbf7eb6bb	-0.99497575
74	0x3d26d228	0.040727764
75	0xc01c534e	-2.4425845
76	0xbd913060	-0.07089305
77	0x3f8db35c	1.1070361
78	0xbf2f7c5f	-0.6854915
79	0xc02b3f59	-2.6757414
80	0x3f127f17	0.57225174
81	0xbe9f6f6b	-0.31139693
82	0x3ed4ab5f	0.41536996
83	0xbf64efe3	-0.8942854
84	0xbe9b2cb7	-0.30307552
85	0xbf66a44c	-0.9009445
86	0x3cc20939	0.023686038
87	0xc01d12cc	-2.4542723
88	0xbf897fe6	-1.0742157
89	0x3f4a32b7	0.78983635
90	0xbf4b7234	-0.79471135
91	0xbfcadb96	-1.5848262
92	0xbf4b964c	-0.7952621
93	0x3f179ec1	0.59226614
94	0x3edac505	0.4272844
95	0xbece856b	-0.40336165
96	0xbd986528	-0.07441169
97	0xc0a12d4c	-5.0367794
98	0x3d097a3f	0.03356385
99	0xbffd22a0	-1.9776192
100	0xbf91a173	-1.1377395
101	0x3f284188	0.6572499
102	0x3f71bc80	0.94428253
103	0x3ed9dfaa	0.42553455
104	0x3d9e2712	0.07722296
105	0xbed8a777	-0.42315266
106	0xbf30f34a	-0.6912123
107	0xc08dc836	-4.43069
108	0x3ec89507	0.391762
109	0xbfcee255	-1.6162821
110	0xbf315440	-0.6926918
111	0xbf981ea4	-1.1884351
112	0xbf40bc5c	-0.75287414
113	0xbf68a7d1	-0.9088107
114	0x3ee09385	0.43862548
115	0xbee218b4	-0.44159472
116	0x3f29a1ad	0.6626232
117	0xbebff26b	-0.37489638
118	0xbca401dc	-0.020020418
119	0xbe9f0da5	-0.31065097
120	0x3f237c09	0.6386114
121	0x3eef321c	0.46717918
122	0xbf1dc5af	-0.61629766
123	0xbe630db3	-0.22173195
124	0xbfb820b7	-1.4384984
125	0x3f899743	1.0749286
126	0xbf7705d8	-0.9649329
127	0xbead73c8	-0.33877397
128	0xbf11d222	-0.5696126
129	0xbf0696cb	-0.5257384
130	0xbe3ecb45	-0.18632229
131	0xbf08930a	-0.53349364
132	0x3f4ce1df	0.8003215
133	0x404c2149	3.1895316
134	0xbdcfdf97	-0.10150068
135	0xbe64affd	-0.22332759
136	0x3d9831eb	0.07431396
137	0xbe79c342	-0.24390891
138	0x3bfdd6fa	0.0077465745
139	0x3e61dc2d	0.22056647
140	0xbe99c2ac	-0.30031335
141	0xbf82037a	-1.0157311
142	0x3e5518c9	0.20810236
143	0x3f980a2a	1.1878102
144	0xbdf1613d	-0.11786125
145	0xbd636565	-0.05551662
146	0xbf4bd007	-0.796143
147	0xbf185203	-0.5950014
148	0x3e3ecbc0	0.18632412
149	0xbe4aecd0	-0.198169
150	0x3f426fbe	0.75951755
151	0xbf908a8e	-1.1292284
152	0x3e71eede	0.23626277
153	0x3ecad1b8	0.39613128
154	0xbd9e3ede	-0.07726835
155	0x3eac6e44	0.33677876
156	0x403bde52	2.9354444
157	0x3f1f0124	0.62111115
158	0xbe91db4c	-0.28487623
159	0xbf4a7930	-0.7909117
160	0xbf7fef10	-0.99974155
161	0x3ff07282	1.8784945
162	0xbeace599	-0.3376892
163	0x3e6ba196	0.23010859
164	0x3f4bff5f	0.7968654
165	0x3c2cc2f4	0.010544527
166	0xbf868811	-1.0510274
167	0xbe8f9146	-0.28040522
168	0x3f2475f3	0.64242476
169	0x3f96cf5a	1.1782029
170	0xbedc417e	-0.43018717
171	0x3fec45a0	1.8458748
172	0x3fc0af11	1.5053426
173	0xbe8719f3	-0.26386985
174	0xbe376e18	-0.17913091
175	0xbf90c07f	-1.1308745
176	0xbebcd417	-0.36880562
177	0xbe857337	-0.26064464
178	0xc0026d25	-2.0379117
179	0xbf056c0a	-0.5211798
180	0xbeea96de	-0.45818228
181	0xbf93c630	-1.1544857
182	0x3f9b4e38	1.2133245
183	0x3f2963f8	0.66168165
184	0xbedbf33e	-0.42959017
185	0x3f3293f5	0.69757015
186	0xbe93cb43	-0.28866014
187	0x3dbc930e	0.09207736
188	0x3e7d17ec	0.24716157
189	0x3fe94326	1.8223617
190	0xbf20ce3a	-0.62814677
191	0x3eef6810	0.4675908
192	0xc0b23aa2	-5.5696573
193	0xbf09b95c	-0.5379846
194	0x3f8ee622	1.1163981
195	0xc0b97776	-5.7958326
196	0x3f300672	0.68759835
197	0xbf9f0fe5	-1.2426726
198	0xc0320226	-2.7813811
199	0xc037cb92	-2.8718
200	0xc013c32f	-2.308788
201	0xbfda8822	-1.7072794
202	0xbfaafacf	-1.3357791
203	0xbfdae323	-1.7100567
204	0xbfb78fd9	-1.4340774
205	0x3f8234ea	1.0172398
206	0xbfbe09e8	-1.4846773
207	0xc0dc7532	-6.889306
208	0x3ec2e4fd	0.3806533
209	0xc06b1f27	-3.6737764
210	0x3ebb639c	0.36599433
211	0x3f26510a	0.64967406
212	0x3ee50f0b	0.4473804
213	0xbf6b5bda	-0.9193703
214	0x3fcbf74d	1.5934845
215	0xbf1401a9	-0.57815033
216	0xc0c5279a	-6.161084
217	0xc0777f09	-3.8671286
218	0x3fca197b	1.5789026
219	0xbfbc3a4d	-1.4705292
220	0x3fc9272a	1.5715077
221	0xbf28d890	-0.6595545
222	0xbe90f425	-0.28311267
223	0xbf9a5f9a	-1.2060425
224	0xc058ca15	-3.387334
225	0xbf8409cf	-1.0315493
226	0xbf107a89	-0.56436974
227	0xbfc26017	-1.5185574
228	0xc0206d07	-2.5066545
229	0xbfbde046	-1.4834068
230	0x3f2fb852	0.68640625
231	0x3f8895c5	1.0670706
232	0xc098d1d4	-4.775614
233	0xbec5557d	-0.38541785
234	0x3ea9b469	0.33145455
235	0xbfe992b9	-1.8247901
236	0xbfedbb22	-1.8572733
237	0x3e945237	0.28968975
238	0xbe997c85	-0.29977813
239	0xbed66efd	-0.41881552
240	0xbf60b609	-0.87777764
241	0xbf4e7126	-0.806414
242	0x3f84fe2f	1.0390071
243	0xc0d3ed35	-6.622706
244	0x401d1121	2.4541705
245	0x3f9c2682	1.2199252
246	0xbfaf6fdc	-1.3706012
247	0xbf06e5f0	-0.52694607
248	0xbf2196a4	-0.63120484
249	0xc007af8e	-2.12009
250	0x3e8f981c	0.28045738
251	0x3f659ead	0.89695245
252	0xc071665c	-3.7718725
253	0xbfecc30d	-1.8497025
254	0xc0380043	-2.875016
255	0xc082aa5e	-4.083297

fc2.bias f4 [64]
0	0xbf733679	-0.95004994
1	0xc0a48c94	-5.1421604
2	0x413aa446	11.665106
3	0x4095c18c	4.6798763
4	0xbe3227a6	-0.17397937
5	0xc0aa8e05	-5.3298364
6	0x3fdd592d	1.7292839
7	0xc0944856	-4.63383
8	0xc073b2f8	-3.8077984
9	0xc07a6599	-3.912451
10	0x40e74c7a	7.2280855
11	0xc07d013d	-3.9532006
12	0x4185c723	16.722235
13	0xc07414da	-3.8137727
14	0xbfa2b40b	-1.2711195
15	0x3f094a1e	0.5362872
16	0xc005441a	-2.0822816
17	0x3bed2ec5	0.0072382414
18	0xbf96cd59	-1.1781417
19	0xc003b31a	-2.0578065
20	0xc09c5947	-4.885898
21	0xbeb7b8a6	-0.35883063
22	0x411ce2e2	9.805391
23	0xbffa6bf6	-1.9564197
24	0x3fc62cad	1.5482384
25	0xc088306f	-4.2559123
26	0x40a8a6a8	5.270344
27	0xc08c0fde	-4.376937
28	0xc0281c74	-2.6267366
29	0x3eee7a8d	0.46577874
30	0xc0869fae	-4.206992
31	0x40c4d5b1	6.1510854
32	0xc12e4ead	-10.894208
33	0x40b1fd30	5.5621567
34	0x3e566153	0.20935564
35	0x40696941	3.6470492
36	0x40c855e5	6.260485
37	0x404b16cd	3.1732666
38	0xbfdd9149	-1.7309963
39	0x3fe2117c	1.7661586
40	0xc0b8a6f3	-5.7703795
41	0x40e98e20	7.2985992
42	0x3ea38a8f	0.3194165
43	0xc02097cb	-2.5092647
44	0x40b87cd5	5.7652383
45	0xc08b7615	-4.3581643
46	0xc0b11af2	-5.534539
47	0x40b5a8f5	5.6768746
48	0xbf4cdb86	-0.80022466
49	0x40348ca7	2.8210847
50	0x406406ac	3.5629072
51	0xbe2d0485	-0.16896255
52	0xc03aceaf	-2.918865
53	0xc048cca8	-3.1374912
54	0x40eec810	7.4619217
55	0x3f93fd65	1.1561705
56	0xbfb84d0d	-1.4398514
57	0x40c3562d	6.1042695
58	0x3ed370ee	0.41297096
59	0xbbcde7e5	-0.0062837475
60	0xc07ec406	-3.9807143
61	0xc053c6c5	-3.309007
62	0xbe00f3a2	-0.12592939
63	0xbfd18f4c	-1.6371856

fc3.weight f4 [64, 64]
0	0x3f20051a	0.62507784
1	0xbdcd0c4f	-0.10012113
2	0xbf63f003	-0.89038104
3	0xc0483b7d	-3.1286309
4	0xbd53ae10	-0.05167967
5	0xc03a2f49	-2.909136
6	0xbf4ecaee	-0.80778396
7	0xbf04d234	-0.51883245
8	0x3f15f661	0.5857907
9	0xbfa2d4ce	-1.2721193
10	0xbf6b2d3e	-0.9186591
11	0x3f44d8f6	0.76893556
12	0xbf939b47	-1.1531762
13	0x3f7753f6	0.9661249
14	0x4092d094	4.587961
15	0xbef13439	-0.47110155
16	0x405bde4d	3.4354432
17	0xbf46ab6b	-0.77605313
18	0x401ca24a	2.4474053
19	0x406c7520	3.6946487
20	0x3f09063f	0.53525156
21	0xbe4c798e	-0.19968244
22	0xbec423c4	-0.38308537
23	0x3f8e228f	1.1104296
24	0xc04e9a0b	-3.228152
25	0xbf179992	-0.59218705
26	0x3e923b74	0.28560984
27	0xbdec2eac	-0.115323395
28	0x3f2c832c	0.6738765
29	0x3fa0de1f	1.2567786
30	0x3f99ffea	1.2031224
31	0x4008c621	2.1370928
32	0xbe81686f	-0.2527499
33	0x3fb48c6d	1.4105355
34	0x3db4e46c	0.088326305
35	0xbfb64446	-1.4239585
36	0x3f999ee1	1.2001611
37	0xbf5ca204	-0.86184716
38	0xbe23e3f5	-0.16004927
39	0x3f751ba3	0.95745295
40	0xbfc1f078	-1.515151
41	0xbebd3cfc	-0.3696059
42	0xbf9fd8ee	-1.2488077
43	0xbf9e5107	-1.2368478
44	0x3f436547	0.7632641
45	0xc016ffd2	-2.359364
46	0xbd888490	-0.06665909
47	0xc02ca10c	-2.6973295
48	0x3e139197	0.14411007
49	0xbe59a0a6	-0.21252689
50	0xbf985c03	-1.190308
51	0xc04ba25b	-3.1817844
52	0x3fec579e	1.8464239
53	0x3f6a401e	0.91504085
54	0x40359f7e	2.8378596
55	0x3ecb82f5	0.3974835
56	0xbfe3e56b	-1.7804388
57	0xc04b0b11	-3.1725504
58	0x3f161ca4	0.5863745
59	0x40a41b7f	5.1283565
60	0xbdc81dba	-0.09771295
61	0x3dfc6997	0.12324827
62	0x3e88f5b0	0.26749945
63	0x3fab1b1e	1.336765
64	0xbed599ab	-0.41718802
65	0x3faf3a84	1.3689733
66	0xbf962f6d	-1.1733223
67	0xbfd8d16d	-1.6938912
68	0xbddcdb11	-0.10783971
69	0x3d9bf4e8	0.076150715
70	0x3e170eb7	0.14751707
71	0xc00efcb3	-2.2341735
72	0xbf8de7ae	-1.1086328
73	0x3f40e634	0.7535126
74	0xc02464f5	-2.568662
75	0xbeae343b	-0.34024224
76	0xc0468f8e	-3.102512
77	0xc00a9c3a	-2.1657853
78	0xbf6c47c7	-0.92297024
79	0xbf7c1eeb	-0.9848468
80	0x3f2a908a	0.666268
81	0x3d3d52a9	0.04622141
82	0x3f5008d6	0.8126348
83	0x3fa0d6d9	1.2565566
84	0xc00bc393	-2.183812
85	0xbe395fe1	-0.18102981
86	0x3f8564e4	1.0421414
87	0xbff9e8ca	-1.9524167
88	0xbfd215ed	-1.6412941
89	0xc02070a9	-2.5068762
90	0xbfe530c1	-1.7905504
91	0x3f8fdbf9	1.1239005
92	0x3f19a5cd	0.60018617
93	0xbe828e42	-0.2549916
94	0xbec8497d	-0.39118567
95	0xbfd67515	-1.6754481
96	0xc0317b10	-2.7731361
97	0xbfefe58a	-1.8741925
98	0xbf98061a	-1.1876862
99	0xbf2eb681	-0.6824723
100	0x3fc4b4ab	1.5367635
101	0xbf51557f	-0.8177108
102	0xbe43eff4	-0.19134504
103	0xbf99cbae	-1.2015283
104	0x3f49e4d2	0.7886478
105	0xbfd671e1	-1.6753503
106	0xc006fc3d	-2.1091454
107	0xbef12e44	-0.4710561
108	0xbfeefbae	-1.8670557
109	0xbffa13c5	-1.9537283
110	0xbf0f2942	-0.5592233
111	0xbe1b42a9	-0.15162148
112	0xc01e7b00	-2.4762573
113	0xbd04cfc6	-0.03242471
114	0xc01775c7	-2.3665636
115	0xbf5fe6f5	-0.8746179
116	0x3ed13d1c	0.40866935
117	0xbf4b6425	-0.79449683
118	0xc08f9627	-4.487079
119	0xbf6dad1b	-0.92842263
120	0x3f500f58	0.8127341
121	0xc00e6824	-2.2251062
122	0x3ea3a50d	0.3196186
123	0xbf56251a	-0.8365036
124	0xbeaae13a	-0.3337496
125	0xbf9bbd1e	-1.2167089
126	0x3f42c6a7	0.7608437
127	0xbf0b933b	-0.5452153
128	0xc013ed76	-2.3113685
129	0x3f7becbe	0.98408115
130	0xbfa6c7a0	-1.3029671
131	0xbf91d3d7	-1.1392773
132	0x3e153f51	0.14574935
133	0x3fa5fd65	1.2967955
134	0xc035332c	-2.8312483
135	0x3f44f003	0.7692873
136	0xbf566434	-0.8374665
137	0x3f2362fe	0.63822925
138	0xbff54981	-1.9163057
139	0xbf74b841	-0.9559365
140	0xbf65e6be	-0.8980521
141	0x3eed9e1f	0.464097
142	0x3e43f001	0.19134523
143	0x3ca2ddc7	0.019881142
144	0x3f81dad0	1.0144901
145	0xbef4d2f8	-0.47817206
146	0xbe8fe5b9	-0.28104952
147	0x3dc456b3	0.09586849
148	0xbeb3bc03	-0.3510438
149	0x3d495d9b	0.049161535
150	0xbfe5db41	-1.7957536
151	0x3cadcba8	0.021215275
152	0xbfcec527	-1.6153916
153	0xbf288240	-0.65823746
154	0xbf708e8d	-0.93967515
155	0x3e75e231	0.24012066
156	0xbd374c18	-0.044750303
157	0xbf98452e	-1.1896112
158	0x3e96376b	0.29339156
159	0xbf8ae841	-1.0852128
160	0xbf580733	-0.84385985
161	0x3f6e028d	0.9297264
162	0xbf9e4757	-1.2365521
163	0x3fb86ac5	1.4407583
164	0x3f742a54	0.9537709
165	0x3caba00d	0.020950342
166	0xbf0dfa97	-0.55460495
167	0xbfd96f4f	-1.6987094
168	0x3e8f20e6	0.27954787
169	0xbfc82ba9	-1.5638324
170	0xbed86da9	-0.42271164
171	0xbfb36459	-1.4014999
172	0xbd0500ba	-0.032471396
173	0xbe9b0aa6	-0.30281562
174	0xbd369558	-0.04457602
175	0x3f3414c8	0.7034421
176	0xbf96f667	-1.1793946
177	0x3f54f928	0.8319268
178	0xbf407f5b	-0.7519433
179	0x3ebcffde	0.3691396
180	0xbf3e3a73	-0.74307936
181	0x3f505d79	0.8139263
182	0xbfba6aa9	-1.45638
183	0xbe819185	-0.25306335
184	0xbec7f525	-0.39054218
185	0xbf3fd1fd	-0.7492979
186	0xbe30ab55	-0.17252858
187	0xc00f8d0a	-2.2429833
188	0xc023e02d	-2.5605576
189	0x3da70c28	0.081566155
190	0x3dc2d848	0.095139086
191	0xbddfea43	-0.10933354
192	0xbe8c03d9	-0.27346686
193	0xbe449714	-0.19198257
194	0x3f80d657	1.0065411
195	0x4040c034	3.0117311
196	0x3e895e4f	0.26829764
197	0x40ce4a17	6.446544
198	0x3e5efd61	0.21776344
199	0xc02bff11	-2.687443
200	0xbf257139	-0.6462589
201	0xbf16e595	-0.58944064
202	0x3e385b73	0.18003635
203	0xbee64dd4	-0.44981253
204	0x3f3e1bd4	0.7426121
205	0xbf21c5a3	-0.63192195
206	0x3ee1be2b	0.440904
207	0x3f22080d	0.63293535
208	0xbf9ce8e9	-1.2258579
209	0xbe830e03	-0.25596628
210	0xbf02774e	-0.50963295
211	0x3f1033a1	0.5632878
212	0xbdb6f6fc	-0.08933827
213	0x3eb3b706	0.35100573
214	0x3ed26391	0.41091588
215	0xbe73387e	-0.23752019
216	0xbdb81380	-0.08988094
217	0x40d4bd25	6.648089
218	0x3fbfb162	1.4976008
219	0xbeb2ef8c	-0.34948385
220	0x3f6d70a0	0.9274998
221	0x3fcddbce	1.6082704
222	0x3e030a2b	0.12796848
223	0x3e886853	0.26642093
224	0x3d75c681	0.06000376
225	0x40c9990a	6.2999315
226	0x3f1b9c6f	0.60785574
227	0xbf0bcb21	-0.54606825
228	0xbb120b1e	-0.0022284458
229	0xbf035e2a	-0.5131556
230	0x3d0adad6	0.033900104
231	0x3ec7fd6e	0.3906054
232	0x3e6a74a0	0.22896051
233	0x3e8db3ab	0.27676138
234	0x3e7fbff0	0.24975562
235	0x407a1f60	3.908165
236	0x3f451fd6	0.770017
237	0xbd1ee7af	-0.03879517
238	0x3df72ef7	0.12069505
239	0x3e9dc8cd	0.3081726
240	0x405bea0a	3.4361596
241	0xbf087c88	-0.5331502
242	0xbec1629a	-0.3777054
243	0x3d1f7b05	0.03893568
244	0xbf4e4488	-0.8057332
245	0x3f9c0855	1.2190043
246	0x408834e1	4.256455
247	0x3e2b7572	0.1674402
248	0x407b2bfc	3.9245596
249	0x40074a79	2.1139205
250	0x3f677b04	0.9042208
251	0x3faf7567	1.3707703
252	0xbea9d2dd	-0.33168688
253	0x3e142b1b	0.14469568
254	0x3ee1ea55	0.44124094
255	0xbe1a793c	-0.1508531

fc3.bias f4 [64]
0	0xbff1098c	-1.8831038
1	0xbee57771	-0.4481769
2	0xc04d1519	-3.2044127
3	0x419931fa	19.149403
4	0x3ffc1868	1.9694948
5	0x404eb7c6	3.2299666
6	0x40778e80	3.8680725
7	0xbf2b66ec	-0.6695392
8	0x3e5a585c	0.21322769
9	0x40ac0c44	5.3764973
10	0xc01916e1	-2.3920214
11	0x3ff13a28	1.8845873
12	0x412566cf	10.3376
13	0x3f2daca9	0.67841583
14	0xc0844d0a	-4.134404
15	0xc0235e74	-2.55264
16	0x3feb6790	1.839098
17	0x3feb700d	1.839357
18	0x41396bae	11.588789
19	0xbf90890e	-1.1291826
20	0xc0f5c48d	-7.680243
21	0xc1823924	-16.2779
22	0x412d860d	10.845227
23	0xbf9f01e5	-1.2422453
24	0x4038557b	2.8802173
25	0x3da588a6	0.08082704
26	0xc022b4d8	-2.5422878
27	0xc0b5edd5	-5.685282
28	0xc16667f0	-14.400375
29	0xbe9fa700	-0.31182098
30	0xbfed1827	-1.8522996
31	0x400db9a8	2.2144566
32	0xbfe57c6e	-1.7928598
33	0x3fef6f92	1.8705924
34	0xc02aee86	-2.6708083
35	0xc032e638	-2.7953014
36	0xbf14a795	-0.5806821
37	0xc084fd94	-4.1559544
38	0xc0ea0269	-7.312794
39	0x3ffcb71e	1.9743383
40	0x40297ebc	2.6483603
41	0x3ff1d480	1.8892975
42	0xbf6ed095	-0.9328702
43	0x3eb3e0c2	0.35132414
44	0x3f3a3df0	0.7275076
45	0xbfcdceba	-1.6078713
46	0x4096298c	4.6925716
47	0xbefbf72f	-0.49212024
48	0xbf087f75	-0.53319484
49	0x3fda7c23	1.7069134
50	0xbfc2d6fd	-1.5221859
51	0xc05a4fc1	-3.4111178
52	0x407df2ae	3.967937
53	0x3eda8561	0.42679885
54	0xbfa25a90	-1.2683887
55	0xc02ac483	-2.6682441
56	0xbf58ed10	-0.8473673
57	0x418041bc	16.032097
58	0xbf57c983	-0.8429186
59	0xbf4f9d42	-0.8109933
60	0xc05a718a	-3.4131799
61	0xc0a332b5	-5.09994
62	0x40c4fa97	6.1555896
63	0x3e6b427c	0.2297458

q_out.weight f4 [1, 64]
0	0xbdbe773b	-0.09300085
1	0x3f0da2fc	0.5532682
2	0xbcd9a0fb	-0.02656602
3	0x3ecf6a10	0.40510607
4	0x3d05bb25	0.032649178
5	0x3e1706dc	0.1474871
6	0xbd24df5e	-0.040252082
7	0x3cd45f17	0.025924249
8	0xbee13260	-0.43983746
9	0x3d82ba2c	0.06383166
10	0xbdf4fe2b	-0.11962541
11	0xbbc0ef3f	-0.0058878954
12	0x3d23122f	0.039812263
13	0x3f353733	0.7078735
14	0x3ed53c12	0.41647393
15	0x3ddfdd6b	0.10930904
16	0xbcb704bc	-0.022341125
17	0xbf7f633b	-0.9976079
18	0x3fb98804	1.4494634
19	0x3f2f78fc	0.6854398
20	0xbe870b6d	-0.26375905
21	0xbe026740	-0.12734699
22	0x3dfe721f	0.124241106
23	0xbdcf446f	-0.101204745
24	0x3d25698c	0.04038386
25	0x3e4c11eb	0.1992871
26	0x3e052e3c	0.13005918
27	0xbd8df999	-0.069323726
28	0xbddf519f	-0.1090424
29	0x3d178658	0.036993355
30	0xbe212372	-0.15736178
31	0x3c80dfa9	0.01573165
32	0x3da5a4d2	0.080880776
33	0xbec24b68	-0.37948155
34	0xbcf551a0	-0.029946148
35	0xbe5f9cfb	-0.21837227
36	0xbe16f9da	-0.14743748
37	0x3f2baeeb	0.6706378
38	0xbe181e3f	-0.14855288
39	0x3b9e8e32	0.0048387283
40	0x3ea8aa46	0.32942408
41	0xbe70691f	-0.234776
42	0x3c79c899	0.01524558
43	0x3c76a978	0.015055053
44	0xbc171b19	-0.009222769
45	0x3be03ad2	0.0068429494
46	0xbc3902a2	-0.011292132
47	0x3ed53aa7	0.4164631
48	0x3d014149	0.0315564
49	0x3da54d28	0.08071357
50	0x3e909f36	0.28246468
51	0x3cf19fab	0.029495081
52	0x3ef043d8	0.4692676
53	0x3ebc561b	0.36784443
54	0x3ecfda73	0.4059635
55	0xbd2955b9	-0.041341517
56	0xbc4e2504	-0.012582067
57	0x3defbf64	0.11706427
58	0x3d672da4	0.05644001
59	0x3dfba8a9	0.12288029
60	0xbdb104fc	-0.08643529
61	0xbd715bdf	-0.058925506
62	0x3dc5ca36	0.09657709
63	0x3f386709	0.7203222
